MultiDismantler_unit_cost/models/g0.5_TORCH-Model_GMM_30_50/nrange_30_50_iter_100000.ckpt (torch, 128830 bytes, 13 tensors)

w_n2l f4 [2, 64]
0.95910144 1.0687109 1.2861168 -1.478174 0.5697636 -0.5017481 0.33555076 1.4863464
-0.54974365 -0.47983426 -0.49968153 -1.0669804 1.1154412 -0.14067143 0.81359863 0.33605486
0.69904506 -0.83831537 0.00017137278 0.8456109 -0.40003416 1.0455828 0.35868648 -0.003303873
0.30251646 -1.8816892 -0.08240096 -1.0449786 -0.9565008 0.038819302 0.70428675 -1.5352871
-1.3601689 0.34330708 0.50361973 -0.60527086 -1.6964744 -0.25195566 0.28378093 0.07324605
0.07768275 0.34560207 0.4358968 0.45584 -0.86537135 0.78863573 -0.9267894 0.20517343
-0.43506527 -0.07291476 -0.03398641 0.9687537 0.3357809 -0.9213818 -0.0547073 -0.7124515
-0.46372217 1.924575 -0.40254554 0.12076169 1.1519462 0.9233735 1.3883674 1.3962532
-0.379793 -0.8469349 0.5618491 0.6103646 0.4694051 1.9220142 -1.0630985 1.1175752
0.11639865 -0.5939908 -1.2439282 -0.10209263 -1.0330467 -0.31263882 0.25363436 0.38562247
0.13033527 0.24395925 1.1638895 0.29228655 0.38659775 -0.19494876 -0.11738848 -0.82936686
-0.7721569 -1.9003453 0.098003544 -0.70429397 0.31472096 0.16268116 0.3795676 0.5736546
-0.9910827 0.3003471 -0.12355338 1.0065043 -0.49871477 0.7373911 0.6221207 -0.29938447
0.21412736 -0.11245779 0.34195477 -0.31513515 -1.078708 0.24814153 -1.3962272 0.11230902
-0.35835508 -1.5615617 -0.3546433 1.0873055 0.118087776 1.5735995 0.7829197 0.9765087
-0.72090983 1.4735852 0.275635 0.6636407 -1.0072274 -1.189364 -1.1948773 1.3331074
00000000: ac87 753f 85cb 883f 7a9f a43f ce34 bdbf
00000010: 07dc 113f 9072 00bf 4fcd ab3e 9940 be3f
00000020: 00bc 0cbf d6ac f5be 42d6 ffbe d092 88bf
00000030: c7c6 8e3f 2c0c 10be 0048 503f 620f ac3e
00000040: 9ef4 323f d69b 56bf 88b2 3339 f579 583f
00000050: 47d1 ccbe a8d5 853f c1a5 b73e ca85 58bb
00000060: 70e3 9a3e 31db f0bf d6c1 a8bd dcc1 85bf
00000070: 3ddd 74bf fd00 1f3d 234c 343f 4a84 c4bf
00000080: 041a aebf f2c5 af3e 39ed 003f 08f3 1abf
00000090: 1326 d9bf 5500 81be bc4b 913e 0602 963d
000000a0: 2218 9f3d c1f2 b03e de2d df3e dc63 e93e
000000b0: fa88 5dbf 08e4 493f 1242 6dbf fc18 523e
000000c0: e0c0 debe 5554 95bd 5535 0bbd 3e00 783f
000000d0: 79eb ab3e addf 6bbf c314 60bd 3963 36bf
000000e0: fe6c edbe 7958 f63f 731a cebe e851 f73d
000000f0: f972 933f 3562 6c3f 06b6 b13f 6db8 b23f
00000100: 3a74 c2be bad0 58bf 58d5 0f3f db40 1c3f
00000110: de55 f03e 9004 f63f 9d13 88bf b40c 8f3f
00000120: 6a62 ee3d c80f 18bf 0a39 9fbf f115 d1bd
00000130: e03a 84bf 3212 a0be 5ddc 813e 4f70 c53e
00000140: 9c76 053e 74d0 793e 55fa 943f 95a6 953e
00000150: 24f0 c53e a6a0 47be 5f69 f0bd 6351 54bf
00000160: 13ac 45bf 843e f3bf 15b6 c83d 9c4c 34bf
00000170: 1b23 a13e e495 263e af56 c23e 07db 123f
00000180: 99b7 7dbf 18c7 993e 8e09 fdbd 22d5 803f
00000190: 8b57 ffbe aac5 3c3f 4d43 1f3f ec48 99be
000001a0: 3444 5b3e 4550 e6bd b214 af3e 6559 a1be
000001b0: 1b13 8abf d018 7e3e 93b7 b2bf 4502 e63d
000001c0: 517a b7be 41e1 c7bf ce93 b5be d42c 8b3f
000001d0: 01d8 f13d b56b c93f 6d6d 483f 79fc 793f
000001e0: 8c8d 38bf 719e bc3f 0820 8d3e 5be4 293f
000001f0: d4ec 80bf 143d 98bf bdf1 98bf 43a3 aa3f

p_node_conv f4 [64, 64]
0.55707043 0.36443418 0.3781699 0.16637668 0.87777615 -0.2954078 1.0441011 -0.51772004
-1.0992128 0.35174003 0.58355886 0.6814332 -1.2195877 0.59462714 -0.6158403 -1.1100607
0.11841396 0.96535474 0.8898693 -1.2749127 0.9617007 -0.47076073 -1.3272101 0.447118
1.1944494 -0.69849104 0.5721077 0.3128907 -0.031930134 -1.051174 -0.11200478 0.22012055
1.5842775 0.2416547 0.38002118 -0.146824 0.68946266 -0.27098975 -1.3416244 -0.6514079
-0.52932453 -0.5465621 0.8959101 -0.8574364 0.81690353 1.1529602 -1.7586207 -1.1227797
-1.7749342 0.07029187 -1.0570014 1.4192734 -0.11448663 0.5701387 -0.16685137 1.2326307
1.0294707 0.892537 -0.4707192 -0.87017304 0.15457779 1.9015744 0.4221498 0.029450096
-0.78370386 -0.5298355 -0.3956732 0.5870084 -1.1514219 -0.15209906 -0.16115241 1.4704895
1.3937399 0.5432058 -0.45705545 -0.34557766 -1.3575796 1.6644635 0.010204969 0.2563216
0.72725475 0.573811 0.28619513 -0.07933648 0.51641643 -0.49941492 -0.8956603 -0.90738297
1.12019 0.355517 -0.17881581 -1.1258583 -0.31367686 0.9513877 -1.1584595 0.82671654
0.78770417 -0.14464846 -0.72825843 -0.08441071 -0.93655175 0.069587484 -0.48119077 -1.5836018
0.82709247 -0.6560987 1.3489857 1.5039088 -0.63426554 0.95523894 -0.4211811 -1.1169139
-0.2304457 -0.50220037 0.80452955 0.08092362 -1.07743 -0.13093442 -1.0177087 -1.4503206
0.4611061 -1.2515566 -1.4002486 1.5380938 -0.040417295 -0.4382568 -0.2238225 -0.40136048
-0.03785246 0.37711474 1.1143677 1.9266323 1.0018837 0.99162775 -0.42928058 1.1671265
1.2298653 0.21928182 0.5225655 -0.007162295 -0.2282291 1.4611738 -1.2787548 -1.1467665
1.9436195 -0.111618705 0.32151863 0.35513332 -0.5921279 -0.971093 1.3252121 -0.5435824
-1.3467093 -0.36561266 -0.07427795 0.96542513 -0.6810825 1.9527814 -1.0932487 0.38872635
1.5431467 1.1570787 1.2381777 0.0869006 1.6299732 0.47196388 1.2894648 0.31131175
0.07346379 0.7591428 -0.9674804 -0.8454097 -0.34797698 -0.33879444 0.44702435 0.46303096
0.8668032 0.3717959 1.4548769 0.47573668 -0.52427626 -0.04038596 0.6677511 -1.067116
-0.54520446 -0.44905114 -1.2748717 -0.18061891 0.55521286 -0.1862939 -0.2141026 -1.8939848
0.8109308 1.2483915 0.9310369 0.50298244 -1.5605743 0.31965882 0.7497664 0.3138435
0.082142666 1.0917664 -1.5458646 -0.69022 0.5611489 1.2375346 -0.71749324 -0.65267503
0.22841504 0.18265389 -0.1705196 1.3859248 -0.5055658 1.6895078 -1.0145335 -0.59271634
-1.274644 0.72922903 1.2001611 -0.674848 -0.078050174 0.19657023 1.7927268 0.673501
0.9855192 -1.0509244 1.7574406 -0.29524678 -0.25787425 0.7463024 -0.6465569 1.465639
0.28532544 0.6589765 1.8841673 1.1985271 -0.5913582 0.9576496 -1.5149415 -0.7492467
1.1857898 -0.46233535 0.47037515 1.3091791 0.43501613 -0.5024374 -0.17313899 -0.17747551
0.086949974 0.32835892 -0.7481097 0.23839682 -0.25996742 1.5559702 -0.19442274 0.0011857906
00000000: 2b9c 0e3f 1e97 ba3e 7c9f c13e a65e 2a3e
00000010: f0b5 603f b13f 97be 1ba5 853f 4d89 04bf
00000020: 01b3 8cbf 4517 b43e 1d64 153f 6872 2e3f
00000030: 731b 9cbf 7c39 183f b6a7 1dbf 7816 8ebf
00000040: 0583 f23d 7d21 773f 79ce 633f 5730 a3bf
00000050: 0432 763f 8d07 f1be 05e2 a9bf a7ec e43e
00000060: b8e3 983f 4fd0 32bf a675 123f 3633 a03e
00000070: 2cc9 02bd df8c 86bf c362 e5bd 4867 613e
00000080: 9bc9 ca3f 5474 773e 2392 c23e 0859 16be
00000090: a080 303f 2bbf 8abe 59ba abbf abc2 26bf
000000a0: d081 07bf 7eeb 0bbf 5d5a 653f f480 5bbf
000000b0: 9720 513f 3394 933f 7c1a e1bf 3fb7 8fbf
000000c0: 0b31 e3bf 2ff5 8f3d d24b 87bf c0aa b53f
000000d0: f777 eabd 9cf4 113f 16db 2abe d8c6 9d3f
000000e0: b2c5 833f 4e7d 643f 1b02 f1be a9c3 5ebf
000000f0: a449 1e3e ca66 f33f 0524 d83e 5441 f13c
00000100: d1a0 48bf 4da3 07bf ad95 cabe 2f46 163f
00000110: cb61 93bf dbbf 1bbe 2305 25be 0039 bc3f
00000120: 1266 b23f 890f 0b3f 2c03 eabe 8eef b0be
00000130: 2bc5 adbf 240d d53f be32 273c 963c 833e
00000140: 5e2d 3a3f 47e5 123f 2b88 923e 2a7b a2bd
00000150: de33 043f 50b3 ffbe fe49 65bf 404a 68bf
00000160: 6362 8f3f 5306 b63e 7e1b 37be 201c 90bf
00000170: 419a a0be 258e 733f 6748 94bf b2a3 533f
00000180: fba6 493f ba1e 14be 256f 3abf 86df acbd
00000190: dbc1 6fbf e283 8e3d a35e f6be 77b3 cabf
000001a0: 55bc 533f 16f6 27bf 90ab ac3f 1580 c03f
000001b0: 3a5f 22bf 8a8a 743f 0da5 d7be 09f7 8ebf
000001c0: f5f9 6bbe 3490 00bf a6f5 4d3f 48bb a53d
000001d0: 3ae9 89bf ac13 06be 4744 82bf 1ba4 b9bf
000001e0: 1916 ec3e 0233 a0bf 593b b3bf 42e0 c43f
000001f0: 9b8c 25bd 3263 e0be ba31 65be 1f7f cdbe
00000200: 2e0b 1bbd 2f15 c13e 9aa3 8e3f e39b f63f
00000210: ba3d 803f 51db 7d3f aaca dbbe 6764 953f
00000220: 3a6c 9d3f 6a8b 603e dac6 053f afb1 eabb
00000230: e4b4 69be be07 bb3f 3dae a3bf 3fc9 92bf
00000240: 86c8 f83f 5998 e4bd 179e a43e 09d4 b53e
00000250: b295 17bf 8d99 78bf 8da0 a93f 3728 0bbf
00000260: f860 acbf 9531 bbbe 0a1f 98bd 1a26 773f
00000270: 6c5b 2ebf bef4 f93f 93ef 8bbf 2407 c73e
00000280: d585 c53f 281b 943f 9b7c 9e3f f1f8 b13d
00000290: f6a2 d03f 40a5 f13e 2f0d a53f 4164 9f3e
000002a0: 2f74 963d 2f57 423f ccac 77bf c56c 58bf
000002b0: 0a2a b2be 7776 adbe 60e0 e43e 6512 ed3e
000002c0: d1e6 5d3f 085c be3e 6839 ba3f c293 f33e
000002d0: f836 06bf c06b 25bd bcf1 2a3f 4297 88bf
000002e0: 8592 0bbf 08ea e5be ff2e a3bf 2af4 38be
000002f0: 6e22 0e3f d4c3 3ebe b63d 5bbe 186e f2bf
00000300: 2999 4f3f 4bcb 9f3f 6f58 6e3f 75c3 003f
00000310: e6c0 c7bf 52aa a33e b1f0 3f3f 18b0 a03e
00000320: 6a3a a83d 00bf 8b3f e4de c5bf 42b2 30bf
00000330: 74a7 0f3f 8967 9e3f a3ad 37bf b615 27bf
00000340: a2e5 693e 9f09 3b3e b19c 2ebe fc65 b13f
00000350: c36c 01bf cb41 d83f 3cdc 81bf 42bc 17bf
00000360: 8927 a3bf c1ae 3a3f e19e 993f d7c2 2cbf
00000370: c5d8 9fbd b549 493e 1278 e53f 906a 2c3f
00000380: fc4a 7c3f b184 86bf d0f3 e03f 962a 97be
00000390: 1808 84be ad0d 3f3f c184 25bf 0f9a bb3f
000003a0: 2d16 923e afb2 283f 652c f13f 5669 993f
000003b0: 4063 17bf 8628 753f 9ae9 c1bf a2ce 3fbf
000003c0: f6c7 973f 38b7 ecbe 03d5 f03e 2e93 a73f
000003d0: 6fba de3e bd9f 00bf 594b 31be 24bc 35be
000003e0: d412 b23d a91e a83e 1e84 3fbf 4c1e 743e
000003f0: 731a 85be 082a c73f c116 47be 886c 9b3a

p_node_conv2 f4 [64, 64]
1.021883 -0.3678821 -0.8788784 -1.1504697 1.0520296 -0.73209447 -1.3957953 -0.17560954
-0.9205007 -1.8110864 -0.35474598 -0.640002 0.78349364 0.9722196 0.23318934 -0.26753092
-0.69614446 -0.12530646 -0.2529555 -1.8472588 -0.14681637 0.74208105 1.6392838 -0.48013118
0.02740618 -1.303225 -0.85466343 -0.7388625 -0.3623922 1.007197 -0.9888067 -0.036396876
1.1742895 0.34364292 0.68342125 0.90781105 -0.6720909 1.7651277 0.18846928 0.90358955
1.459637 -1.3303732 -0.8531194 1.3452241 0.56052065 -0.5985362 -0.3708081 0.84047055
0.9807825 0.25571802 0.37305927 -1.3657789 -1.0034409 -0.20858258 -0.5177456 -0.024660228
1.6226825 -1.040562 -0.002314934 0.031799305 1.3117245 -1.738951 -0.343892 0.5744243
0.54999846 0.24403884 -1.0685991 0.52885866 -0.8989737 -0.23009098 -0.43759844 -0.6584091
1.2118895 -1.1685295 -0.7601264 -0.41308433 0.88303006 0.075564 -0.3385527 0.81011426
0.6266233 0.015275773 -1.9602399 -0.52946496 -0.08866291 0.10909937 0.36651242 -0.41688684
-0.63272345 -0.19029242 0.4779319 -0.4768412 -0.08998585 -0.92106515 0.20862898 -0.7020718
-0.10759704 0.5498364 -0.6779175 0.08789288 0.2399177 0.7779643 0.17288718 0.62858695
-0.15398021 -0.2508079 0.43630916 1.1742439 0.2876338 0.80645055 1.2884346 0.5873183
0.6773185 0.23288354 -1.2246178 0.09710478 0.36633444 0.56287384 -0.5988968 0.93571657
0.49270943 -1.7499218 0.7399236 1.1831105 0.38054907 0.7527307 -0.6156693 -0.8207781
0.121116176 0.35672802 0.36182395 0.5489528 -0.44817045 0.7260023 0.3151012 0.012821128
0.3684963 0.8987886 -0.5393527 0.57002956 -0.38811454 -0.69399923 0.030561678 -1.7231222
-0.045802776 -1.5479231 -1.1166846 -0.22786428 -0.8544895 1.3711548 -1.674075 -0.230081
-0.9994992 -0.83043593 0.17854866 -0.8935011 -0.8114696 0.17248371 -0.9420641 1.5488944
-0.15906212 1.430397 0.42381373 -0.6328687 -0.123729676 -0.41836345 -1.7951535 -1.246137
-0.70186424 0.5575499 -1.3176417 -1.1476109 -0.7320115 -1.5489304 1.9367568 0.175378
-0.29810882 1.2909188 0.56653994 -1.4993823 -1.4880158 -1.1826743 0.26545647 -1.3603262
1.7203983 -1.5369792 0.05248771 -1.5000715 0.13750212 -0.3107517 -0.39636278 -0.02410366
0.5050669 0.38109377 -0.76340204 0.6443578 1.1375315 -0.9325889 -0.461636 0.29313907
0.0564127 -0.5468985 0.2905347 -0.96555495 -1.0383041 -0.34424108 -0.6599204 1.4356449
1.8738296 1.7922719 -0.3659987 -0.043202125 -0.89498305 0.9854571 1.5178134 -1.9011697
0.53978646 -0.18664137 -0.9754104 -1.5606169 -0.7209198 -1.8997378 -0.31135857 0.50806165
-0.3714088 0.4306271 0.35295102 0.20238666 0.7362449 0.09824228 -1.0372185 1.0725398
0.29143837 -0.6583131 -0.90164363 -0.6361447 -1.5563744 1.7225726 -0.8105429 0.471931
-0.6657507 -0.0029771526 0.022559939 -0.09004175 0.6004913 -1.2025098 0.8845623 1.0344923
1.6144826 -0.024967816 -0.024431694 0.056011956 1.7230914 -0.092743926 -0.73597366 0.70831275
00000000: 10cd 823f 0b5b bcbe 2dfe 60bf 9742 93bf
00000010: e8a8 863f 8b6a 3bbf 6ca9 b2bf fdd2 33be
00000020: efa5 6bbf aed1 e7bf 44a1 b5be 2cd7 23bf
00000030: 0a93 483f 62e3 783f 30c9 6e3e d0f9 88be
00000040: 8636 32bf 5650 00be 6283 81be fa72 ecbf
00000050: 0857 16be 06f9 3d3f 0dd4 d13f c1d3 f5be
00000060: ed82 e03c 14d0 a6bf 39cb 5abf 1826 3dbf
00000070: 788b b9be d5eb 803f 7022 7dbf e414 15bd
00000080: 1e4f 963f f7f1 af3e b2f4 2e3f 4e66 683f
00000090: 260e 2cbf b4ef e13f 17fe 403e a551 673f
000000a0: 63d5 ba3f ab49 aabf 0866 5abf 4e30 ac3f
000000b0: 487e 0f3f ab39 19bf 8fda bdbe 1429 573f
000000c0: 9014 7b3f 79ed 823e a001 bf3e d8d1 aebf
000000d0: c070 80bf ac96 55be fa8a 04bf 3f04 cabc
000000e0: 0fb4 cf3f 2331 85bf 26b6 17bb fd3f 023d
000000f0: 97e6 a73f f295 debf 9d12 b0be 790d 133f
00000100: b3cc 0c3f 51e5 793e dbc7 88bf 4863 073f
00000110: 2423 66bf f89c 6bbe e70c e0be 808d 28bf
00000120: 321f 9b3f 6092 95bf a597 42bf ca7f d3be
00000130: 420e 623f 4cc1 9a3d c856 adbe a663 4f3f
00000140: 626a 203f 3c47 7a3c 24e9 fabf 048b 07bf
00000150: e694 b5bd 7e6f df3d 84a7 bb3e 3172 d5be
00000160: 2afa 21bf 04dc 42be 7db3 f43e 8824 f4be
00000170: 804a b8bd edca 6bbf d6a2 553e faba 33bf
00000180: d65b dcbd 14c2 0c3f 008c 2dbf 2f01 b43d
00000190: fcac 753e ab28 473f 5609 313e 13eb 203f
000001a0: fdac 1dbe e569 80be ea63 df3e a04d 963f
000001b0: bd44 933e 8b73 4e3f 6deb a43f 7e5a 163f
000001c0: bf64 2d3f 0679 6e3e 47c0 9cbf dfde c63d
000001d0: 3090 bb3e 8018 103f 4d51 19bf 1f8b 6f3f
000001e0: 6944 fc3e 70fd dfbf a26b 3d3f 2a70 973f
000001f0: 54d7 c23e f6b2 403f 819c 1dbf 831e 52bf
00000200: c20b f83d 0ea5 b63e fd40 b93e 2c88 0c3f
00000210: 9976 e5be 49db 393f f254 a13e b50f 523c
00000220: 8cab bc3e 0217 663f 0513 0abf 75ed 113f
00000230: f3b6 c6be efa9 31bf 7c5c fa3c 458f dcbf
00000240: b19b 3bbd 5822 c6bf 85ef 8ebf 4155 69be
00000250: d3bf 5abf 0082 af3f 1748 d6bf 5b9a 6bbe
00000260: 2edf 7fbf 7397 54bf 76d5 363e 7dbc 64bf
00000270: 79bc 4fbf 929f 303e 1d2b 71bf 2c42 c63f
00000280: 2ee1 22be 4017 b73f 1dfe d83e af03 22bf
00000290: fc65 fdbd bc33 d6be 97c7 e5bf 6b81 9fbf
000002a0: 60ad 33bf 97bb 0e3f 7ca8 a8bf eae4 92bf
000002b0: 1b65 3bbf 5a43 c6bf a6e7 f73f 4a96 333e
000002c0: b8a1 98be d43c a53f c308 113f c2eb bfbf
000002d0: 4d77 bebf df61 97bf e9e9 873e 2b1f aebf
000002e0: 0336 dc3f bcbb c4bf 5afd 563d 5802 c0bf
000002f0: 5bcd 0c3e d91a 9fbe 10f0 cabe 0a75 c5bc
00000300: 104c 013f b91e c33e 516e 43bf a2f4 243f
00000310: a29a 913f 25be 6ebf 8e5b ecbe 5316 963e
00000320: 0111 673d 8a01 0cbf f7c0 943e 9c2e 77bf
00000330: 26e7 84bf 5e40 b0be 8bf0 28bf 36c3 b73f
00000340: a6d9 ef3f 2a69 e53f 2e64 bbbe b6f4 30bd
00000350: 9c1d 65bf eb46 7c3f b647 c23f 8759 f3bf
00000360: 722f 0a3f ea1e 3fbe 7fb4 79bf 4bc2 c7bf
00000370: 338e 38bf 9c2a f3bf 646a 9fbe 5410 023f
00000380: 4b29 bebe 287b dc3e ffb5 b43e 733e 4f3e
00000390: 8c7a 3c3f 4033 c93d 93c3 84bf fc48 893f
000003a0: 6937 953e 3587 28bf 1ed2 66bf 61da 22bf
000003b0: 4737 c7bf 427d dc3f bd7f 4fbf f1a0 f13e
000003c0: a36e 2abf 551c 43bb 9fcf b83c cf67 b8bd
000003d0: ccb9 193f d7eb 99bf ad72 623f 3e6a 843f
000003e0: 5ea7 ce3f 4e89 ccbc fa24 c8bc cb6c 653d
000003f0: 428e dc3f 87f0 bdbd c568 3cbf fc53 353f

p_node_conv3 f4 [128, 64]
1.0848459 0.38490406 -1.1083698 0.66447014 -0.54795367 -1.2218128 -0.31313482 0.45446825
-0.33178753 -0.76973945 0.17492908 -1.4181803 0.8305359 0.9612573 -1.5132552 0.44608098
0.97249526 0.39474946 -1.0859389 -0.4468466 0.3211316 0.9754684 1.0844109 1.3680333
0.08299185 0.50507486 0.2625659 -0.7411612 -0.8252372 -0.26312485 1.7749346 -0.24056332
0.782872 -0.44278094 0.34490013 0.2357859 -0.5459556 -0.53884643 -0.031730227 0.7893683
-1.7530006 0.113990836 0.2724836 0.4139101 -1.0880303 -0.83287776 0.18609257 0.54571563
1.4757526 -0.5906249 -0.24526276 0.50731605 1.376053 1.0190448 -0.39441767 0.084755786
0.5596144 0.4420424 0.32148275 0.23806717 -0.70855623 0.17734577 1.235466 -0.16156827
0.042083718 -0.19490674 -1.9723132 0.64034885 -0.2767842 -0.05072194 -0.80338943 -0.4211769
-1.3927997 0.9243557 1.0288262 -0.9476701 0.19766068 -0.2827363 0.18470605 1.0813411
-0.119643144 -1.5012629 -0.43696833 -0.50326866 0.07504559 -0.5920666 -0.10479083 0.5755901
0.6316466 -0.7021571 0.5804876 -1.1733767 -1.4948597 -1.201848 1.1124723 0.84485203
-0.47283077 1.0138726 0.85453516 -1.9322386 1.6559646 -0.09558494 1.2515674 0.60523766
0.82928884 -1.0712423 0.9081912 0.24507229 1.0170723 -0.7764237 -1.5699613 -0.34136724
-0.8294389 -0.5195019 -1.535239 -0.10371291 0.90612745 0.37778077 -1.9152911 0.252612
-0.37504482 -0.15184411 -0.7369307 0.5882618 -0.08474084 0.12434019 0.8525303 1.0579398
-0.12851672 -1.05904 0.80737394 0.82226056 -1.3942708 1.8953261 1.0839584 -0.21673048
0.58778095 -1.3810471 -1.8331853 -1.4178232 -0.0008328813 0.021712085 1.359419 -0.9019868
0.029276712 0.4209502 -1.0033257 0.40907776 0.46674472 1.863775 0.16360572 1.685787
-0.29415804 -1.1664449 -1.5237231 -0.31953004 0.12533495 0.018175416 -1.6119566 -0.022371545
0.12459059 -0.52420497 0.7596244 -1.5133599 -0.34638634 1.645323 0.79253715 0.030482523
-0.9241908 0.0117189 -0.7554883 -0.6758916 1.0691048 -0.19060592 -0.084833115 0.4393753
0.023047412 1.1406859 -0.52886164 -0.34880936 0.004768329 -0.19847345 0.030768692 -0.052841406
-1.5932872 -0.8478568 -0.3747714 1.271551 -0.35502192 -1.2213074 -0.3780258 1.0587147
1.78675 0.66438794 -0.11994996 0.28873605 0.60979944 0.6106432 0.008374023 -0.01127426
-1.03198 0.025750335 0.30527997 -1.4066658 0.39679718 1.1575708 0.9534896 -0.3833352
-0.059923034 0.5896601 -0.6894445 0.66396856 -1.3026589 -1.2182256 1.0253462 -0.20824392
-0.79996264 -0.7511747 -0.6600243 -1.5658492 1.9839566 0.23879674 0.5886457 -1.068815
0.71773285 -1.0361259 0.08410745 1.2393515 1.3121257 -0.27291283 0.4111418 1.1681665
-0.13934286 -0.043145325 -0.12382942 -0.086768985 -0.672194 -1.780487 -0.92602175 -0.3444907
-1.0818108 -0.1242764 -0.80866873 -0.41323578 1.6016344 -0.32059616 0.15851459 -0.91340154
-0.2988158 -0.37332112 0.3388116 -0.7678539 -0.18523096 0.578289 -0.8439935 -0.858687
00000000: 3bdc 8a3f 2512 c53e 10df 8dbf b71a 2a3f
00000010: b146 0cbf 5d64 9cbf 3553 a0be 10b0 e83e
00000020: 0ee0 a9be a50d 45bf 9c20 333e ef86 b5bf
00000030: 009e 543f f514 763f 59b2 c1bf ba64 e43e
00000040: 73f5 783f 9a1c ca3e 0c00 8bbf 14c9 e4be
00000050: 5c6b a43e 4cb8 793f facd 8a3f b71b af3f
00000060: a2f7 a93d 964c 013f 0a6f 863e bebc 3dbf
00000070: bf42 53bf 4db8 86be 0f31 e33f 3b56 76be
00000080: 4d6a 483f 2fb4 e2be c096 b03e dc71 713e
00000090: bfc3 0bbf d7f1 09bf 8ef7 01bd 0a14 4a3f
000000a0: 5362 e0bf 0774 e93d f882 8b3e 06ec d33e
000000b0: 9444 8bbf 7a37 55bf 0d8f 3e3e 05b4 0b3f
000000c0: 76e5 bc3f 3233 17bf 2926 7bbe 77df 013f
000000d0: 8122 b03f 0f70 823f 1df1 c9be 7194 ad3d
000000e0: e442 0f3f 6253 e23e 6399 a43e e1c7 733e
000000f0: f163 35bf 219a 353e c023 9e3f 2772 25be
00000100: fa5f 2c3d a295 47be c274 fcbf e7ed 233f
00000110: a9b6 8dbe cfc1 4fbd eeaa 4dbf 80a4 d7be
00000120: 4347 b2bf 93a2 6c3f 94b0 833f 829a 72bf
00000130: 9067 4a3e d0c2 90be 9523 3d3e 6369 8a3f
00000140: 7707 f5bd 6229 c0bf 50ba dfbe 37d6 00bf
00000150: 81b1 993d ad91 17bf 939c d6bd df59 133f
00000160: 97b3 213f 91c0 33bf d69a 143f 3531 96bf
00000170: 9057 bfbf 28d6 99bf 7e65 8e3f 3948 583f
00000180: e016 f2be 94c6 813f d1c2 5a3f 9853 f7bf
00000190: a6f6 d33f 09c2 c3bd 5c33 a03f dbf0 1a3f
000001a0: 464c 543f 781e 89bf 387f 683f 3bf4 7a3e
000001b0: 6d2f 823f b4c3 46bf 7ef4 c8bf b0c7 aebe
000001c0: 1c56 54bf 14fe 04bf b682 c4bf 6f67 d4bd
000001d0: f8f7 673f 7b6c c13e 4228 f5bf 5c56 813e
000001e0: e005 c0be 067d 1bbe 7ea7 3cbf 5398 163f
000001f0: 9b8c adbd 12a6 fe3d 6d3f 5a3f 926a 873f
00000200: e399 03be 9f8e 87bf 0fb0 4e3f ab7f 523f
00000210: 7777 b2bf 0c9a f23f 26bf 8a3f 98ee 5dbe
00000220: d078 163f 27c6 b0bf d1a5 eabf 3b7b b5bf
00000230: b855 5aba 8bdd b13c 7101 ae3f 9be8 66bf
00000240: b7d5 ef3c c986 d73e fa6c 80bf a472 d13e
00000250: 2af9 ee3e 2e90 ee3f 4288 273e dec7 d73f
00000260: e29b 96be 114e 95bf 5c09 c3bf 7199 a3be
00000270: ce57 003e 9ce4 943c 9854 cebf 8844 b7bc
00000280: 5a29 ff3d 4c32 06bf bf76 423f c7b5 c1bf
00000290: 8d59 b1be f299 d23f b7e3 4a3f 7cb6 f93c
000002a0: c597 6cbf a100 403c ae67 41bf 3b07 2dbf
000002b0: 6dd8 883f 332e 43be fcbc adbd cdf5 e03e
000002c0: edcd bc3c ff01 923f 7a63 07bf 2497 b2be
000002d0: a53f 9c3b a03c 4bbe a00e fc3c 3b70 58bd
000002e0: d6f0 cbbf 250d 59bf 09e2 bfbe 2fc2 a23f
000002f0: 6fc5 b5be cd53 9cbf 998c c1be f783 873f
00000300: 39b4 e43f 5415 2a3f 53a8 f5bd 36d5 933e
00000310: d11b 1c3f 1d53 1c3f 3333 093c acb7 38bc
00000320: ec17 84bf 5ef2 d23c a84d 9c3e a00d b4bf
00000330: 0029 cb3e 482b 943f e517 743f 8344 c4be
00000340: db71 75bd f7f3 163f 6f7f 30bf d8f9 293f
00000350: 87bd a6bf d1ee 9bbf 8b3e 833f e53d 55be
00000360: 5aca 4cbf fc4c 40bf 5af7 28bf bf6d c8bf
00000370: 4af2 fd3f 2287 743e 7cb1 163f eece 88bf
00000380: 57bd 373f c69f 84bf 8740 ac3d 12a3 9e3f
00000390: bcf3 a73f 3bbb 8bbe 2e81 d23e 7b86 953f
000003a0: e5af 0ebe 27b9 30bd 479a fdbd f0b3 b1bd
000003b0: e814 2cbf ffe6 e3bf c30f 6dbf 1661 b0be
000003c0: c778 8abf a084 febd ea04 4fbf a493 d3be
000003d0: 5b02 cd3f 2e25 a4be a651 223e afd4 69bf
000003e0: 62fe 98be f223 bfbe b778 ad3e 1392 44bf
000003f0: 2fad 3dbe bf0a 143f f50f 58bf e9d2 5bbf

h1_weight f4 [64, 32]
-1.4117085 0.84753513 -0.29411727 -0.105325505 -0.5754253 -1.8629526 1.0094199 -0.102668166
0.7198 0.78812975 -0.9201661 0.9192407 -1.2674952 0.38659996 -0.6752433 0.7088608
0.42360133 0.105643034 1.2761774 -0.29952088 0.3679234 0.30647478 -0.44104096 -1.7987609
-0.41848767 -1.2185081 -0.75890386 -0.35877457 0.6279683 -0.006093895 -0.16193941 0.19608888
0.711666 1.1062025 -1.2389544 -0.54747957 -0.9711973 1.8267562 0.82304347 0.2729309
-0.36598027 0.4701536 -1.638531 -0.39268357 0.14369981 -1.3173102 1.0197309 -0.46426052
-1.6518695 -1.0815433 0.6487715 -1.3524266 -0.7122081 0.022544874 0.49651054 0.99164677
-1.3012017 0.87997764 -0.15077214 -0.24796124 0.39286456 0.6300779 -0.6988604 -0.07839548
0.84294456 -0.5363249 -1.4944539 1.594421 0.3467587 0.47491956 0.29163095 -0.10449881
1.4736238 1.0072211 1.1869081 1.6729425 -0.8775282 -0.18993135 -0.122787215 -0.8254535
-0.7104388 0.41298342 1.1805747 -0.24785997 -1.1085672 -1.4739523 0.3270272 -0.23926467
1.3819321 -0.06269432 0.31678587 0.15490785 -0.7662688 -0.58103245 1.4843491 1.27276
-0.10423645 0.32143265 0.3182693 1.5002029 1.4573253 0.52596843 -0.4249567 0.23782825
1.2056385 1.0847989 -1.3837292 -0.07017358 -0.47608036 1.7673539 -1.411205 0.99497527
0.001953578 -0.03303162 -1.5298089 -0.3796866 -0.19426653 -0.5328836 1.0084107 -0.31202003
-0.13718691 -0.22928405 -0.5418328 -0.19301379 1.3963021 -0.44336915 0.64494866 -1.2758715
0.063024856 0.6902844 -1.2631857 -0.20152971 -0.69228613 -0.79828906 -0.7631839 -1.0190148
0.3719633 0.79131985 0.8117615 0.6502444 -0.5082074 -0.43020463 -0.17403387 -0.25013348
-1.0868976 -1.7242332 -0.9001138 0.43705148 -0.64058226 -1.1799642 0.07437891 1.2944583
0.8625837 -0.48113424 0.76676905 -1.4941702 -1.2460458 -0.73581 1.3206853 1.7278097
0.24456528 -0.5987675 -0.69532627 1.5638303 0.5056479 -1.5820516 1.2842913 1.0702888
-1.3036482 -0.09977389 -0.21543925 -0.2741314 0.9272484 -0.40044066 0.44554785 1.0273701
-0.16371846 1.0005139 0.53376 -0.7192759 -0.3268338 0.7085015 -0.13444555 -0.69983613
0.043686647 -0.5909458 -1.3103724 -0.8787868 0.8002404 0.143481 1.2681625 0.34004238
0.6811062 -0.43269315 -0.23771459 0.41637665 0.7491365 1.1263992 -0.46742517 -0.8547653
0.20454663 0.7334635 0.7788724 0.5261414 0.7752606 1.8564907 0.29130876 1.4142907
-0.25271496 -1.2869115 -0.48005307 -0.47935256 -1.4850581 0.20000388 -1.0126306 0.8992738
0.09344127 0.24176154 1.5235572 1.2452849 -1.3450875 1.0985721 -1.8250355 0.67733127
1.0569053 -0.7831213 -0.7800393 -1.9630907 0.08431317 -1.6039689 -0.22406891 1.6494523
-0.18319947 0.71046466 0.18217108 0.17866476 -0.45683625 -0.3066412 0.22129804 -0.63899934
-0.45629275 0.57200915 0.44017997 -0.3984486 -0.26111647 0.5031361 0.017706526 0.5039946
0.04773873 -0.954777 -0.60994583 1.7149531 0.81270796 -0.5368243 0.72083277 -1.1097671
00000000: ddb2 b4bf 10f8 583f 8a96 96be e6b4 d7bd
00000010: 134f 13bf 3b75 eebf ac34 813f b043 d2bd
00000020: d044 383f dfc2 493f 0190 6bbf 5c53 6b3f
00000030: 483d a2bf 6ef0 c53e bfdc 2cbf e777 353f
00000040: 46e2 d83e 605b d83d c859 a33f cd5a 99be
00000050: 7560 bc3e 43ea 9c3e 1fd0 e1be cc3d e6bf
00000060: 0444 d6be 13f8 9bbf 8647 42bf 4db1 b7be
00000070: 88c2 203f 4caf c7bb 72d3 25be 86cb 483e
00000080: be2f 363f 0b98 8d3f 0f96 9ebf 9f27 0cbf
00000090: 63a0 78bf 26d3 e93f fab2 523f 99bd 8b3e
000000a0: c461 bbbe f9b7 f03e 62bb d1bf d20d c9be
000000b0: 0b26 133e 9f9d a8bf 8b86 823f 8eb3 edbe
000000c0: 7670 d3bf 0370 8abf e415 263f 511c adbf
000000d0: 4553 36bf 07b0 b83c a136 fe3e 90dc 7d3f
000000e0: c78d a6bf 3746 613f 0364 1abe 8de9 7dbe
000000f0: 8b25 c93e c94c 213f 84e8 32bf cf8d a0bd
00000100: 37cb 573f 974c 09bf 444a bfbf fd15 cc3f
00000110: 5b8a b13e a828 f33e a750 953e 7903 d6bd
00000120: b49f bc3f 9fec 803f 9bec 973f fb22 d63f
00000130: b0a5 60bf 5d7d 42be dd77 fbbd ec50 53bf
00000140: 51df 35bf 9072 d33e 121d 973f 01cf 7dbe
00000150: 88e5 8dbf 78aa bcbf 1c70 a73e cc01 75be
00000160: 27e3 b03f e165 80bd c231 a23e 2aa0 1e3e
00000170: 312a 44bf 8bbe 14bf 27ff bd3f cde9 a23f
00000180: eb79 d5bd d292 a43e 32f4 a23e a606 c03f
00000190: a389 ba3f dea5 063f ed93 d9be 4089 733e
000001a0: 5d52 9a3f b1da 8a3f 0a1e b1bf 2ab7 8fbd
000001b0: cec0 f3be a738 e23f 5ea2 b4bf b3b6 7e3f
000001c0: 9a07 003b 2a4c 07bd c7d0 c3bf 4866 c2be
000001d0: ceed 46be 0f6b 08bf 9a13 813f 17c1 9fbe
000001e0: ba7a 0cbe 70c9 6abe 8eb5 0abf 68a5 45be
000001f0: 07ba b23f 4801 e3be 5b1b 253f c24f a3bf
00000200: 2d13 813d 7ab6 303f 12b0 a1bf ce5d 4ebe
00000210: aa39 31bf ac5c 4cbf 0560 43bf 146f 82bf
00000220: f971 be3e f093 4a3f 9acf 4f3f 6b76 263f
00000230: e119 02bf c843 dcbe ef35 32be 7f11 80be
00000240: 761f 8bbf acb3 dcbf dc6d 66bf 36c5 df3e
00000250: 33fd 23bf 1109 97bf f853 983d cfb0 a53f
00000260: 49d2 5c3f 3a57 f6be fa4a 443f f840 bfbf
00000270: 6e7e 9fbf 0b5e 3cbf 370c a93f de28 dd3f
00000280: 526f 7a3e d448 19bf e700 32bf 972b c83f
00000290: 2472 013f ab80 cabf a863 a43f 39ff 883f
000002a0: f2dd a6bf 4156 ccbd 1b9c 5cbe f35a 8cbe
000002b0: 2760 6d3f 8f06 cdbe d91e e43e dd80 833f
000002c0: d0a5 27be d710 803f 7fa4 083f 7722 38bf
000002d0: c356 a7be 5b60 353f 18ac 09be 7628 33bf
000002e0: c5f0 323d 3948 17bf 48ba a7bf 2cf8 60bf
000002f0: 8edc 4c3f afec 123e 2653 a23f 091a ae3e
00000300: fa5c 2e3f f589 ddbe 746b 73be 522f d53e
00000310: 69c7 3f3f d92d 903f 5a52 efbe e6d1 5abf
00000320: ac74 513e 44c4 3b3f 2e64 473f 34b1 063f
00000330: 7b77 463f 7da1 ed3f 6c26 953e 7a07 b53f
00000340: db63 81be 84b9 a4bf 84c9 f5be b36d f5be
00000350: 6216 bebf d1cd 4c3e e19d 81bf cf36 663f
00000360: 235e bf3d 5690 773e ec03 c33f 7f65 9f3f
00000370: d42b acbf 039e 8c3f c39a e9bf 9565 2d3f
00000380: ac48 873f a37a 48bf a8b0 47bf 8e46 fbbf
00000390: 62ac ac3d da4e cdbf 5272 65be 4121 d33f
000003a0: a498 3bbe 03e1 353f 0e8b 3a3e e5f3 363e
000003b0: 71e6 e9be 1300 9dbe f49b 623e 7695 23bf
000003c0: 349f e9be 316f 123f 455f e13e 7401 ccbe
000003d0: 0fb1 85be 87cd 003f 470d 913c ca05 013f
000003e0: b089 433d 446c 74bf 6925 1cbf 9583 db3f
000003f0: a10d 503f 516d 09bf 7f88 383f d90c 8ebf

h2_weight f4 [36, 1]
0.6260488 0.27445364 0.39787844 1.0088927 0.20124957 0.33692592 1.3284259 0.2955517
1.263706 1.410408 -0.5058052 0.56775326 0.094872825 -0.29307824 0.9832702 1.225629
0.18368803 -0.48716697 -1.3936324 0.72933024 -0.775752 -0.41980425 1.0253465 0.29097396
0.4101813 -0.9983481 -0.36585367 -0.32544363 0.25399938 -1.0606344 -0.08130563 -0.6283714
-0.04030914 0.05386144 -0.09636142 0.5162432
00000000: bc44 203f 3085 8c3e b9b6 cb3e 6523 813f
00000010: 5e14 4e3e 8e81 ac3e dc09 aa3f 8d52 973e
00000020: 1ec1 a13f 4088 b43f 737c 01bf 4758 113f
00000030: af4c c23d 5a0e 96be 99b7 7b3f 69e1 9c3f
00000040: b718 3c3e f36d f9be 8c62 b2bf 63b5 3a3f
00000050: af97 46bf 95f0 d6be 8e3e 833f 8afa 943e
00000060: 4903 d23e be93 7fbf 2c51 bbbe 8ca0 a6be
00000070: 350c 823e dec2 87bf 9183 a6bd f3dc 20bf
00000080: 321b 25bd d09d 5c3d 2359 c5bd 8428 043f

last_w f4 [36, 1]
0.6260488 0.27445364 0.39787844 1.0088927 0.20124957 0.33692592 1.3284259 0.2955517
1.263706 1.410408 -0.5058052 0.56775326 0.094872825 -0.29307824 0.9832702 1.225629
0.18368803 -0.48716697 -1.3936324 0.72933024 -0.775752 -0.41980425 1.0253465 0.29097396
0.4101813 -0.9983481 -0.36585367 -0.32544363 0.25399938 -1.0606344 -0.08130563 -0.6283714
-0.04030914 0.05386144 -0.09636142 0.5162432
00000000: bc44 203f 3085 8c3e b9b6 cb3e 6523 813f
00000010: 5e14 4e3e 8e81 ac3e dc09 aa3f 8d52 973e
00000020: 1ec1 a13f 4088 b43f 737c 01bf 4758 113f
00000030: af4c c23d 5a0e 96be 99b7 7b3f 69e1 9c3f
00000040: b718 3c3e f36d f9be 8c62 b2bf 63b5 3a3f
00000050: af97 46bf 95f0 d6be 8e3e 833f 8afa 943e
00000060: 4903 d23e be93 7fbf 2c51 bbbe 8ca0 a6be
00000070: 350c 823e dec2 87bf 9183 a6bd f3dc 20bf
00000080: 321b 25bd d09d 5c3d 2359 c5bd 8428 043f

cross_product f4 [64, 1]
0.37902492 -1.2639204 0.19949517 -0.84572744 0.71549517 -0.5665309 -0.27515557 -1.1793189
0.45814028 1.4964797 1.6084936 -0.13422503 -1.4387219 0.28822637 -0.14804013 0.49155527
-0.18401024 -0.695793 0.5127974 -0.9491454 -0.09345219 -0.028947143 -0.8627972 -0.29734692
0.66937613 -0.9476936 -1.3337864 -0.015864475 -0.60098594 0.76925373 -0.07238118 -0.6079161
-0.77981746 -1.3219328 -0.24851711 0.8303104 -0.6390044 0.61111045 1.715502 0.060564213
-1.5251745 1.7361479 -0.52266186 0.5182443 -0.1772395 0.35626855 1.3057208 0.005390535
-0.50635296 1.3406756 0.16522983 -0.2061497 0.3934457 0.5977575 -0.28316754 -1.1469216
1.4185662 -0.45204282 -0.8980971 -0.040209476 -0.73047584 1.3618284 -0.9042563 -0.4923944
00000000: 8e0f c23e 25c8 a1bf 7648 4c3e 9881 58bf
00000010: b12a 373f 2b08 11bf 31e1 8cbe ecf3 96bf
00000020: 5d91 ea3e a68c bf3f 1ee3 cd3f 4972 09be
00000030: 0a28 b8bf 6892 933e d597 17be 22ad fb3e
00000040: 2e6d 3cbe 7d1f 32bf b146 033f 31fb 72bf
00000050: dd63 bfbd 8f22 edbc 47e0 5cbf db3d 98be
00000060: 3c5c 2b3f 0c9c 72bf 83b9 aabf 37f6 81bc
00000070: 37da 19bf d0ed 443f 963c 94bd 64a0 1bbf
00000080: 1ea2 47bf 1835 a9bf 457b 7ebe 398f 543f
00000090: cb95 23bf bc71 1c3f 9295 db3f 2e12 783d
000000a0: eb38 c3bf 183a de3f 2bcd 05bf a9ab 043f
000000b0: 467e 35be d568 b63e dc21 a73f 16a3 b03b
000000c0: 59a0 01bf 429b ab3f 0232 293e e818 53be
000000d0: b771 c93e a306 193f 56fb 90be 54ce 92bf
000000e0: 9493 b53f 2872 e7be b1e9 65bf b1b2 24bd
000000f0: 7700 3bbf 6550 ae3f 577d 67bf 1e1b fcbe

w_layer1 f4 [64, 128]
0.012132876 -1.3214229 -0.5130688 -1.3104101 -1.3674966 -0.5348146 0.9534379 0.40869728
1.2637426 -1.3952551 1.6207082 -0.4285472 -0.46351674 -0.24901417 -1.8540254 -1.0667957
1.9163057 0.51841474 -0.4308197 -0.5550626 0.76375484 0.038845647 0.6009909 -0.7759744
-1.0096338 0.00088255206 -0.90027213 0.7019528 -0.28776953 -0.21585393 -1.8245533 0.63152045
-1.3770323 0.4901678 -0.09282136 -0.9955279 0.36654544 0.58343315 0.87779826 1.0582523
-0.24267817 0.24236871 0.6762126 0.0015031752 -1.0079243 0.9640207 0.70374346 -0.8959757
-0.38772377 -0.07569436 0.92758375 -0.1185568 -0.2250413 -0.5339247 -0.82380366 0.2663582
-0.14136462 1.7027855 -0.34189925 -0.061357897 -0.1581389 1.0840752 0.830875 1.514372
-0.20714726 -0.5361626 0.16691257 -0.69519395 0.34095907 -0.04588941 -1.2389072 0.2422345
0.58069235 -0.050277796 -1.6045839 1.6674962 -1.5020959 -0.21172594 -0.0821242 -0.007161298
-0.30748782 0.45428246 -0.100422636 -0.33838198 1.528249 -0.009883076 0.99640733 1.5237203
0.9487043 1.24934 0.9046468 -1.0586555 0.13605987 0.061394017 1.4942846 -0.5336351
1.2302136 -0.08378731 0.3445305 0.15903161 -1.331244 0.93448687 -1.1896372 0.31049284
1.1153177 0.049521714 -0.25668174 0.7318447 1.541231 -1.7451108 1.236731 1.5037196
0.48612976 0.7892382 -0.28178602 0.9886208 -0.1343453 0.28220376 0.5040084 0.92378116
0.3922167 -0.07548643 -0.030285608 0.1398041 -1.1902064 -1.8207684 -0.5214581 -0.007871802
-0.28276515 0.49690923 -0.92771196 -0.6723888 -0.9736933 -0.135208 -0.8297928 -0.7192228
-0.9012475 -1.2768106 -1.8253027 -1.1575824 -0.4379078 1.2999214 0.08289453 -1.9252508
0.33008072 -0.701758 -0.006092741 0.03454126 0.50381416 -0.87396115 0.3836903 -1.4418764
-0.57584393 -1.1658016 -0.4333422 0.62549573 0.1804616 -1.1717639 -0.39329845 0.12026555
0.97812 -0.44080827 -1.1823676 0.6905233 -0.39118618 -0.70517904 -0.23055212 -0.22932321
0.4971767 0.68939745 -0.39464 0.50501883 -0.22203685 1.0231607 -0.8306494 -0.71300405
-0.026144663 -0.2109841 0.85845953 0.40320438 1.1955003 0.06530585 -0.045192324 1.695173
1.0909069 -0.14343628 -0.4072767 0.1783282 0.3651004 0.14507422 -0.42969763 -0.49880275
1.3160304 -0.20441467 -0.64566696 0.7506754 0.051093377 0.19601199 -1.9774836 -0.22049569
0.3805982 -0.48489067 0.3991972 0.13511483 -0.16836847 -1.6016814 0.4012627 -0.40852123
0.2208503 0.8637958 0.8204782 0.38354886 -0.20570582 -0.6059872 1.9060826 -1.3597819
0.56363636 1.5452745 0.5083499 -1.0725248 -0.24285671 0.27957278 -1.9323839 1.0161102
1.5138651 -0.06654687 -0.8810408 0.16974221 0.6029468 -0.14988413 1.1713152 -1.6084652
-0.071650006 -1.3327771 0.6845248 0.68486685 -0.010884938 0.28176647 1.7473282 1.9465233
-0.028056543 0.32958126 -0.9244086 0.095870405 0.38295117 1.1146894 1.7881975 1.4985111
-0.6159863 0.43783832 -0.7004204 0.55849385 -1.2616495 -0.28165728 1.4524865 -0.7260821
00000000: f8c8 463c 6324 a9bf 7a58 03bf 85bb a7bf
00000010: 210a afbf 9ce9 08bf 8214 743f c540 d13e
00000020: 51c2 a13f b897 b2bf 5e73 cf3f 8a6a dbbe
00000030: 1152 edbe 92fd 7ebe b450 edbf c38c 88bf
00000040: 8149 f53f d4b6 043f 6694 dcbe 9518 0ebf
00000050: 7085 433f 9d1c 1f3d 8ada 193f 42a6 46bf
00000060: ae3b 81bf 115b 673a 3c78 66bf 2eb3 333f
00000070: 8756 93be d008 5dbe f68a e9bf 53ab 213f
00000080: 9842 b0bf 46f7 fa3e 2019 bebd ebda 7ebf
00000090: d8ab bb3e e05b 153f 63b7 603f d074 873f
000000a0: a080 78be 812f 783e 451c 2d3f 3106 c53a
000000b0: aa03 81bf 10ca 763f 8828 343f aa5e 65bf
000000c0: bb83 c6be a505 9bbd 2176 6d3f e8cd f2bd
000000d0: 3a71 66be 4aaf 08bf cce4 52bf 1a60 883e
000000e0: e3c1 10be e0f4 d93f 6b0d afbe 6b52 7bbd
000000f0: 2aef 21be fac2 8a3f 39b4 543f f1d6 c13f
00000100: 691e 54be f441 09bf 21eb 2a3e 3bf8 31bf
00000110: 3092 ae3e 89f6 3bbd 8394 9ebf 520c 783e
00000120: 41a8 143f 17f0 4dbd 0163 cdbf 8470 d53f
00000130: ae44 c0bf afce 58be bc30 a8bd 52a9 eabb
00000140: 0b6f 9dbe b697 e83e 62aa cdbd 6740 adbe
00000150: aa9d c33f a0ec 21bc 8d14 7f3f 4409 c33f
00000160: 49de 723f 60ea 9f3f ef96 673f 0682 87bf
00000170: 4753 0b3e 4b78 7b3d b844 bf3f 4f9c 08bf
00000180: a477 9d3f ae98 abbd 4d66 b03e 2fd9 223e
00000190: 3466 aabf 883a 6f3f 0846 98bf ebf8 9e3e
000001a0: bbc2 8e3f 48d7 4a3d ca6b 83be 2d5a 3b3f
000001b0: 0f47 c53f ca5f dfbf 344d 9e3f e279 c03f
000001c0: 00e6 f83e 840b 4a3f 4246 90be 4116 7d3f
000001d0: d091 09be 037d 903e b206 013f ec7c 6c3f
000001e0: a1d0 c83e a198 9abd 8619 f8bc ce28 0f3e
000001f0: af58 98bf f00e e9bf 477e 05bf bbf8 00bc
00000200: 98c6 90be e36a fe3e 887e 6dbf ac21 2cbf
00000210: f743 79bf f773 0abe 4d6d 54bf fc1e 38bf
00000220: 28b8 66bf 886e a3bf 85a3 e9bf a92b 94bf
00000230: 7335 e0be d363 a63f 9bc4 a93d 9e6e f6bf
00000240: 5700 a93e 6aa6 33bf 9ea5 c7bb 237b 0d3d
00000250: f7f9 003f ebbb 5fbf 0e73 c43e 688f b8bf
00000260: 826a 13bf fd38 95bf 07df ddbe 7d20 203f
00000270: edca 383e 5cfc 95bf 6a5e c9be c94d f63d
00000280: 1366 7a3f 9fb1 e1be d257 97bf 23c6 303f
00000290: 8e49 c8be 9d86 34bf db15 6cbe b4d3 6abe
000002a0: f28d fe3e 5a7c 303f 410e cabe ea48 013f
000002b0: a15d 63be eef6 823f 70a5 54bf 6f87 36bf
000002c0: 552d d6bc 370c 58be 01c4 5b3f ce70 ce3e
000002d0: 2706 993f 13bf 853d 961b 39bd 6efb d83f
000002e0: d6a2 8b3f f6e0 12be 9286 d0be ab9b 363e
000002f0: 71ee ba3e 568e 143e 5401 dcbe 1363 ffbe
00000300: af73 a83f 1452 51be 6e4a 25bf 432c 403f
00000310: 4a47 513d 5eb7 483e 2f1e fdbf 9fc9 61be
00000320: c4dd c23e 9743 f8be 9363 cc3e 8b5b 0a3e
00000330: c968 2cbe e503 cdbf 4e72 cd3e b229 d1be
00000340: 9526 623e b921 5d3f dc0a 523f 8460 c43e
00000350: 8ca4 52be fa21 1bbf 84fa f33f 550d aebf
00000360: 794a 103f 8ecb c53f 3823 023f 7e48 89bf
00000370: 6eaf 78be 2a24 8f3e 5b58 f7bf e60f 823f
00000380: 55c6 c13f ba49 88bd e48b 61bf e7d0 2d3e
00000390: b95a 1a3f 3a7b 19be a8ed 953f 30e2 cdbf
000003a0: 3dbd 92bd 7198 aabf 043d 2f3f 6f53 2f3f
000003b0: bd56 32bc b243 903e 73a8 df3f ad27 f93f
000003c0: d6d6 e5bc e0be a83e 0ba6 6cbf b457 c43d
000003d0: 2d12 c43e 24ae 8e3f a8e3 e43f 36cf bf3f
000003e0: 47b1 1dbf 582c e03e c04e 33bf 74f9 0e3f
000003f0: bb7d a1bf 6235 90be 14eb b93f 84e0 39bf

w_layer2 f4 [128, 1]
1.9360483 -0.51898175 -0.94722855 -0.29682183 1.0272504 0.6380436 1.0373621 -1.4755841
1.0325198 -0.28768247 1.2319423 -0.7404514 -1.4041477 1.5278949 -0.13108483 -1.1250572
0.5593976 -1.2421837 -0.9740965 -0.42362404 -0.75377357 -0.19118786 0.9466597 -0.22699976
0.19262075 -0.5810431 -0.55213904 -1.0364896 0.22499897 0.6303569 -0.28712228 0.8901569
0.72499543 0.64961696 -0.33788916 -0.52503586 0.06322979 -0.255828 1.199303 -1.4101235
-0.82216233 1.940001 -0.56137854 -0.5998517 -0.25454995 1.7237914 -0.5413603 1.286883
1.297009 -1.6053025 -1.0307822 1.9188197 1.9555892 -1.101895 -0.16827106 -0.66285384
0.60644007 0.58413655 1.354314 -1.7738683 -0.87357396 -1.3233064 0.92180514 1.3041743
0.60207295 0.12331533 -1.5492021 -1.885506 -0.06299474 -0.7795863 0.15271296 -0.9147363
-0.21248427 0.3411955 -0.46339673 1.6104923 -1.5989114 -1.8905714 0.4558619 -0.51934123
-0.006572673 -1.290304 -0.5757255 -1.5945446 0.5429399 0.18438181 -1.6618025 1.7826657
-0.31665426 1.5040946 -1.787037 0.7167099 0.10838455 0.09832431 -1.8043827 -0.7962037
-0.64315045 -0.57952523 -0.42216444 -1.5452719 -1.2824433 -0.43618426 0.6733244 0.3560855
-0.9606872 -0.4555732 -1.2518802 0.106163815 -0.87252015 0.4239278 -0.8152678 1.5500114
1.8160728 1.6746354 1.3878318 -0.7067542 -0.35384265 -0.75223535 1.4989362 -2.0240498
-0.44484597 0.3331778 -0.09241751 0.29703546 0.24485916 -1.5840325 1.962673 0.8433883
00000000: 6ed0 f73f fddb 04bf 927d 72bf 08f9 97be
00000010: f17c 833f d356 233f 48c8 843f f1df bcbf
00000020: 9c29 843f 1e4b 93be 49b0 9d3f 398e 3dbf
00000030: 1dbb b3bf 0f92 c33f 1a3b 06be e001 90bf
00000040: ae34 0f3f e0ff 9ebf 635e 79bf 40e5 d8be
00000050: 4ef7 40bf c0c6 43be 4a58 723f a072 68be
00000060: 603e 453e 3ebf 14bf fc58 0dbf b1ab 84bf
00000070: 2166 663e 125f 213f b101 93be 53e1 633f
00000080: 4d99 393f 4c4d 263f cfff acbe c068 06bf
00000090: 9f7e 813d e3fb 82be c382 993f ed7e b4bf
000000a0: 3b79 52bf f451 f83f 81b6 0fbf e28f 19bf
000000b0: 5f54 82be 32a5 dc3f 9796 0abf 95b8 a43f
000000c0: 6404 a63f 8d7a cdbf acf0 83bf e29b f53f
000000d0: bf50 fa3f e50a 8dbf 404f 2cbe cab0 29bf
000000e0: a83f 1b3f f989 153f 295a ad3f 1e0e e3bf
000000f0: 8ba2 5fbf 1b62 a9bf 6cfb 6b3f 2fef a63f
00000100: 7421 1a3f bf8c fc3d 414c c6bf 4358 f1bf
00000110: 6303 81bd f892 47bf c960 1c3e 282c 6abf
00000120: 7a95 59be 2db1 ae3e 5642 edbe 9d24 ce3f
00000130: 21a9 ccbf 3efe f1bf bb66 e93e 8cf3 04bf
00000140: 945f d7bb ae28 a5bf bf62 13bf 0a1a ccbf
00000150: 1cfe 0a3f 96ce 3c3e f2b5 d4bf 642e e43f
00000160: 8220 a2be 2c86 c03f a1bd e4bf 4d7a 373f
00000170: b8f8 dd3d 415e c93d 03f6 e6bf 01d4 4bbf
00000180: 82a5 24bf c45b 14bf f025 d8be 78cb c5bf
00000190: 1a27 a4bf 8b53 dfbe fd5e 2c3f d750 b63e
000001a0: 99ef 75bf e440 e9be 9c3d a0bf 6a6c d93d
000001b0: 7b5d 5fbf 110d d93e 64b5 50bf c666 c63f
000001c0: 1375 e83f 745a d63f 79a4 b13f d8ed 34bf
000001d0: dd2a b5be 7f92 40bf 24dd bf3f 088a 01c0
000001e0: dac2 e3be 4896 aa3e 6445 bdbd 0815 983e
000001f0: 5cbc 7a3e 94c1 cabf de38 fb3f 4ce8 573f

layerNodeAttention_weight.trans f4 [64, 64]
1.0090647 0.008674591 0.117998004 0.012836768 -0.0028923883 0.009297776 0.15420783 0.101567656
0.03636934 -0.006477357 -0.0026242451 -0.001130422 0.0011291803 0.03647966 0.05351207 0.0069579366
0.009257039 0.104178675 0.022076879 0.013326303 0.005378375 0.006399139 0.007739044 0.014084954
-0.0055571506 0.0076959725 0.0065102284 0.04119545 -0.013265696 -0.0023396502 -0.013931995 0.0010701249
0.011208592 0.0008467795 -0.003991131 -0.0012253984 0.010414117 -0.0062186373 -0.0052536093 0.027922666
0.005197964 -0.0044028135 0.03394009 0.012853738 -0.007096785 -0.0041336734 -0.0060423333 0.022011176
0.010662834 -0.005818397 -0.0033984287 0.0114859585 -0.0080419965 0.011137519 0.02586815 0.006884297
-0.0028358863 0.03437069 0.022102349 0.11084951 0.03608257 -0.005622178 0.005370896 -0.0005365989
0.039407473 0.98491013 0.04563985 -0.012313721 -0.031677987 -0.013633572 0.18933402 0.108371206
0.077135354 0.01442547 0.012381553 -0.029250035 0.016228417 -0.0036216464 0.033665694 0.027908022
0.057982743 0.055549845 0.02649056 -0.020040842 0.0042533437 0.059401955 -0.0177082 -0.008426109
0.020537555 -0.019270897 -0.019523293 0.054124337 0.02411152 0.03409204 0.018045587 0.0054119607
-0.014866362 -0.047373578 0.0059755975 0.021098133 -0.01283184 0.002967431 0.03265181 -0.018114343
-0.018248772 0.020773957 -0.0032758173 -0.03166973 0.025708748 0.004062696 0.00890558 0.018578399
-0.03240693 0.009908352 0.028628815 -0.018313743 -0.017936563 0.014115105 0.102865614 -0.016338577
0.01659702 -0.0078750225 0.0038057992 0.1127862 0.03588917 0.012978261 -0.011662705 0.02345442
0.013803415 0.0050862776 1.0803329 0.008347677 -0.010448839 0.001877956 0.16894637 0.087490015
0.06100627 -0.0011196 0.00027079732 -0.005910794 0.00045472427 0.018389137 0.038319595 0.010385898
0.010906501 0.16963577 0.019417346 0.007750529 0.0077743945 0.015966475 0.0034869243 0.010418966
-0.0018517851 0.0031367072 0.0019373829 0.035986748 -0.006082856 0.0030873886 -0.004894572 0.008549113
0.007582323 -0.0055065877 0.009988857 0.0014145732 0.006809648 -0.0051022014 0.003738567 0.019111922
-2.9821716e-05 0.0016155741 0.030342212 0.006220968 -0.003471988 -0.008796397 -0.0033771875 0.0195904
0.0034724353 -0.0029297264 -0.0005745315 0.0071651516 -0.00941512 0.01375922 0.036332905 0.0031144747
0.00035135966 0.02878635 0.017855177 0.108517036 0.034590296 -0.0011968641 0.0014846708 -0.0049510393
0.03783868 -0.01519741 0.03409788 0.9721129 0.012279577 -0.02652069 0.061962243 0.0027823274
0.01899588 0.018233048 0.014083434 -0.05769913 0.0027856275 0.012931194 0.20107514 0.035803363
0.005641327 0.0070185317 -0.003889862 -0.026594648 0.14378744 0.068697065 -0.022747407 -0.015783904
0.024400387 -0.028642856 -0.027145041 -0.07958211 -0.00039710902 0.028272204 0.08134961 -0.014641074
-0.023787623 -0.010907443 -0.007491797 0.021627918 -0.02279609 0.020169409 0.011143414 -0.036240615
-0.024222085 0.023050718 -0.0022141992 0.027394362 0.07038537 0.014715356 0.012035091 0.092418484
-0.015252553 0.014982532 0.042155903 -0.021189386 0.022574669 0.022413287 0.044255406 -0.01827182
0.026445933 0.0014971715 -0.011776336 0.12763809 -0.0046444717 0.014773133 -0.021052105 -0.006148054
00000000: 0829 813f df1f 0e3c f0a8 f13d 4f51 523c
00000010: 398e 3dbb b355 183c a8e8 1d3e b402 d03d
00000020: 04f8 143d 0240 d4bb 87fb 2bbb ab2a 94ba
00000030: 0101 943a b26b 153d 792f 5b3d 67ff e33b
00000040: d6aa 173c a15b d53d 92da b43c 9156 5a3c
00000050: 143d b03b deaf d13b ce97 fd3b 94c4 663c
00000060: c218 b6bb 7f2e fc3b c153 d53b 8fbc 283d
00000070: 5d58 59bc d154 19bb 0643 64bc 6f43 8c3a
00000080: 3ea4 373c 69fa 5d3a 09c8 82bb 8c9d a0ba
00000090: f99f 2a3c b6c5 cbbb 7826 acbb 13be e43c
000000a0: af53 aa3b 7a45 90bb c404 0b3d 7c98 523c
000000b0: 268c e8bb c473 87bb c4fe c5bb c850 b43c
000000c0: 2bb3 2e3c 40a8 bebb 2cb8 5ebb 9a2f 3c3c
000000d0: 94c2 03bc 247a 363c 71e9 d33c ab95 e13b
000000e0: 47da 39bb 48c8 0c3d fc0f b53c 1105 e33d
000000f0: 51cb 133d 3f3a b8bb 57fe af3b 8baa 0cba
00000100: bb69 213d 1223 7c3f daf0 3a3d 7dbf 49bc
00000110: c7c0 01bd 585f 5fbc c7e0 413e b9f1 dd3d
00000120: 24f9 9d3d ce58 6c3c ffdb 4a3c c59d efbc
00000130: 75f1 843c 2559 6dbb 0ae5 093d 5d9f e43c
00000140: 507f 6d3d 3c88 633d bb02 d93c b12c a4bc
00000150: a25f 8b3b 774f 733d c910 91bc aa0d 0abc
00000160: 603e a83c 00de 9dbc 50ef 9fbc 7bb1 5d3d
00000170: 8685 c53c 18a4 0b3d 57d4 933c d156 b13b
00000180: 0b92 73bc cc0a 42bd f2ce c33b fed5 ac3c
00000190: a33c 52bc 3b79 423b e8bd 053d 8864 94bc
000001a0: 737e 95bc 252e aa3c 18af 56bb 1eb8 01bd
000001b0: 279b d23c 5d20 853b b6e8 113c ba31 983c
000001c0: 21bd 04bd a456 223c fa86 ea3c b406 96bc
000001d0: b3ef 92bc 0b43 673c 35ab d23d 7bd8 85bc
000001e0: 79f6 873c 3d06 01bc b76a 793b 74fc e63d
000001f0: 8600 133d c6a2 543c ee14 3fbc 7c23 c03c
00000200: b827 623c caaa a63b 5948 8a3f b2c4 083c
00000210: 9b31 2bbc bf25 f63a 4700 2d3e f72d b33d
00000220: b6e1 793d 8bbf 92ba cdf9 8d39 55af c1bb
00000230: 0f68 ee39 d1a4 963c 02f5 1c3d 9d29 2a3c
00000240: 2eb1 323c 00b5 2d3e 2011 9f3c 26f8 fd3b
00000250: 59c0 fe3b 20cc 823c e284 643b 50b4 2a3c
00000260: 99b7 f2ba 3791 4d3b c8ef fd3a d766 133d
00000270: b252 c7bb c955 4a3b a562 a0bb 9411 0c3c
00000280: 2375 f83b 9b70 b4bb 4ea8 233c 3369 b93a
00000290: 7823 df3b 5e30 a7bb bf02 753b 9b90 9c3c
000002a0: a629 fab7 acc1 d33a 3b90 f83c 43d9 cb3b
000002b0: 4b8a 63bb c31e 10bc ce53 5dbb 0c7c a03c
000002c0: cc91 633b a700 40bb 289c 16ba a6c9 ea3b
000002d0: e041 1abc 5a6e 613c d0d1 143d 371c 4c3b
000002e0: b236 b839 5ad1 eb3c 0545 923c 2e3e de3d
000002f0: 8eae 0d3d 18e0 9cba 4999 c23a 543c a2bb
00000300: bbfc 1a3d 8ffe 78bc 38aa 0b3d 64dc 783f
00000310: 4730 493c eb41 d9bc 1fcc 7d3d b557 363b
00000320: 3f9d 9b3c 795d 953c 34be 663c ec55 6cbd
00000330: 138f 363b 5cdd 533c a4e6 4d3e 8ca6 123d
00000340: e1da b83b b6fb e53b 0eed 7ebb 05dd d9bc
00000350: 043d 133e 0cb1 8c3d c558 babc 3f4d 81bc
00000360: 52e3 c73c 6ca4 eabc 475f debc f2fb a2bd
00000370: 1233 d0b9 1c9b e73c a09a a63d 1ee1 6fbc
00000380: 43de c2bc 22b5 32bc c07d f5bb 082d b13c
00000390: debe babc 513a a53c de92 363c 0a71 14bd
000003a0: 656d c6bc dcd4 bc3c 191c 11bb 246a e03c
000003b0: 3426 903d ad18 713c d52e 453c e745 bd3d
000003c0: d8e5 79bc 4b79 753c abab 2c3d 5d95 adbc
000003d0: 83ee b83c 129c b73c 2845 353d c9ae 95bc
000003e0: 24a5 d83c bd3c c43a 88f1 40bc 8fb3 023e
000003f0: a730 98bb 030b 723c 7775 acbc 9d75 c9bb

layerNodeAttention_weight.bias f4 [64]
0.018030154 0.00073965185 0.093418285 0.006454441 0.004028729 0.0014723816 0.13461961 0.10897121
0.057880756 0.0013963666 0.0065950355 -0.006655526 -0.0011051502 0.04145148 0.04674217 0.014728717
0.0074572903 0.11349079 0.020408228 0.005751589 0.0049221064 0.014357369 0.00066906644 0.0063735684
0.0013317362 0.0007482381 -0.0008243831 0.035166696 -0.011628502 0.0060116034 -0.009684544 -0.0026177058
0.0054075434 -0.010500094 -0.0051364996 0.007298621 0.0055059586 0.000115206036 0.0044829296 0.02005656
-0.0025653206 0.0038638695 0.024796331 0.020311045 -0.0025220676 0.007057459 0.0031072225 0.024716735
0.0012620746 0.0013383502 0.002514128 0.0039695385 -0.0032440023 0.0214998 0.032313123 -0.0012179051
0.0043559093 0.02697496 0.013859102 0.11307454 0.03303251 0.0036336666 -0.0026202481 0.002375626
00000000: f9b3 933c 32e5 413a 1652 bf3d c77f d33b
00000010: 6e03 843b eefc c03a b9d9 093e 4c2c df3d
00000020: 5f14 6d3d 4a06 b73a 2b1b d83b 9916 dabb
00000030: b0da 90ba 07c9 293d b874 3f3d b750 713c
00000040: 495c f43b dc6d e83d 282f a73c d377 bc3b
00000050: 9f49 a13b 2c3b 6b3c 4a64 2f3a 5ed9 d03b
00000060: a78d ae3a 6925 443a 6a1b 58ba f40a 103d
00000070: 7985 3ebc fcfc c43b ecab 1ebc d18d 2bbb
00000080: c331 b13b 9608 2cbc 1550 a8bb 4529 ef3b
00000090: 546b b43b c59a f138 8ae5 923b a84d a43c
000000a0: f01e 28bb f938 7d3b ad21 cb3c 5963 a63c
000000b0: 4649 25bb 4242 e73b 8ba2 4b3b c07a ca3c
000000c0: 326c a53a 956b af3a 12c4 243b e712 823b
000000d0: 5499 54bb 5920 b03c c45a 043d 1da2 9fba
000000e0: 04bc 8e3b 97fa dc3c 4911 633c a093 e73d
000000f0: 194d 073d cf22 6e3b 78b8 2bbb 64b0 1b3b

layerNodeAttention_weight.logis.parameter.weight f4 [1, 64]
1.2636664 -0.26165006 1.1171511 0.015831847 -0.047190305 -0.013158672 1.0488849 1.0970603
0.08141881 0.034499984 -0.052742194 0.045492604 -0.56116146 -0.07984836 0.031854942 -0.5878549
0.36944944 1.1553293 -0.34516728 -0.28336892 -0.11974895 0.8834494 -0.03688791 0.26362202
-0.018483762 -0.0011062179 0.110133484 0.99522823 -0.09576862 0.4317638 -0.016547466 0.10540807
-0.18033227 -0.08236299 -0.090266556 -0.16606866 -0.12602937 -0.5690586 0.27059352 -0.031518538
0.011918948 -0.049398527 -0.1831095 -0.94408584 -0.07783696 -0.06795594 0.07145438 -0.09310296
-0.84441036 -0.012078773 0.11427629 0.1685032 0.008973282 0.07113383 0.60560226 -0.07726341
-0.68120635 -0.27220142 -0.3323611 0.09014997 -1.1706616 0.04755335 -0.08402126 -0.21830751
00000000: d2bf a13f fff6 85be cffe 8e3f cab1 813c
00000010: 9f4a 41bd 7897 57bc dc41 863f 796c 8c3f
00000020: e8be a63d db4f 0d3d 3308 58bd 7456 3a3d
00000030: 47a8 0fbf 8987 a3bd 547a 023d a97d 16bf
00000040: 7a28 bd3e d5e1 933f c4b9 b0be bb15 91be
00000050: f03e f5bd bd29 623f c717 17bd 77f9 863e
00000060: 426b 97bc 83fe 90ba aa8d e13d 47c7 7e3f
00000070: 5722 c4bd 2510 dd3e 8d8e 87bc 30e0 d73d
00000080: 06a9 38be edad a8bd acdd b8bd e70d 2abe
00000090: d80d 01be d3ad 11bf 3c8b 8a3e 9519 01bd
000000a0: b147 433c 1c56 4abd 0f81 3bbe 9caf 71bf
000000b0: fc68 9fbd 7c2c 8bbd ad56 923d c4ac bebd
000000c0: 472b 58bf 0ce6 45bc b009 ea3d 1a8c 2c3e
000000d0: ac04 133c 9dae 913d c008 1b3f 473c 9ebd
000000e0: 8a63 2ebf fc5d 8bbe 3c2b aabe 8ca0 b83d
000000f0: 3dd8 95bf 4dc7 423d 5713 acbd 018c 5fbe
