MultiDismantler_unit_cost/models/test_g0.5_TORCH-Model_GMM_30_50/nrange_30_50_iter_0.ckpt (torch, 129979 bytes, 13 tensors)

w_n2l f4 [2, 64]
000000 3f 83 6b 3f 39 2f 8e 3f 98 1a a5 3f ce 34 bd bf
       0.9199714 1.1108161 1.2898741 -1.478174
000010 2c 36 11 3f c2 3c f2 be 4f cd ab 3e e8 2a c1 3f
       0.56723285 -0.4731198 0.33555076 1.5091219
000020 00 bc 0c bf d6 ac f5 be 42 d6 ff be d0 92 88 bf
       -0.54974365 -0.47983426 -0.49968153 -1.0669804
000030 57 b6 8e 3f 2c 0c 10 be de 45 4e 3f 10 bd a7 3e
       1.1149396 -0.14067143 0.8057536 0.3276143
000040 86 e2 2f 3f d6 9b 56 bf 25 c9 69 3a 5f 86 57 3f
       0.6870502 -0.83831537 0.00089182175 0.8418941
000050 47 d1 cc be 17 0d 85 3f d8 5f b7 3e ca 85 58 bb
       -0.40003416 1.039462 0.3581531 -0.003303873
000060 70 e3 9a 3e 31 db f0 bf 90 ae 4b bd dc c1 85 bf
       0.30251646 -1.8816892 -0.049727023 -1.0449786
000070 3d dd 74 bf b4 58 09 3d 3c c8 35 3f 4a 84 c4 bf
       -0.9565008 0.03353186 0.7100866 -1.5352871
000080 04 1a ae bf e1 6a b0 3e 0d 16 05 3f b4 02 1d bf
       -1.3601689 0.34456542 0.5198677 -0.6133225
000090 13 26 d9 bf 37 b8 69 be 43 56 8f 3e 06 02 96 3d
       -1.6964744 -0.22824179 0.279955 0.07324605
0000a0 ef 76 9d 3d 19 0f ad 3e 59 a7 e8 3e 0f f4 e9 3e
       0.076887004 0.3380058 0.45440176 0.45694014
0000b0 fa 88 5d bf cc 03 48 3f 12 42 6d bf cc 5e 53 3e
       -0.86537135 0.78130794 -0.9267894 0.20641631
0000c0 e0 c0 de be 55 54 95 bd 55 35 0b bd 99 67 76 3f
       -0.43506527 -0.07291476 -0.03398641 0.9625183
0000d0 2e c6 b2 3e ef e4 6b bf 81 2c 66 bd 0d 97 33 bf
       0.34916824 -0.921462 -0.056194786 -0.7015236
0000e0 fe 6c ed be f7 fc f5 3f 73 1a ce be 95 c0 fd 3d
       -0.46372217 1.9217824 -0.40254554 0.12390248
0000f0 a0 17 95 3f 35 62 6c 3f e4 92 b1 3f 3e 01 b0 3f
       1.1647835 0.9233735 1.3872952 1.3750379
000100 d4 7b d6 be 1c 09 4e bf cb cb 10 3f db 40 1c 3f
       -0.41891348 -0.8048265 0.56560963 0.6103646
000110 5c 0b ef 3e 22 af f9 3f 9d 13 88 bf 03 f7 91 3f
       0.46688354 1.9506571 -1.0630985 1.1403507
000120 6a 62 ee 3d c8 0f 18 bf 0a 39 9f bf f1 15 d1 bd
       0.11639865 -0.5939908 -1.2439282 -0.10209263
000130 50 4b 84 bf 32 12 a0 be 30 af 7b 3e fd 1d c1 3e
       -1.0335484 -0.31263882 0.24578547 0.37718192
000140 b2 5a f2 3d 74 d0 79 3e a2 11 95 3f 41 c0 93 3e
       0.11833705 0.24395925 1.1646006 0.28857616
000150 24 f0 c5 3e b3 e3 4d be b4 83 f1 bd 63 51 54 bf
       0.38659775 -0.20106392 -0.117926985 -0.82936686
000160 13 ac 45 bf 84 3e f3 bf 4f d0 05 3e 9c 4c 34 bf
       -0.7721569 -1.9003453 0.13067745 -0.70429397
000170 1b 23 a1 3e 9a 2b 21 3e 43 4e c5 3e 07 db 12 3f
       0.31472096 0.15739289 0.3853627 0.5736546
000180 99 b7 7d bf 07 6c 9a 3e fa c8 db bd da 9a 7f 3f
       -0.9910827 0.30160543 -0.107316926 0.9984566
000190 8b 57 ff be 2a d8 42 3f f7 48 1e 3f ec 48 99 be
       -0.49871477 0.7611109 0.61830086 -0.29938447
0001a0 f7 73 5a 3e 36 dd f5 bd 2d 8e b8 3e 32 c9 a0 be
       0.213333 -0.12005083 0.36045972 -0.314035
0001b0 1b 13 8a bf 08 97 76 3e 93 b7 b2 bf 01 8e e8 3d
       -1.078708 0.24081051 -1.3962272 0.1135521
0001c0 51 7a b7 be 41 e1 c7 bf ce 93 b5 be 96 60 8a 3f
       -0.35835508 -1.5615617 -0.3546433 1.0810726
0001d0 2f a2 06 3e b4 69 c9 3f cb 0b 48 3f a5 c8 7c 3f
       0.13147806 1.5735383 0.78142995 0.9874366
0001e0 8c 8d 38 bf ef 42 bc 3f 08 20 8d 3e 2a b2 2a 3f
       -0.72090983 1.4707927 0.275635 0.66678107
0001f0 52 90 7e bf 14 3d 98 bf df 14 99 bf 14 ec a7 3f
       -0.99438965 -1.189364 -1.1959494 1.311892

p_node_conv f4 [64, 64]
000000 9c 91 08 3f 71 53 d0 3e 3f 07 ca 3e 92 a0 2f 3e
       0.5334718 0.4068866 0.39458653 0.17151096
000010 78 44 60 3f 1f fd 92 be 1a c5 82 3f bb d5 02 bf
       0.87604475 -0.2870874 1.0216401 -0.51107377
000020 fc cd 8b bf b0 b7 c8 3e dd 32 18 3f cb 8a 29 3f
       -1.0922236 0.39202642 0.5945261 0.66227406
000030 1e 68 9a bf 2b 81 1b 3f 78 12 0c bf 84 dc 8c bf
       -1.2063024 0.6074397 -0.5471568 -1.1004796
000040 0e ac c7 3d b7 9f 76 3f 6c 1f 57 3f c2 77 a0 bf
       0.09749614 0.96337456 0.8403232 -1.2536547
000050 4a a1 7c 3f 6d 43 fd be c1 3a a4 bf a1 96 e0 3e
       0.9868361 -0.49465504 -1.283043 0.4386492
000060 46 4c a4 3f e0 75 2a bf 9a ac 10 3f dc 4d 93 3e
       1.2835777 -0.6658611 0.5651337 0.2877034
000070 ff b3 08 bd f6 eb 87 bf 45 58 ea bd 14 15 48 3e
       -0.033374783 -1.0618885 -0.11442617 0.1953929
000080 35 1f c9 3f b1 36 44 3e bd 87 c2 3e 30 3b 14 be
       1.5712649 0.19161488 0.37994185 -0.14475703
000090 ec 3a 23 3f 46 05 90 be 59 39 aa bf 69 5f 27 bf
       0.6376178 -0.28129023 -1.3298751 -0.6537996
0000a0 c7 bd 08 bf 2b fc 05 bf 8b 8b 5c 3f 05 10 63 bf
       -0.5341458 -0.523379 0.86150426 -0.8869632
0000b0 f0 b9 56 3f 11 92 93 3f aa 6b e1 bf 73 b3 8d bf
       0.8387747 1.1528951 -1.7610981 -1.1070389
0000c0 d5 b9 e0 bf f8 fc 9b 3d ad 0f 8a bf 22 5d b8 3f
       -1.7556711 0.07616609 -1.0786034 1.4403422
0000d0 35 7f e2 bd 1d ad 13 3f f9 3b 2d be a3 26 98 3f
       -0.11059419 0.57686025 -0.16917409 1.1886791
0000e0 21 eb 84 3f 96 25 68 3f 8d 76 f3 be 0d e9 5e bf
       1.0384256 0.9068235 -0.47551385 -0.8707436
0000f0 7b 37 14 3e cd 90 f3 3f f5 e1 c7 3e bb 6d 07 3d
       0.14474289 1.9028565 0.3903958 0.03306363
000100 48 2d 4d bf fc b7 fd be 5f 18 b9 be fb c9 15 3f
       -0.8014722 -0.4955443 -0.36151406 0.5851132
000110 06 f8 93 bf 3e ce 12 be 14 6a 47 be 53 c1 be 3f
       -1.1560066 -0.14336488 -0.1947406 1.4902748
000120 a1 7f b2 3f 71 ce 18 3f e6 37 f7 be 47 71 bb be
       1.3945199 0.59690005 -0.48284835 -0.3660986
000130 db dc a9 bf ec fe d8 3f a0 24 86 3d 9b 02 84 3e
       -1.3270525 1.6952796 0.065499544 0.25783238
000140 d0 12 35 3f 08 7e 14 3f e4 5e 89 3e c0 69 71 bd
       0.7073183 0.5800481 0.26830208 -0.05893874
000150 94 b5 08 3f a4 0f 09 bf 26 19 5d bf 9c 29 68 bf
       0.53402066 -0.5353949 -0.863665 -0.9068849
000160 47 f9 95 3f ba 20 cc 3e 15 7c 4b be de f5 93 bf
       1.1716698 0.39868718 -0.19871552 -1.1559408
000170 82 22 a2 be 60 b7 70 3f 68 cf 92 bf 12 f8 4a 3f
       -0.31666952 0.9402981 -1.1469545 0.79284775
000180 af b0 4a 3f a5 1b 3d be 71 55 3b bf d5 2c a5 bd
       0.7917585 -0.18467577 -0.7317725 -0.08065192
000190 43 e5 7a bf e7 c5 77 3d 42 58 fa be 83 de c9 bf
       -0.98006076 0.06049147 -0.4889546 -1.577103
0001a0 2e eb 51 3f a7 17 22 bf 86 ba a5 3f fd 3d bb 3f
       0.8199948 -0.6331734 1.2947547 1.4628292
0001b0 bd d4 1e bf 14 07 7d 3f 74 46 dd be 37 30 8f bf
       -0.6204336 0.98838925 -0.43217814 -1.1186589
0001c0 6b 6f 5d be ab 33 fa be f2 75 49 3f 87 58 dc 3d
       -0.21624534 -0.48867545 0.78695595 0.10759073
0001d0 2e 26 89 bf 06 e5 ee bd 19 2c 82 bf 5a ff b8 bf
       -1.0714777 -0.116647765 -1.0169708 -1.4452927
0001e0 cb f5 f4 3e 0e 61 9d bf 5a 5d af bf c7 92 c5 3f
       0.47843775 -1.2295244 -1.3700364 1.5435418
0001f0 10 04 08 bd 32 56 d6 be 93 dd 82 be 06 c6 c6 be
       -0.033207 -0.41862637 -0.25559673 -0.38822955
000200 c0 9e 5f bd d3 12 d1 3e c2 2c 90 3f f6 af f7 3f
       -0.054594755 0.40834674 1.1263659 1.9350574
000210 d3 fb 80 3f 19 98 80 3f 4e f6 dd be a6 90 95 3f
       1.0076851 1.0046417 -0.43351978 1.1684768
000220 23 6c a4 3f 71 9f 79 3e 3d c6 07 3f 4c 12 6e bc
       1.2845501 0.24377228 0.5303686 -0.0145307295
000230 20 60 71 be e0 a6 bb 3f 19 0a 9c bf 31 c9 90 bf
       -0.23571825 1.4660301 -1.2190582 -1.1311399
000240 5e 0a f7 3f 2a d2 fe bd 07 37 97 3e 40 eb c3 3e
       1.9300039 -0.12442429 0.2953417 0.3826542
000250 8a ba 0c bf 20 79 7e bf a9 47 ac 3f da 0d 10 bf
       -0.54972136 -0.9940357 1.3459369 -0.56271136
000260 a5 2a a5 bf 88 ee b2 be 80 07 8d bd d2 cf 68 3f
       -1.2903639 -0.3494761 -0.06886196 0.9094211
000270 9f d2 31 bf 7e cf fa 3f 3b 4a 8d bf 79 c3 b6 3e
       -0.6946201 1.9594572 -1.1038278 0.3569601
000280 96 fc c4 3f a8 03 8b 3f 33 8a 9f 3f 79 ac eb 3d
       1.5389583 1.0860491 1.246405 0.11507506
000290 78 45 cf 3f 3d 69 ed 3e 80 7e a6 3f 87 e6 a4 3e
       1.6193075 0.46369353 1.3007355 0.32207128
0002a0 26 61 85 3d 21 f3 45 3f fe 5a 78 bf cb 3e 63 bf
       0.0651267 0.7732411 -0.97013843 -0.8876769
0002b0 5a fa a2 be f6 36 ab be de 97 e8 3e d4 81 ff 3e
       -0.31831628 -0.3344037 0.45428365 0.49903738
0002c0 71 c4 60 3f 40 65 c7 3e c6 33 bb 3f d3 81 f5 3e
       0.87799746 0.38944435 1.4625175 0.4795061
0002d0 e7 8c 08 bf 92 ee 0d bd 9d 44 28 3f 7a c6 8e bf
       -0.5334 -0.034651347 0.65729696 -1.115432
0002e0 77 df 0f bf 59 8c f7 be 96 d4 a2 bf d5 31 32 be
       -0.56200355 -0.48349264 -1.2721126 -0.17401822
0002f0 98 da 0d 3f d5 03 3a be cb 19 70 be e9 d7 f2 bf
       0.5541167 -0.18165524 -0.23447339 -1.897214
000300 52 1d 4c 3f cf d1 a1 3f 6d 7c 6f 3f 80 a3 0b 3f
       0.7973224 1.2642154 0.93549234 0.54546356
000310 28 c9 c4 bf f5 f7 9f 3e 8d 74 3d 3f 4b 6a 98 3e
       -1.5373888 0.31243864 0.7400597 0.29768595
000320 c0 db cf 3d 06 22 8f 3f 74 8e c8 bf 09 f0 32 bf
       0.10149336 1.1182258 -1.5668473 -0.69897515
000330 fc 0a 13 3f db 78 9e 3f 70 fa 23 bf 66 a0 22 bf
       0.57438636 1.2380632 -0.6405401 -0.63526
000340 ea 9e 76 3e 82 6b 2a 3e d0 60 6d be ad d1 b1 3f
       0.24084058 0.16642573 -0.23181462 1.3892113
000350 de 98 00 bf 2c 00 d7 3f e4 10 83 bf 93 48 13 bf
       -0.50233257 1.6796927 -1.023953 -0.57532614
000360 55 dd 9b bf a3 d4 43 3f 2b 3b 99 3f 27 79 36 bf
       -1.217692 0.7649633 1.1971182 -0.71278614
000370 77 4c 86 bd c0 e3 51 3e 7b 80 e4 3f e3 98 28 3f
       -0.06557553 0.20497036 1.7851709 0.65858287
000380 77 cb 7a 3f 60 74 88 bf b4 cf e2 3f 31 fb 8e be
       0.9796671 -1.0660515 1.7719636 -0.2792602
000390 06 c6 8d be 94 b9 3f 3f 7a b9 24 bf af fd bc 3f
       -0.27690142 0.74892545 -0.64345515 1.4764918
0003a0 d6 04 8b 3e 98 ec 2b 3f 38 cc ec 3f 0d 71 98 3f
       0.27152127 0.6715789 1.8499823 1.19095
0003b0 d6 00 17 bf 2c f6 76 3f 6c 32 c1 bf 2e 6c 42 bf
       -0.5898565 0.9646938 -1.5093513 -0.7594632
0003c0 2d 49 9d 3f 52 8e f8 be 80 3a e8 3e 24 fc ac 3f
       1.2287956 -0.48546082 0.45357132 1.3514447
0003d0 ac 2b de 3e 7c 64 03 bf d2 7d 3e be 73 5f 48 be
       0.43392694 -0.513252 -0.18602684 -0.19567661
0003e0 7d a5 e0 3d 70 06 b8 3e 02 f5 40 bf ba e7 6a 3e
       0.109690644 0.3594241 -0.7537385 0.22939959
0003f0 7b 46 82 be e2 3d ca 3f a7 3a 7a be a3 3c e7 bc
       -0.25444397 1.5800135 -0.24436437 -0.028227156

p_node_conv2 f4 [64, 64]
000000 42 1f 7b 3f cd a6 bd be 6c 4f 69 bf 5f 85 87 bf
       0.9809457 -0.3704132 -0.91136813 -1.0587577
000010 e5 54 87 3f 76 e6 47 bf 3f cf b2 bf e2 d4 1b be
       1.0572783 -0.7808603 -1.3969496 -0.15217927
000020 e4 bb 6d bf 40 2b e9 bf 7b b1 be be e4 5b 2e bf
       -0.92864823 -1.8216324 -0.37244782 -0.68108964
000030 db 5d 3c 3f d7 5a 7a 3f e0 b2 44 3e 4b 3d 10 be
       0.7358071 0.9779486 0.1920886 -0.14085881
000040 91 5f 36 bf 1e 66 1a be 22 88 8c be 4d 68 ee bf
       -0.7123957 -0.15078017 -0.2744761 -1.862558
000050 2b 9c e8 bd e7 5a 3c 3f 9c 98 d3 3f c1 89 f8 be
       -0.11357912 0.73576206 1.6530948 -0.48542598
000060 05 ba 83 3d 7b 4b a1 bf 81 b1 60 bf 70 a3 38 bf
       0.06431965 -1.260116 -0.8777085 -0.72124386
000070 f3 6c bb be 63 24 84 3f fb 1f 75 bf 61 8b 0b bd
       -0.3660656 1.0323604 -0.95751923 -0.03406847
000080 f4 f2 96 3f 61 8a b4 3e 62 7d 2f 3f 5b 66 70 3f
       1.1792893 0.35261825 0.68550694 0.9390618
000090 dc a0 2a bf e5 68 e5 3f 6e cc 49 3e 41 d9 5f 3f
       -0.666517 1.7922636 0.1970689 0.8744088
0000a0 79 5f b8 3f 75 e8 a9 bf c3 02 57 bf c9 0f a3 3f
       1.4404136 -1.3274065 -0.8398859 1.2739192
0000b0 84 a6 fa 3e ec 2f 1a bf 78 c3 b5 be 07 3c 5d 3f
       0.48955166 -0.6022937 -0.35500693 0.8641972
0000c0 24 29 7a 3f 93 5f 5b 3e ed 3a ba 3e 32 1f ad bf
       0.97719026 0.21423177 0.36373082 -1.3525145
0000d0 32 f5 7a bf ce b3 b5 be de a2 f6 be 82 7c 0b 3c
       -0.9803039 -0.35488743 -0.48171133 0.008513572
0000e0 ec a8 d0 3f ff ea 80 bf 40 ad 1b 3e 28 cb 12 3d
       1.6301551 -1.0071715 0.15202808 0.035838276
0000f0 e2 e1 a5 3f 33 0f e1 bf 1e f2 ae be 89 6b 0b 3f
       1.2959559 -1.7582763 -0.34169096 0.5446096
000100 fc 83 00 3f d8 21 80 3e f0 a6 8a bf ba 3c 14 3f
       0.5020139 0.2502582 -1.0832195 0.5790516
000110 08 0c 69 bf ae dc 86 be 24 ea e1 be 55 a0 1b bf
       -0.91033983 -0.2634024 -0.44123948 -0.6079152
000120 57 b7 9d 3f bf 68 96 bf a9 bc 41 bf 61 f3 fd be
       1.2321576 -1.1750716 -0.756785 -0.49599746
000130 06 7f 4a 3f e5 ee fb 3d e0 1f e5 be a0 7a 52 3f
       0.7910007 0.12301425 -0.4475088 0.8221836
000140 a4 85 27 3f cc 03 78 3c 26 23 fe bf d7 79 0f bf
       0.65438294 0.015137624 -1.9854476 -0.5604529
000150 66 fb 70 bd 34 70 05 3e 11 d7 d4 3e 15 9e f2 be
       -0.058833502 0.13031083 0.41570333 -0.47386232
000160 41 05 1c bf e1 b9 0c be f5 d2 fc 3e 98 fd ce be
       -0.60945517 -0.13742782 0.49379697 -0.40427852
000170 6f 5c a4 bd 94 a3 64 bf 34 fd 96 3e 92 6d 31 bf
       -0.08025443 -0.893121 0.29490054 -0.69307816
000180 3b 9b f8 bd e5 b3 10 3f 14 e5 3e bf d4 3f e5 3d
       -0.12138983 0.565245 -0.74568295 0.11193815
000190 e4 1f 65 3e 8f 11 4b 3f d3 db 5f 3e 55 1d 14 3f
       0.22375447 0.7932367 0.218612 0.5785726
0001a0 16 ec 49 be 04 43 72 be 4c 1c e3 3e f5 80 8b 3f
       -0.19718966 -0.23658377 0.44357526 1.089873
0001b0 e4 cb ab 3d 5e 0a 66 3f e9 38 a6 3f cc 72 1e 3f
       0.083884984 0.8985957 1.2986118 0.61893916
0001c0 a8 9d 2e 3f f3 6b 73 3e c9 fd 9d bf c0 1a 0f 3e
       0.68209314 0.23771648 -1.2343074 0.13975048
0001d0 98 15 d2 3e 39 a2 fb 3e 18 ad 0d bf 5b 90 76 3f
       0.410321 0.49147204 -0.55342245 0.9631402
0001e0 3b 02 02 3f d6 20 db bf 79 7f 48 3f ff 93 99 3f
       0.50784653 -1.7119396 0.7831951 1.199829
0001f0 90 0c ac 3e f6 4d 3a 3f c1 b9 25 bf 62 24 5e bf
       0.33603334 0.7277521 -0.6473656 -0.86774266
000200 40 5a bc 3d 08 b4 b5 3e 73 ca b3 3e 13 37 11 3f
       0.09196901 0.35488915 0.35115394 0.5672466
000210 b7 d3 db be 26 cd 2d 3f e4 29 a1 3e a6 99 03 3d
       -0.42934963 0.67891157 0.31477273 0.032128952
000220 da 27 c8 3e 05 35 61 3f 03 d0 16 bf 05 0b 13 3f
       0.39092904 0.87971526 -0.5891115 0.5743869
000230 18 38 cd be ed de 2e bf ed 9e 67 bc 96 85 da bf
       -0.4008186 -0.6830891 -0.014137012 -1.7072017
000240 83 1a 8a bd 4c 50 c8 bf fb 4c 91 bf 08 e9 6a be
       -0.06743338 -1.5649505 -1.1351618 -0.22940457
000250 74 e6 5b bf c0 8e ae 3f 39 67 d4 bf 6a bf 8c be
       -0.8589852 1.3637314 -1.6594001 -0.27489787
000260 ba b5 73 bf 01 7e 4b bf 2c 59 39 3e f0 6b 64 bf
       -0.9519917 -0.7948914 0.18100423 -0.892272
000270 24 2e 4f bf d3 4a 3e 3e 8d 75 6c bf 45 45 c6 3f
       -0.8092978 0.1858323 -0.9236687 1.5489889
000280 7c b6 4e be 67 60 b6 3f 6d 5f cb 3e d1 8b 1c bf
       -0.201868 1.424817 0.39721242 -0.6115084
000290 76 90 f7 bd 66 e2 d5 be 96 d6 e4 bf fd 5e a1 bf
       -0.120881006 -0.4177429 -1.7877986 -1.2607113
0002a0 e9 0a 34 bf 3d f8 13 3f ad 34 a6 bf 7c 8d 96 bf
       -0.7032915 0.57800657 -1.2984825 -1.1761928
0002b0 9a 80 45 bf 6f 6d c8 bf 2d 60 f8 3f e3 5e 76 3e
       -0.77149355 -1.5658396 1.940435 0.24059634
0002c0 f8 9b 9e be 1a ea a2 3f b1 65 0c 3f 5f 40 bd bf
       -0.3097837 1.2727692 0.5484267 -1.478527
0002d0 80 89 bc bf 31 4c a0 bf 86 84 89 3e d3 45 ac bf
       -1.4729462 -1.2523252 0.2685892 -1.3458809
0002e0 5d 99 d9 3f f6 35 c6 bf 96 14 8b 3d a5 67 c4 bf
       1.6999928 -1.5485218 0.06791036 -1.534413
0002f0 62 19 03 3e f1 e3 a1 be 19 43 cd be f4 98 9c bd
       0.12802652 -0.31619218 -0.40090254 -0.07646361
000300 01 fd e6 3e 62 9f cc 3e 7c e0 49 bf af 93 3b 3f
       0.45114902 0.3996535 -0.7885816 0.7327222
000310 cb 84 8d 3f ee fa 76 bf ee 29 ed be da 0c a7 3e
       1.105615 -0.9647664 -0.46321052 0.32626992
000320 68 2b 21 3d 91 f5 0d bf 55 60 9a 3e 10 b6 84 bf
       0.039348036 -0.5545283 0.3015162 -1.0368061
000330 e8 9c 88 bf 49 4b ac be bb 2c 36 bf 1a bf c7 3f
       -1.0672884 -0.33651188 -0.71162003 1.5605195
000340 bf bd f2 3f b9 51 e2 3f 71 bd d0 be 7e f1 88 bd
       1.8964156 1.768119 -0.40769532 -0.06686686
000350 c7 47 5d bf 3c b1 7e 3f 90 da c4 3f 65 d2 f6 bf
       -0.8643765 0.9948919 1.53792 -1.9282957
000360 6c bc 0e 3f fa 58 12 be 65 a7 76 bf 59 0a c5 bf
       0.5575626 -0.14291754 -0.96349174 -1.5393783
000370 84 65 3a bf ae 48 ed bf db 90 92 be f4 5c 07 3f
       -0.7281115 -1.8537805 -0.2862614 0.5287621
000380 76 1f b7 be 70 e1 e2 3e cb a8 ac 3e 1d 56 6a 3e
       -0.3576619 0.4431262 0.3372253 0.22884412
000390 76 e2 42 3f b5 76 02 3e 5d 3b 83 bf be 33 83 3f
       0.761268 0.12740596 -1.0252491 1.0250165
0003a0 2f 18 7b 3e 22 13 27 bf ab 7d 71 bf bd 4b 3d bf
       0.24520944 -0.6526357 -0.9433238 -0.7394369
0003b0 ca 0e d3 bf 21 d3 dd 3f 52 00 4a bf 3c c8 ec 3e
       -1.6488888 1.7330056 -0.7890674 0.46246517
0003c0 5d aa 28 bf 9d 67 5e bd 7b 76 4f 3c f6 71 9e bd
       -0.65884954 -0.054298032 0.012662525 -0.0773658
0003d0 32 f1 24 3f 82 a9 a1 bf 0e 0a 6c 3f f1 20 90 3f
       0.64430535 -1.2629855 0.9220284 1.1260053
0003e0 4f 02 d2 3f 2e d2 9c 3d 94 f7 aa 3c 3b ca 98 3d
       1.6406955 0.07657276 0.020870008 0.074604474
0003f0 b6 8e d9 3f f2 49 d6 bd a1 3e 3c bf 10 8b 2e 3f
       1.6996677 -0.10463323 -0.73533064 0.6818094

p_node_conv3 f4 [128, 64]
000000 71 a5 87 3f c2 b9 db 3e e2 dc 91 bf 1f 46 32 3f
       1.0597364 0.4291516 -1.1395533 0.69638246
000010 22 99 31 bf 38 d6 9a bf a1 66 cd be ce 95 d7 3e
       -0.6937429 -1.2096624 -0.40117362 0.4210648
000020 ff c8 b1 be 10 f0 43 bf 8a c5 2f 3e d9 fe b6 bf
       -0.3472366 -0.7653818 0.17165199 -1.4296523
000030 6a 76 51 3f c5 11 76 3f 29 76 c2 bf ca 01 e3 3e
       0.8182131 0.96120864 -1.519231 0.44337302
000040 9e 6e 78 3f 46 17 b0 3e 4f 44 89 bf 71 b9 dc be
       0.9704379 0.34392756 -1.0723971 -0.4311023
000050 55 45 ad 3e 2e a5 75 3f 2d c9 8a 3f d2 1c b0 3f
       0.3384196 0.9595517 1.0842644 1.3758795
000060 40 3b d6 3d 7b ee fe 3e b8 18 89 3e 98 31 3b bf
       0.1046052 0.4979132 0.2677667 -0.7312255
000070 4c 3d 56 bf 31 b1 87 be 34 16 e3 3f 3b 56 76 be
       -0.8368728 -0.26502374 1.7741151 -0.24056332
000080 7e 35 3c 3f 12 b4 e7 be 84 ae b1 3e 11 a7 69 3e
       0.7351912 -0.4525457 0.34703457 0.22817637
000090 fc e5 ec be 4f 7e 0d bf c4 02 00 bd b9 06 4b 3f
       -0.46269214 -0.55270857 -0.031252638 0.7930713
0000a0 53 62 e0 bf 0e a1 d3 3d d8 c7 82 3e bf 6a d9 3e
       -1.7530006 0.10333453 0.25543094 0.42464253
0000b0 36 e3 8c bf 7c 64 54 bf c7 31 18 3e 95 dd 01 3f
       -1.1006839 -0.82965827 0.14862739 0.5072873
0000c0 dd d6 bd 3f 32 33 17 bf 23 25 22 be 74 26 03 3f
       1.4831196 -0.5906249 -0.15834479 0.5123055
0000d0 0d ad b0 3f ec 9f 82 3f a1 d6 c9 be bf 9c 56 3d
       1.3802811 1.0205054 -0.3942156 0.05239558
0000e0 e8 76 0a 3f b6 2c da 3e d8 50 a4 3e f5 0d 68 3e
       0.54087687 0.42612237 0.3209293 0.22661574
0000f0 46 c1 36 bf 21 9a 35 3e 59 46 9f 3f f0 bb 32 be
       -0.7138866 0.17734577 1.2443343 -0.17454505
000100 40 26 3e 3d 4a 89 5e be ab ad fa bf d7 fa 21 3f
       0.046423197 -0.21732059 -1.9584249 0.63273376
000110 b1 83 4b be d7 13 60 bd 9f f1 42 bf 39 cf cb be
       -0.19874455 -0.05470642 -0.76149935 -0.39806536
000120 8a bc b0 bf 61 d3 6e 3f 56 b6 84 3f 63 ed 78 bf
       -1.3807538 0.9329129 1.0368145 -0.97237223
000130 74 21 47 3e a1 99 83 be fa c9 54 3e 17 21 8d 3f
       0.19446355 -0.25703147 0.20780173 1.1025723
000140 ec c3 1c be 06 c0 b6 bf f7 33 e2 be 9c 6b fc be
       -0.15309113 -1.4277351 -0.4418027 -0.4930085
000150 a7 ff 90 3d 05 71 17 bf 83 2f d1 bd e6 9d 10 3f
       0.07080012 -0.5915683 -0.1021414 0.56490934
000160 b3 6a 1a 3f a4 5a 35 bf 66 59 13 3f 57 4f 95 bf
       0.6031906 -0.7084143 0.57558286 -1.1664838
000170 0b 56 bf bf 04 f5 99 bf 59 68 8d 3f 39 48 58 3f
       -1.4948133 -1.2027898 1.1047469 0.84485203
000180 e3 b7 ed be 41 33 81 3f 96 f5 5a 3f 3c 60 f6 bf
       -0.46429357 1.0093766 0.85530984 -1.9248118
000190 fc e0 ce 3f fe 7c b5 bd b5 75 9f 3f a8 68 25 3f
       1.616241 -0.08861731 1.2457796 0.6461282
0001a0 46 4c 54 3f 06 8d 88 bf f4 87 70 3f 10 84 97 3e
       0.82928884 -1.0668037 0.9395745 0.29592943
0001b0 70 98 81 3f 7a 14 48 bf 68 02 c5 bf ef 13 84 be
       1.0124645 -0.78156245 -1.5391359 -0.25796458
0001c0 16 b8 4f bf 14 fe 04 bf 5e e4 c3 bf 18 aa f6 bd
       -0.8114027 -0.5195019 -1.5304067 -0.120441616
0001d0 e2 16 66 3f d6 30 d3 3e 6b 8c f6 bf 17 0f 8f 3e
       0.89878666 0.41248196 -1.9261602 0.279412
0001e0 72 79 b8 be 93 72 c5 bd 9b e3 3c bf 00 9b 1c 3f
       -0.36030155 -0.09640994 -0.737848 0.6117401
0001f0 b2 af 69 bd 12 a6 fe 3d f5 f0 56 3f a2 43 87 3f
       -0.05705232 0.12434019 0.8396142 1.0567515
000200 aa 91 10 be 7a c7 82 bf 0c bb 48 3f a6 21 52 3f
       -0.14118066 -1.0217125 0.7841041 0.82082593
000210 7a 65 b9 bf 4d 61 f2 3f 5f 57 8a 3f f4 21 7d be
       -1.4484093 1.8935944 1.0807914 -0.24719983
000220 32 a0 12 3f db ab af bf 75 b0 ec bf 6b c4 b4 bf
       0.5727569 -1.3724321 -1.849135 -1.4122442
000230 7e 8d 9b bc 83 17 00 bb f1 89 a9 3f 13 09 67 bf
       -0.018988367 -0.0019545264 1.3245221 -0.9024822
000240 c4 b2 61 3c a0 54 bf 3e 00 65 77 bf 47 53 d0 3e
       0.013775531 0.3736925 -0.9663849 0.40688536
000250 a5 db ef 3e 1a fc ee 3f 54 66 23 3e 2c 1a d9 3f
       0.46847263 1.8670685 0.15957004 1.6961112
000260 08 35 97 be 8a 20 96 bf 24 55 c2 bf 88 45 aa be
       -0.29532647 -1.172868 -1.5182233 -0.33256173
000270 3e 56 10 3e 80 2f b4 3c 2f a6 ce bf 88 44 b7 bc
       0.14095399 0.021995306 -1.6144465 -0.022371545
000280 07 4c cb 3d b7 c4 04 bf 4c 27 42 3f 47 73 c2 bf
       0.099266104 -0.51862663 0.7584121 -1.519143
000290 92 7c a2 be 8d 90 d1 3f b0 b6 4e 3f 1f d0 cc 3c
       -0.31735665 1.6372238 0.8074751 0.025001584
0002a0 c5 97 6c bf 00 6f 3c 3c d2 03 47 bf 33 c4 2f bf
       -0.9241908 0.011501074 -0.77740204 -0.6865875
0002b0 33 05 88 3f 77 bb 47 be be 08 ea bd bc 9c dc 3e
       1.0626587 -0.19505106 -0.11427449 0.4308833
0002c0 31 f7 1f 3c ff 01 92 3f 93 75 09 bf f3 65 98 be
       0.009763525 1.1406859 -0.5369503 -0.2976528
0002d0 88 24 49 3c d2 db 6c be 73 63 67 3d 00 c7 fe bc
       0.012276776 -0.2313073 0.056491327 -0.03110075
0002e0 c1 e9 cc bf 60 5d 5f bf b2 cb bf be 11 59 a0 3f
       -1.6008836 -0.87251854 -0.37460095 1.2527181
0002f0 6c 08 b7 be cd 53 9c bf e3 a2 bb be c1 c2 87 3f
       -0.35748613 -1.2213074 -0.3664771 1.0606309
000300 54 9d e6 3f 78 98 21 3f 95 e1 b9 bd 8f 94 79 3e
       1.8016763 0.63123274 -0.090762295 0.24373077
000310 06 de 00 3f da bc 1c 3f 9b b8 4a 3c 67 1c e1 bc
       0.5033878 0.61225665 0.012373115 -0.027479364
000320 10 ec 81 bf 4b 6c 06 3d f6 3a a4 3e 65 b6 b2 bf
       -1.0150166 0.03281812 0.32076234 -1.3961912
000330 10 56 d2 3e ce 87 94 3f c3 53 70 3f f5 9f c7 be
       0.41081285 1.1603944 0.9387781 -0.38989225
000340 36 1d 7a bd 56 23 22 3f 8b 0e 38 bf 3b 37 1f 3f
       -0.061063014 0.6333517 -0.7189719 0.6219365
000350 9f d4 a6 bf 7a ab 9b bf 5f cb 82 3f ac f5 62 be
       -1.3033637 -1.2161705 1.0218314 -0.22164029
000360 e9 eb 51 bf a0 10 42 bf 88 7e 29 bf 98 fe cc bf
       -0.82000595 -0.7580662 -0.66208696 -1.6015196
000370 5d d4 fc 3f d7 5e 42 3e 6d a6 17 3f ee ce 88 bf
       1.9752308 0.18981491 0.5923832 -1.068815
000380 94 7f 3b 3f 93 2e 86 bf 50 8d c0 3d 0d ce 9f 3f
       0.73241544 -1.0482963 0.09401953 1.2484757
000390 25 2d a7 3f fd ca 85 be 7b de d6 3e 20 2e 96 3f
       1.3060652 -0.2613143 0.41966614 1.1732826
0003a0 e5 af 0e be d0 93 2a bd f5 aa e8 bd 37 c7 a3 bd
       -0.13934286 -0.04164487 -0.113607325 -0.079969816
0003b0 eb 24 29 bf f5 0d e4 bf 94 bb 66 bf 11 bb a8 be
       -0.6607196 -1.7816759 -0.9012997 -0.3295522
0003c0 c1 7b 87 bf a0 84 fe bd 7a 16 43 bf 6e e7 fc be
       -1.0584642 -0.1242764 -0.7620617 -0.49395317
0003d0 d1 60 cc 3f 09 d0 a8 be 27 ef 09 3e 02 fb 60 bf
       1.5967046 -0.32971218 0.13470136 -0.8788301
0003e0 49 83 8f be 3e 72 ae be 1f aa ae 3e cf f5 44 bf
       -0.2802985 -0.34071535 0.34114167 -0.76937574
0003f0 03 88 2e be bf 0a 14 3f 28 1c 59 bf cf e5 59 bf
       -0.17044072 0.578289 -0.8480859 -0.85116285

h1_weight f4 [64, 32]
000000 2d 5c b4 bf de dd 57 3f b0 ff 9a be 70 7a e6 bd
       -1.409063 0.8432292 -0.302732 -0.11253822
000010 e1 3c 10 bf 2d 6b ef bf 70 26 7f 3f f6 ce be bd
       -0.56342894 -1.8704582 0.99668026 -0.093168184
000020 0c 16 38 3f 67 05 48 3f 44 7f 69 bf b9 00 6c 3f
       0.7190864 0.78133243 -0.91209817 0.921886
000030 22 63 a0 bf 9d 30 c3 3e 91 e0 2b bf 4c 25 36 3f
       -1.2530253 0.38123026 -0.67139536 0.7115066
000040 6f 2e cd 3e d3 db e8 3d 0c 03 a3 3f bd b1 9d be
       0.4007449 0.11370053 1.2735305 -0.30799666
000050 bf 8b c0 3e 26 e5 86 3e e7 6c de be ae 5b e7 bf
       0.37606618 0.263467 -0.4344246 -1.8074853
000060 c6 f7 e3 be 81 16 9d bf 82 3d 40 bf 83 0c b9 be
       -0.44524974 -1.2272493 -0.75093853 -0.36142358
000070 0d 87 12 3f 00 58 a1 3b a0 33 65 be b5 12 37 3e
       0.5723732 0.0049238205 -0.22382975 0.1787823
000080 67 f6 36 3f 62 df 8d 3f fe 30 9a bf f2 52 03 bf
       0.7146973 1.1083796 -1.2046201 -0.5129844
000090 b9 cb 67 bf af 1e e9 3f 2b 05 51 3f 50 de 82 3e
       -0.9054523 1.8212489 0.8164851 0.25560236
0000a0 80 1b b9 be 8b ae eb 3e d3 2f d6 bf 88 80 c7 be
       -0.36153793 0.46031603 -1.6733345 -0.3896525
0000b0 26 d3 48 3e a2 3d aa bf fa f6 82 3f 10 26 ec be
       0.19611797 -1.3300059 1.0231621 -0.4612279
0000c0 30 ce d4 bf e3 e5 8e bf 0a 4f 25 3f 1b b3 a8 bf
       -1.6625423 -1.1163906 0.6457373 -1.3179659
0000d0 fa 39 3f bf 29 17 5a bc cc 6f 00 3f dc 4e 83 3f
       -0.7469784 -0.013311186 0.5017059 1.0258441
0000e0 ce fb a8 bf 44 84 5e 3f b0 22 3e be aa 82 80 be
       -1.3201845 0.8692057 -0.1856792 -0.2509969
0000f0 f2 15 a6 3e 27 6f 19 3f 83 01 44 bf 71 e3 c5 bd
       0.32438618 0.5993523 -0.76564807 -0.09662522
000100 c5 73 58 3f 39 e7 09 bf 74 8a bf bf 43 04 cc 3f
       0.8455165 -0.5386844 -1.4964128 1.59388
000110 0f bd b9 3e 7d 24 f0 3e d4 9a 90 3e b7 9c c1 bd
       0.36277053 0.46902838 0.28243124 -0.09453719
000120 fb 1d bd 3f 56 3d 80 3f 25 1a 98 3f 3e 77 d6 3f
       1.4774774 1.0018718 1.1882979 1.675514
000130 d5 1c 5b bf 81 8c 47 be 7b c1 ee bd 51 a8 52 bf
       -0.8559087 -0.19487192 -0.11657997 -0.8228808
000140 30 a1 3b bf 9e 2c d4 3e c2 c8 96 3f 70 ad 7f be
       -0.7329283 0.4144029 1.1780016 -0.24968505
000150 98 b5 8d bf 74 25 c3 bf e0 4b aa 3e 3b 1f 77 be
       -1.1071043 -1.5245805 0.33261013 -0.24133007
000160 db 7b ad 3f c9 ed 9a bd b8 db a2 3e 3f fd 1b 3e
       1.3553423 -0.07564885 0.31808257 0.15233324
000170 88 e2 50 bf 32 d6 13 bf 4b fa b3 3f ef cb a0 3f
       -0.8159566 -0.5774871 1.4060758 1.2562236
000180 80 0a d1 bd 4a 1e a1 3e 9e 4e af 3e 37 a0 c3 3f
       -0.10207081 0.3146842 0.34239668 1.5283269
000190 01 c0 be 3f 76 16 00 3f 50 5b e2 be a3 09 83 3e
       1.4902345 0.5003427 -0.4421029 0.2559329
0001a0 22 35 96 3f 08 92 89 3f 33 45 b4 bf 4f 48 8b bd
       1.1734965 1.074769 -1.4083618 -0.06800901
0001b0 de 07 d7 be f1 6a e0 3f 7e 4c b6 bf f4 44 7f 3f
       -0.4199819 1.7532636 -1.4242094 0.9971459
0001c0 9a 30 d1 bc 76 38 6c bd f4 17 c4 bf 57 fa b5 be
       -0.02553587 -0.057671033 -1.531981 -0.35542557
0001d0 2a 17 60 be 74 01 12 bf 21 09 81 3f d6 72 93 be
       -0.21883836 -0.5703347 1.0080911 -0.2879855
0001e0 99 16 2e be d0 e9 80 be 7d 0c 11 bf a4 db 47 be
       -0.17000808 -0.25178385 -0.5665968 -0.1951738
0001f0 5e 91 ac 3f f8 38 ed be 71 bb 0c 3f 5a 65 a6 bf
       1.3481863 -0.46332526 0.5497351 -1.299968
000200 ad 2d 86 3d fa 9c 21 3f af a3 b3 bf 7f 26 ae be
       0.06551681 0.6313015 -1.4034327 -0.34013745
000210 05 ac 32 bf a4 b9 50 bf 5c 97 46 bf 5b 83 82 bf
       -0.6979373 -0.81533265 -0.77574706 -1.0196337
000220 c0 af b0 3e 52 14 49 3f 7f bc 73 3f a6 19 27 3f
       0.34509087 0.7854663 0.952095 0.6527351
000230 65 e3 1e bf d9 3b c4 be c4 09 2c be a1 94 7d be
       -0.62065727 -0.3832691 -0.168006 -0.24763729
000240 65 80 79 bf b0 bd ca bf 8a 11 67 bf cf ce 97 3e
       -0.9746154 -1.5839138 -0.9026114 0.2964997
000250 2d 00 00 bf bc 8d 98 bf d8 d5 ce 3d 7c c5 93 3f
       -0.5000027 -1.1918254 0.10099381 1.1544642
000260 6d af 4f 3f 7e 71 f9 be e2 2e 68 3f 70 92 bf bf
       0.81127053 -0.487194 0.9069654 -1.4966564
000270 7f 6e aa bf a3 d9 1c bf bd 2a af 3f 00 28 db 3f
       -1.3314971 -0.6126959 1.3684918 1.7121582
000280 d4 fa 7c 3e 79 33 18 bf c5 13 2d bf a9 df ca 3f
       0.24705058 -0.5945354 -0.6760829 1.5849506
000290 54 c8 fb 3e 23 35 cb bf e1 72 a2 3f 84 90 8b 3f
       0.49176276 -1.5875591 1.2691308 1.0903478
0002a0 c2 f5 a8 bf 40 fc d3 bd 85 d5 70 be 41 15 8b be
       -1.3199999 -0.10350847 -0.23518951 -0.27164653
0002b0 42 b2 76 3f bf 3a d5 be 2e 09 e4 3e 50 d2 83 3f
       0.9636575 -0.41646382 0.44538254 1.0298557
0002c0 50 52 41 be bd 10 7b 3f 89 01 08 3f b1 2b 33 bf
       -0.18879056 0.98072416 0.5312734 -0.6998854
0002d0 bd 6b b1 be 53 39 2d 3f 7a d9 08 be b2 40 2e bf
       -0.3465251 0.67665595 -0.1336421 -0.6806747
0002e0 c8 37 c8 3c 7f 3e 1a bf 84 45 aa bf 2a 9b 61 bf
       0.024440661 -0.6025161 -1.3302464 -0.88127387
0002f0 1d 51 43 3f 32 1b 00 3e 98 b5 97 3f e6 d9 a7 3e
       0.76295644 0.12510374 1.1852293 0.3278343
000300 2f 13 2f 3f af 02 df be 66 4a 69 be d0 c4 da 3e
       0.68388647 -0.43556735 -0.22782287 0.4272828
000310 d1 ce 48 3f 08 bb 8d 3f 6b e0 f8 be 16 14 56 bf
       0.78440577 1.1072702 -0.48608717 -0.836244
000320 c1 c7 5a 3e 73 b9 3b 3f 8b b7 44 3f 63 67 07 3f
       0.21365263 0.7332985 0.76842564 0.5289213
000330 fc c7 4e 3f 10 2e ec 3f f0 79 97 3e 9d 62 b5 3f
       0.807739 1.8451557 0.29585218 1.4170719
000340 66 ed 8b be 84 0f a6 bf 5e 36 f7 be 8a 4b f0 be
       -0.27329558 -1.2973485 -0.48283666 -0.46932632
000350 d8 69 bf bf ec a8 26 3e 83 65 7f bf f3 b4 68 3f
       -1.4954176 0.16275376 -0.9976427 0.90901107
000360 76 24 83 3d 48 b0 73 3e 9a aa c1 3f 40 0a 9f 3f
       0.06403439 0.23797715 1.5130188 1.2425003
000370 36 1b b5 bf ec d4 8b 3f 52 ec f1 bf 1e c9 28 3f
       -1.4148929 1.0924354 -1.8900244 0.6593188
000380 56 9b 87 3f d9 bf 48 bf 2c 59 48 bf 2b 72 fb bf
       1.059428 -0.78417736 -0.78261065 -1.9644216
000390 18 87 d4 3d c5 f1 cd bf bb f0 6d be d3 6b d5 3f
       0.103773296 -1.6089407 -0.23236363 1.667353
0003a0 38 20 3c be 18 3b 35 3f f5 9a 3c 3e 46 89 39 3e
       -0.18371665 0.70793295 0.18418486 0.18118772
0003b0 bb 79 de be c5 4f 9e be 87 00 67 3e 11 f0 22 bf
       -0.43452248 -0.30920234 0.22558795 -0.6364756
0003c0 f6 e9 f4 be 1b f3 12 3f 6e 14 e0 3e d7 3e cd be
       -0.47834748 0.574022 0.43765587 -0.40087005
0003d0 5a 9f 84 be af 3f e8 3e cf ce e1 3c 64 57 00 3f
       -0.25902826 0.45361087 0.027564434 0.5013335
0003e0 80 ec a3 3c f4 af 76 bf 8f a8 1b bf d9 30 db 3f
       0.020010233 -0.96362233 -0.60804075 1.7124282
0003f0 e9 c7 43 3f b6 23 08 bf 2f d3 25 3f 5a 3d 90 bf
       0.76476914 -0.5317949 0.64775366 -1.1268723

h2_weight f4 [36, 1]
000000 e4 f3 20 3f 6e 13 76 3e 37 d4 ce 3e b8 2b 89 3f
       0.6287215 0.2403085 0.40396282 1.0716467
000010 55 29 10 3d 15 d1 ad 3e 6e f6 ab 3f 7a 83 98 3e
       0.035195667 0.3394858 1.3434579 0.2978781
000020 14 92 a9 3f 66 e0 b6 3f ea 06 06 bf a9 04 12 3f
       1.3247705 1.4287231 -0.523543 0.5703836
000030 83 e8 bc 3d af ca a0 be ad 2a 7e 3f c7 3e 9d 3f
       0.092240356 -0.31404635 0.9928387 1.2284783
000040 17 8d 43 3e 41 b6 fd be e7 0a b2 bf 9f 4f 3d 3f
       0.1909679 -0.4955311 -1.3909577 0.7394962
000050 d1 c8 46 bf fb 9c 14 bf 36 22 82 3f 07 78 9e 3e
       -0.7765017 -0.58052033 1.016669 0.3095095
000060 ae 4b e6 3e b8 64 83 bf 23 e4 ba be 99 39 a5 be
       0.44979614 -1.0265112 -0.3650218 -0.32270506
000070 e6 0e ac 3e 7f 12 8f bf fd e6 c3 bc 12 27 21 bf
       0.33605117 -1.117752 -0.023913855 -0.6295024
000080 9d 00 46 bf c0 e7 10 3e 50 94 97 be 48 cc 13 3f
       -0.77344686 0.14150906 -0.2960534 0.57733583

last_w f4 [36, 1]
000000 e4 f3 20 3f 6e 13 76 3e 37 d4 ce 3e b8 2b 89 3f
       0.6287215 0.2403085 0.40396282 1.0716467
000010 55 29 10 3d 15 d1 ad 3e 6e f6 ab 3f 7a 83 98 3e
       0.035195667 0.3394858 1.3434579 0.2978781
000020 14 92 a9 3f 66 e0 b6 3f ea 06 06 bf a9 04 12 3f
       1.3247705 1.4287231 -0.523543 0.5703836
000030 83 e8 bc 3d af ca a0 be ad 2a 7e 3f c7 3e 9d 3f
       0.092240356 -0.31404635 0.9928387 1.2284783
000040 17 8d 43 3e 41 b6 fd be e7 0a b2 bf 9f 4f 3d 3f
       0.1909679 -0.4955311 -1.3909577 0.7394962
000050 d1 c8 46 bf fb 9c 14 bf 36 22 82 3f 07 78 9e 3e
       -0.7765017 -0.58052033 1.016669 0.3095095
000060 ae 4b e6 3e b8 64 83 bf 23 e4 ba be 99 39 a5 be
       0.44979614 -1.0265112 -0.3650218 -0.32270506
000070 e6 0e ac 3e 7f 12 8f bf fd e6 c3 bc 12 27 21 bf
       0.33605117 -1.117752 -0.023913855 -0.6295024
000080 9d 00 46 bf c0 e7 10 3e 50 94 97 be 48 cc 13 3f
       -0.77344686 0.14150906 -0.2960534 0.57733583

cross_product f4 [64, 1]
000000 8f 56 c5 3e 85 5d a5 bf 4a 7e 4c 3e d9 31 5e bf
       0.385426 -1.2919165 0.1997005 -0.8679481
000010 82 3b 5b 3f b8 14 1a bf 80 ca 8d be 40 55 97 bf
       0.85637677 -0.60187864 -0.27693558 -1.1822891
000020 61 1e e9 3e 6f f0 cf 3f bd 35 ce 3f b0 78 17 be
       0.4553099 1.624525 1.611015 -0.14792132
000030 38 c2 b6 bf be ca 93 3e b9 52 0f be 68 21 fd 3e
       -1.4278021 0.28865618 -0.139964 0.4943955
000040 56 d8 3a be d0 43 33 bf 4b 07 02 3f 2c 78 75 bf
       -0.18246588 -0.7002535 0.5079238 -0.9588649
000050 62 12 95 bd b1 e9 b7 bc e2 e4 75 bf 48 e5 a8 be
       -0.07278897 -0.0224503 -0.9605237 -0.32987428
000060 7f b3 42 3f d9 fd 86 bf cf e8 c6 bf 5f 64 a9 bc
       0.7605514 -1.0546218 -1.5539798 -0.020677743
000070 62 f8 16 bf e1 26 46 3f ec 2a 5e bd 16 ad 34 bf
       -0.5897275 0.77403075 -0.054240152 -0.7057661
000080 b0 b5 52 bf 58 1e ab bf f3 46 a5 be e9 ad 55 3f
       -0.82308483 -1.3368635 -0.32280692 0.8346849
000090 df d9 28 bf 60 65 22 3f c1 09 dd 3f 80 e7 66 3d
       -0.65957445 0.63435936 1.7268602 0.05637312
0000a0 77 e3 c9 bf 83 16 df 3f db ca 05 bf 22 13 07 3f
       -1.5772542 1.7428745 -0.5226266 0.5276357
0000b0 8d 3b be 3c c8 11 c3 3e 57 c5 ba 3f 4d 1c 37 3c
       0.023221755 0.38099504 1.4591473 0.011176181
0000c0 95 cc 0e bf 82 dd f4 3f b6 15 44 3e 45 b0 6e be
       -0.5578092 1.9130099 0.19148907 -0.23309429
0000d0 b2 b0 e2 3e a8 ca 1b 3f d0 4e 91 be 75 06 d0 bf
       0.44275433 0.60856104 -0.28380442 -1.625197
0000e0 09 0f b7 3f e7 e9 e7 be ff ca 67 bf e0 7d 28 bd
       1.4301463 -0.4529564 -0.9054412 -0.04113567
0000f0 2e 1a 3c bf 1e 71 b7 3f 4a 49 6e bf f6 13 00 bf
       -0.7347745 1.4331396 -0.9308058 -0.5003046

w_layer1 f4 [64, 128]
000000 d8 29 d7 bd 63 24 a9 bf 3c ed 0e bf 85 bb a7 bf
       -0.10506028 -1.3214229 -0.5583074 -1.3104101
000010 30 7f b2 bf 9c e9 08 bf bc 74 5b 3f b6 9c 01 3f
       -1.3945065 -0.5348146 0.85725 0.50629747
000020 cd d6 94 3f 17 73 b2 bf ed c3 d0 3f 8a 6a db be
       1.1628052 -1.3941373 1.6309792 -0.4285472
000030 a2 2b b6 be b4 a8 80 be b4 50 ed bf c3 8c 88 bf
       -0.35580164 -0.2512871 -1.8540254 -1.0667957
000040 de 94 ea 3f d4 b6 04 3f fe 91 fa be 95 18 0e bf
       1.8326681 0.51841474 -0.48939508 -0.5550626
000050 a0 61 59 3f e5 d6 18 3d 53 d7 00 3f 4e af 78 bf
       0.8491459 0.037314314 0.5032856 -0.97142494
000060 48 fa 8a bf 0d 1f bf bd 80 02 70 bf 41 f6 4b 3f
       -1.085763 -0.09332094 -0.93753815 0.7967263
000070 87 56 93 be 46 57 0a be f6 8a e9 bf 53 ab 21 3f
       -0.28776953 -0.13509855 -1.8245533 0.63152045
000080 c6 81 ad bf a4 81 cc 3e 20 19 be bd eb da 7e bf
       -1.3555229 0.39942658 -0.09282136 -0.9955279
000090 d8 ab bb 3e e0 5b 15 3f 63 b7 60 3f b9 d4 95 3f
       0.36654544 0.58343315 0.87779826 1.1705543
0000a0 96 ff 1e be 46 a3 51 3e ba ec 3f 3f c0 ca 5a 3d
       -0.15527186 0.2047244 0.7497059 0.053416014
0000b0 57 e1 80 bf 95 eb 78 3f fb 75 39 3f aa 5e 65 bf
       -1.0068768 0.9723447 0.7244565 -0.8959757
0000c0 8e fe bd be fc d4 b5 3b 21 76 6d 3f 53 f2 70 be
       -0.37108272 0.0055490714 0.92758375 -0.2352994
0000d0 e6 ad 63 be 63 27 d5 be cb c8 52 bf 1a 60 88 3e
       -0.22234306 -0.41631612 -0.82337636 0.2663582
0000e0 43 ba 68 be 25 3b d0 3f 15 8b e8 be c3 f7 4c 3d
       -0.22727303 1.626805 -0.4541861 0.05004097
0000f0 2a ef 21 be 57 f0 90 3f 89 18 3d 3f f1 d6 c1 3f
       -0.1581389 1.1323346 0.7386556 1.514372
000100 69 1e 54 be f4 41 09 bf 8a e1 8d 3e 75 14 14 bf
       -0.20714726 -0.5361626 0.27711135 -0.57843715
000110 a9 66 cd 3e 89 f6 3b bd da fb 9d bf 3e 1b 7b 3e
       0.40117386 -0.04588941 -1.2342484 0.24522111
000120 36 6b 22 3f 17 f0 4d bd 21 8b cd bf 84 70 d5 3f
       0.6344484 -0.050277796 -1.6058084 1.6674962
000130 8c 25 c1 bf 76 70 c7 bd c5 dd 8d bd 52 a9 ea bb
       -1.5089583 -0.09738247 -0.06927065 -0.007161298
000140 0b 6f 9d be a6 2d 10 3f ea 1f d3 bd ee eb ad be
       -0.30748782 0.56319654 -0.103088215 -0.33969063
000150 27 54 bb 3f 29 a7 11 bc 0b ec 8d 3f a4 26 c3 3f
       1.4635056 -0.008889952 1.108766 1.5246167
000160 ad 08 6c 3f 60 ea 9f 3f 3f 82 51 3f 84 bb 93 bf
       0.9220074 1.24934 0.81839365 -1.15416
000170 77 f9 91 3d c0 49 a1 3d a1 3d ce 3f 30 a4 12 bf
       0.0712766 0.07875395 1.6112558 -0.5728178
000180 5a 8c a8 3f ae 98 ab bd 54 ea bf 3e e0 a6 6e 3e
       1.3167832 -0.08378731 0.37483466 0.23305845
000190 34 66 aa bf 02 8b 80 3f 08 46 98 bf b9 f5 9e 3e
       -1.331244 1.0042422 -1.1896372 0.31046847
0001a0 bb c2 8e 3f 48 d7 4a 3d b0 ba 22 be 2d 5a 3b 3f
       1.1153177 0.049521714 -0.15891528 0.7318447
0001b0 80 a9 d1 3f a2 87 df bf 34 4d 9e 3f d8 46 b2 3f
       1.6379852 -1.7463267 1.236731 1.392787
0001c0 e9 39 bc 3e 90 df 2e 3f a8 e4 8e be cb 6f 89 3f
       0.36762932 0.6830988 -0.27908826 1.0737242
0001d0 c3 57 1a be 03 7d 90 3e 04 3b cd 3e 9e 6c 71 3f
       -0.15072541 0.28220376 0.40084088 0.9430636
0001e0 12 0b 00 3f 82 da f8 bc ec 22 19 bc ce 28 0f 3e
       0.5001689 -0.03037763 -0.009346705 0.1398041
0001f0 a0 96 92 bf f0 0e e9 bf f6 08 24 bf bb f8 00 bc
       -1.1452217 -1.8207684 -0.64076173 -0.007871802
000200 c4 3e b5 be e3 6a fe 3e 1e 85 79 bf ac 21 2c bf
       -0.3539945 0.49690923 -0.97468746 -0.6723888
000210 3e c2 80 bf f7 73 0a be 99 cb 65 bf 64 68 2d bf
       -1.0059278 -0.135208 -0.8976379 -0.6773741
000220 23 79 70 bf 1e 81 a3 bf 6b bf e7 bf a9 2b 94 bf
       -0.9393484 -1.2773778 -1.8105291 -1.1575824
000230 0d f6 c6 be 56 ff a5 3f 9b c4 a9 3d 9e 6e f6 bf
       -0.38859597 1.2968547 0.08289453 -1.9252508
000240 ed b9 93 3e 6a a6 33 bf 40 78 34 bd 23 7b 0d 3d
       0.28852788 -0.701758 -0.04405999 0.03454126
000250 c0 6c 06 3f 57 59 59 bf b4 fa b3 3e 92 39 c8 bf
       0.5250969 -0.84901947 0.3515221 -1.5642569
000260 2f ed 17 bf b8 0f 9f bf e6 8d e8 be 21 4b 28 3f
       -0.5934629 -1.2426672 -0.4542076 0.6573964
000270 ed ca 38 3e 87 b0 8d bf 6a 5e c9 be c9 4d f6 3d
       0.1804616 -1.1069497 -0.39329845 0.12026555
000280 d7 4d 81 3f 93 3d f9 be d2 57 97 bf 23 c6 30 3f
       1.010188 -0.4867979 -1.1823676 0.6905233
000290 8e 49 c8 be 9d 86 34 bf db 15 6c be 93 0a 31 be
       -0.39118618 -0.70517904 -0.23055212 -0.1728919
0002a0 6b 39 05 3f 31 4f 30 3f e2 51 c4 be f4 e5 02 3f
       0.5204074 0.68870836 -0.38343722 0.5113213
0002b0 ff 47 62 be 93 e6 82 3f b5 39 59 bf 6f 87 36 bf
       -0.22097777 1.0226616 -0.8485368 -0.71300405
0002c0 4c 37 eb 3b c1 a8 19 be 01 c4 5b 3f 18 15 ab 3e
       0.0071782228 -0.15005781 0.85845953 0.3341453
0002d0 06 58 99 3f ce 31 37 3e 86 d1 3a bd 6e fb d8 3f
       1.1979988 0.17890093 -0.045609973 1.695173
0002e0 d3 50 81 3f 1d df 1d be 3c 82 fa be ed 29 88 3e
       1.010279 -0.15417142 -0.48927486 0.26594487
0002f0 71 ee ba 3e c2 25 20 3e 23 5e ea be 13 63 ff be
       0.3651004 0.15639403 -0.45774946 -0.49880275
000300 af 73 a8 3f 14 52 51 be c9 17 17 bf 5b a8 51 3f
       1.3160304 -0.20441467 -0.5902067 0.81897515
000310 ee 4a 97 3d 5e b7 48 3e 44 e1 ff bf 60 75 38 be
       0.073873386 0.19601199 -1.9990621 -0.18013525
000320 a2 b2 bf 3e 97 43 f8 be 8c 8b ce 3e 8b 5b 0a 3e
       0.37440974 -0.48489067 0.4034084 0.13511483
000330 6b 5d 3b be f7 a5 c4 bf 89 64 be 3e b2 29 d1 be
       -0.18297355 -1.5363148 0.37186077 -0.40852123
000340 95 26 62 3e 4f dc 69 3f 6f 38 51 3f d4 f9 d1 3e
       0.2208503 0.9135179 0.81726736 0.41010916
000350 b0 ac 56 be 40 cf 1a bf 9c 5d ff 3f db ef ad bf
       -0.20964313 -0.6047249 1.9950442 -1.3588823
000360 8a 69 16 3f 8e cb c5 3f a0 9b d5 3e a2 e3 8c bf
       0.5875479 1.5452745 0.41720295 -1.1006968
000370 48 08 78 be 93 53 98 3e be a8 ee bf f7 38 78 3f
       -0.24221909 0.29751262 -1.8645246 0.9696192
000380 88 20 c4 3f ba 49 88 bd 58 82 56 bf 59 7e 66 3e
       1.5322428 -0.06654687 -0.8379264 0.22509135
000390 b9 5a 1a 3f c0 24 d7 bd a8 ed 95 3f 34 e2 cd bf
       0.6029468 -0.105050564 1.1713152 -1.6084657
0003a0 3d bd 92 bd 71 98 aa bf 04 4f 39 3f 6f 53 2f 3f
       -0.071650006 -1.3327771 0.72386193 0.68486685
0003b0 f2 e7 9e 3c 5b 9c 8f 3e 73 a8 df 3f 22 cf f1 3f
       0.01939771 0.28048977 1.7473282 1.8891337
0003c0 e4 48 fc bd b2 be 8e 3e fd cd 6b bf cd 07 ef 3d
       -0.1231859 0.27879864 -0.9211119 0.1167141
0003d0 8e d4 bd 3e 24 ae 8e 3f 4c bb de 3f 09 db c8 3f
       0.3707623 1.1146894 1.7400908 1.5691844
0003e0 8e 3e 0d bf 26 3d f4 3e 3e 11 33 bf 74 f9 0e 3f
       -0.55173576 0.47702903 -0.69948184 0.55849385
0003f0 47 cc 9b bf 62 35 90 be 30 66 b0 3f 84 e0 39 bf
       -1.2171715 -0.28165728 1.3781185 -0.7260821

w_layer2 f4 [128, 1]
000000 b0 3b b5 3f fd db 04 bf 3e 75 32 bf 08 f9 97 be
       1.415884 -0.51898175 -0.6971015 -0.29682183
000010 59 c5 4a 3f d3 56 23 3f b8 73 44 3f 5e 02 aa be
       0.7920738 0.6380436 0.7673907 -0.3320493
000020 13 42 39 3f e0 49 91 be fd 81 9f 3f 39 8e 3d bf
       0.72366446 -0.28376675 1.2461544 -0.7404514
000030 62 d3 27 bf b6 6e be 3f 1a 3b 06 be e0 01 90 bf
       -0.6555692 1.4877536 -0.13108483 -1.1250572
000040 d8 e8 d8 3e e0 ff 9e bf 2f 71 2b bf 40 e5 d8 be
       0.42365146 -1.2421837 -0.6696958 -0.42362404
000050 80 a2 30 be 08 76 26 3e 53 d7 11 3f c8 f4 f8 bd
       -0.17249489 0.16255963 0.56969184 -0.12156063
000060 d3 ed 92 3b 40 04 9a 3a 12 50 57 bb 02 c8 7d be
       0.0044839173 0.0011750534 -0.0032854122 -0.24783328
000070 21 66 66 3e 23 a9 2b 3f b1 01 93 be 53 e1 63 3f
       0.22499897 0.6705496 -0.28712228 0.8901569
000080 6b 0d 0b 3e ab 78 02 3f cf ff ac be c0 68 06 bf
       0.13579337 0.50965375 -0.33788916 -0.52503586
000090 9f 7e 81 3d e3 fb 82 be c3 82 99 3f e1 70 cb bf
       0.06322979 -0.255828 1.199303 -1.5893823
0000a0 f6 d7 b0 be a7 0b fc 3f 4a 9d 99 be 73 14 03 be
       -0.34539765 1.9691056 -0.30002815 -0.1280077
0000b0 0f d4 82 be 1f 33 dc 3f 11 8a 30 bf 95 b8 a4 3f
       -0.25552413 1.7203101 -0.6896067 1.286883
0000c0 96 73 30 3f b5 15 88 bf ac f0 83 bf d6 83 91 3f
       0.6892637 -1.0631624 -1.0307822 1.1368358
0000d0 51 57 fa 3f 08 1e 73 bf b5 d1 2b be ca b0 29 bf
       1.9557897 -0.949677 -0.16779216 -0.66285384
0000e0 9f b7 91 3b c0 d7 68 3e d4 f7 a3 3f 8b f9 22 bf
       0.004446938 0.22738552 1.2810006 -0.6366202
0000f0 8b a2 5f bf 76 a5 8e bf 80 c1 b5 3e 2f ef a6 3f
       -0.87357396 -1.1144245 0.3549919 1.3041743
000100 74 21 1a 3f bf 8c fc 3d 1d 0f 26 bf 7a d0 ab bf
       0.60207295 0.12331533 -0.6486681 -1.3422997
000110 c7 99 92 be f8 92 47 bf 3f f5 df bd be 8a 35 bf
       -0.28632948 -0.7795863 -0.10935449 -0.7091483
000120 88 1c 37 be 2d b1 ae 3e 2b b6 bc be 9d 24 ce 3f
       -0.17881978 0.3411955 -0.36857733 1.6104923
000130 3b 04 c4 bf 77 6a 8a bf 10 80 a1 be 8c f3 04 bf
       -1.5313791 -1.081374 -0.31543016 -0.51934123
000140 94 5f d7 bb fd 25 64 bf be ce 12 bf 53 c2 b0 bf
       -0.006572673 -0.89120466 -0.57346714 -1.3809303
000150 c3 00 93 3e 01 74 3f 3e 4d bb 7f bf 30 49 e4 3f
       0.2871152 0.18696596 -0.99895173 1.7834835
000160 b7 24 e6 3e 2c 86 c0 3f 13 48 a2 bf be c7 50 3f
       0.44949886 1.5040946 -1.2678245 0.8155478
000170 03 31 a9 3e 3c 50 de 3d d3 7d be bf e7 9f 25 bf
       0.33045205 0.10855147 -1.4882149 -0.64697117
000180 f8 4e c9 be c4 5b 14 bf 70 cf 2a be a5 87 95 bf
       -0.3931806 -0.57952523 -0.16680694 -1.168202
000190 1a 27 a4 bf 1c b0 80 3d fd 5e 2c 3f e9 4e b6 3e
       -1.2824433 0.0628359 0.6733244 0.3560708
0001a0 99 ef 75 bf e4 40 e9 be 39 a0 0f be 6a 6c d9 3d
       -0.9606872 -0.4555732 -0.14025964 0.106163815
0001b0 b0 c5 1a bf c3 59 d8 3e 64 b5 50 bf 6b 6b 89 3f
       -0.604579 0.42255983 -0.8152678 1.0735906
0001c0 29 a8 a5 3f 90 72 a4 3e 78 b4 b2 3f a5 c0 eb be
       1.2941943 0.32118654 1.3961325 -0.46045414
0001d0 fc 82 e5 be 7f 92 40 bf aa 0a 25 3f 5c 7d d2 bf
       -0.44826496 -0.75223535 0.644694 -1.6444507
0001e0 b9 db df be 90 4e cd 3e be 1a d2 bd 08 15 98 3e
       -0.43722323 0.40099 -0.10259007 0.29703546
0001f0 4c 11 8c 3e 94 c1 ca bf 82 18 db 3f 4c e8 57 3f
       0.27356946 -1.5840325 1.7116854 0.8433883

layerNodeAttention_weight.trans f4 [64, 64]
000000 00 00 80 3f 00 00 00 00 00 00 00 00 00 00 00 00
       1.0 0.0 0.0 0.0
000010 00 00 00 00 00 00 00 00 00 00 00 00 00 00 00 00
       0.0 0.0 0.0 0.0
000020 00 00 00 00 00 00 00 00 00 00 00 00 00 00 00 00
       0.0 0.0 0.0 0.0
000030 00 00 00 00 00 00 00 00 00 00 00 00 00 00 00 00
       0.0 0.0 0.0 0.0
000040 00 00 00 00 00 00 00 00 00 00 00 00 00 00 00 00
       0.0 0.0 0.0 0.0
000050 00 00 00 00 00 00 00 00 00 00 00 00 00 00 00 00
       0.0 0.0 0.0 0.0
000060 00 00 00 00 00 00 00 00 00 00 00 00 00 00 00 00
       0.0 0.0 0.0 0.0
000070 00 00 00 00 00 00 00 00 00 00 00 00 00 00 00 00
       0.0 0.0 0.0 0.0
000080 00 00 00 00 00 00 00 00 00 00 00 00 00 00 00 00
       0.0 0.0 0.0 0.0
000090 00 00 00 00 00 00 00 00 00 00 00 00 00 00 00 00
       0.0 0.0 0.0 0.0
0000a0 00 00 00 00 00 00 00 00 00 00 00 00 00 00 00 00
       0.0 0.0 0.0 0.0
0000b0 00 00 00 00 00 00 00 00 00 00 00 00 00 00 00 00
       0.0 0.0 0.0 0.0
0000c0 00 00 00 00 00 00 00 00 00 00 00 00 00 00 00 00
       0.0 0.0 0.0 0.0
0000d0 00 00 00 00 00 00 00 00 00 00 00 00 00 00 00 00
       0.0 0.0 0.0 0.0
0000e0 00 00 00 00 00 00 00 00 00 00 00 00 00 00 00 00
       0.0 0.0 0.0 0.0
0000f0 00 00 00 00 00 00 00 00 00 00 00 00 00 00 00 00
       0.0 0.0 0.0 0.0
000100 00 00 00 00 00 00 80 3f 00 00 00 00 00 00 00 00
       0.0 1.0 0.0 0.0
000110 00 00 00 00 00 00 00 00 00 00 00 00 00 00 00 00
       0.0 0.0 0.0 0.0
000120 00 00 00 00 00 00 00 00 00 00 00 00 00 00 00 00
       0.0 0.0 0.0 0.0
000130 00 00 00 00 00 00 00 00 00 00 00 00 00 00 00 00
       0.0 0.0 0.0 0.0
000140 00 00 00 00 00 00 00 00 00 00 00 00 00 00 00 00
       0.0 0.0 0.0 0.0
000150 00 00 00 00 00 00 00 00 00 00 00 00 00 00 00 00
       0.0 0.0 0.0 0.0
000160 00 00 00 00 00 00 00 00 00 00 00 00 00 00 00 00
       0.0 0.0 0.0 0.0
000170 00 00 00 00 00 00 00 00 00 00 00 00 00 00 00 00
       0.0 0.0 0.0 0.0
000180 00 00 00 00 00 00 00 00 00 00 00 00 00 00 00 00
       0.0 0.0 0.0 0.0
000190 00 00 00 00 00 00 00 00 00 00 00 00 00 00 00 00
       0.0 0.0 0.0 0.0
0001a0 00 00 00 00 00 00 00 00 00 00 00 00 00 00 00 00
       0.0 0.0 0.0 0.0
0001b0 00 00 00 00 00 00 00 00 00 00 00 00 00 00 00 00
       0.0 0.0 0.0 0.0
0001c0 00 00 00 00 00 00 00 00 00 00 00 00 00 00 00 00
       0.0 0.0 0.0 0.0
0001d0 00 00 00 00 00 00 00 00 00 00 00 00 00 00 00 00
       0.0 0.0 0.0 0.0
0001e0 00 00 00 00 00 00 00 00 00 00 00 00 00 00 00 00
       0.0 0.0 0.0 0.0
0001f0 00 00 00 00 00 00 00 00 00 00 00 00 00 00 00 00
       0.0 0.0 0.0 0.0
000200 00 00 00 00 00 00 00 00 00 00 80 3f 00 00 00 00
       0.0 0.0 1.0 0.0
000210 00 00 00 00 00 00 00 00 00 00 00 00 00 00 00 00
       0.0 0.0 0.0 0.0
000220 00 00 00 00 00 00 00 00 00 00 00 00 00 00 00 00
       0.0 0.0 0.0 0.0
000230 00 00 00 00 00 00 00 00 00 00 00 00 00 00 00 00
       0.0 0.0 0.0 0.0
000240 00 00 00 00 00 00 00 00 00 00 00 00 00 00 00 00
       0.0 0.0 0.0 0.0
000250 00 00 00 00 00 00 00 00 00 00 00 00 00 00 00 00
       0.0 0.0 0.0 0.0
000260 00 00 00 00 00 00 00 00 00 00 00 00 00 00 00 00
       0.0 0.0 0.0 0.0
000270 00 00 00 00 00 00 00 00 00 00 00 00 00 00 00 00
       0.0 0.0 0.0 0.0
000280 00 00 00 00 00 00 00 00 00 00 00 00 00 00 00 00
       0.0 0.0 0.0 0.0
000290 00 00 00 00 00 00 00 00 00 00 00 00 00 00 00 00
       0.0 0.0 0.0 0.0
0002a0 00 00 00 00 00 00 00 00 00 00 00 00 00 00 00 00
       0.0 0.0 0.0 0.0
0002b0 00 00 00 00 00 00 00 00 00 00 00 00 00 00 00 00
       0.0 0.0 0.0 0.0
0002c0 00 00 00 00 00 00 00 00 00 00 00 00 00 00 00 00
       0.0 0.0 0.0 0.0
0002d0 00 00 00 00 00 00 00 00 00 00 00 00 00 00 00 00
       0.0 0.0 0.0 0.0
0002e0 00 00 00 00 00 00 00 00 00 00 00 00 00 00 00 00
       0.0 0.0 0.0 0.0
0002f0 00 00 00 00 00 00 00 00 00 00 00 00 00 00 00 00
       0.0 0.0 0.0 0.0
000300 00 00 00 00 00 00 00 00 00 00 00 00 00 00 80 3f
       0.0 0.0 0.0 1.0
000310 00 00 00 00 00 00 00 00 00 00 00 00 00 00 00 00
       0.0 0.0 0.0 0.0
000320 00 00 00 00 00 00 00 00 00 00 00 00 00 00 00 00
       0.0 0.0 0.0 0.0
000330 00 00 00 00 00 00 00 00 00 00 00 00 00 00 00 00
       0.0 0.0 0.0 0.0
000340 00 00 00 00 00 00 00 00 00 00 00 00 00 00 00 00
       0.0 0.0 0.0 0.0
000350 00 00 00 00 00 00 00 00 00 00 00 00 00 00 00 00
       0.0 0.0 0.0 0.0
000360 00 00 00 00 00 00 00 00 00 00 00 00 00 00 00 00
       0.0 0.0 0.0 0.0
000370 00 00 00 00 00 00 00 00 00 00 00 00 00 00 00 00
       0.0 0.0 0.0 0.0
000380 00 00 00 00 00 00 00 00 00 00 00 00 00 00 00 00
       0.0 0.0 0.0 0.0
000390 00 00 00 00 00 00 00 00 00 00 00 00 00 00 00 00
       0.0 0.0 0.0 0.0
0003a0 00 00 00 00 00 00 00 00 00 00 00 00 00 00 00 00
       0.0 0.0 0.0 0.0
0003b0 00 00 00 00 00 00 00 00 00 00 00 00 00 00 00 00
       0.0 0.0 0.0 0.0
0003c0 00 00 00 00 00 00 00 00 00 00 00 00 00 00 00 00
       0.0 0.0 0.0 0.0
0003d0 00 00 00 00 00 00 00 00 00 00 00 00 00 00 00 00
       0.0 0.0 0.0 0.0
0003e0 00 00 00 00 00 00 00 00 00 00 00 00 00 00 00 00
       0.0 0.0 0.0 0.0
0003f0 00 00 00 00 00 00 00 00 00 00 00 00 00 00 00 00
       0.0 0.0 0.0 0.0
