MultiDismantler_degree_cost/models/nrange_30_50_iter_944400.ckpt (torch, 76819 bytes, 8 tensors)

w_n2l f4 [2, 64]
-0.48828804 -1.3060688 -1.0888282 -0.8086837 1.2886959 -2.021567 -0.7511938 0.061844032
-0.12134355 0.9774871 -0.50485027 -0.31789067 0.2794963 -0.7002535 0.03802983 -0.13639972
0.02907865 0.18100755 0.67556626 1.7099247 -0.7628349 0.094035834 -0.14968087 -0.952445
0.8431328 0.77896 -0.15266465 0.64331484 -1.22001 0.62876004 -0.90015996 0.9847925
-0.7832542 -0.41693708 -0.64442545 0.22697772 1.9283406 -1.2675129 -1.0013742 -0.61201644
0.12891129 0.14774555 2.0732913 0.48765245 1.4418039 1.8155354 -0.8605132 -2.2756803
-0.24707924 0.725214 -0.99138504 -0.706647 -1.2217311 0.56643635 0.6331666 0.75556916
-0.10652984 1.4422891 -0.21204261 -2.4726825 -1.3431642 -1.3321363 -1.2855246 0.5291716
0.10958178 0.7224324 -0.3336069 -0.35308576 2.5676174 1.0028496 -0.7256596 0.9095984
-0.5738154 0.1493225 0.73052365 -0.4915785 -0.28033864 0.7851026 0.5220931 -0.7642248
0.46257114 -0.7140967 0.86695707 1.2845496 0.66740155 -0.52499163 -1.0239428 -0.32427654
-1.4220225 -1.9872303 0.57937074 -0.64344686 0.70357144 0.46363908 -0.5069982 -1.4317899
0.21749784 -0.06394426 0.6434154 1.1330098 0.19743115 0.4534467 0.32664382 -0.64150864
1.7152516 1.2344108 -0.73407555 -1.231347 0.17505768 -0.17410932 1.1378012 -0.50312984
-1.4810185 0.55113137 0.99119747 -1.3020504 -0.49573478 2.3733711 0.5074873 1.0461755
0.45438316 0.16886817 0.7967814 0.6081573 0.9011463 0.8844916 -0.86138177 -0.675265
00000000: e400 fabe 432d a7bf b95e 8bbf e505 4fbf
00000010: fdf3 a43f 5b61 01c0 3d4e 40bf 2b50 7d3d
00000020: f882 f8bd 983c 7a3f de3d 01bf 91c2 a2be
00000030: 241a 8f3e d043 33bf 2bc5 1b3d 5eac 0bbe
00000040: 5936 ee3c 0b5a 393e e9f1 2c3f d0de da3f
00000050: 2649 43bf dc95 c03d f145 19be 6fd3 73bf
00000060: 8dd7 573f ec69 473f 1f54 1cbe 48b0 243f
00000070: 4a29 9cbf 6bf6 203f e270 66bf 5c1b 7c3f
00000080: 5983 48bf c778 d5be 11f9 24bf d96c 683e
00000090: ddd3 f63f dd3d a2bf 082d 80bf 1cad 1cbf
000000a0: 5201 043e 9c4a 173e ceb0 0440 95ad f93e
000000b0: 088d b83f 7763 e83f 984a 5cbf bfa4 11c0
000000c0: 5702 7dbe a0a7 393f 69cb 7dbf d1e6 34bf
000000d0: af61 9cbf f901 113f 3517 223f fb6c 413f
000000e0: 512c dabd ee9c b83f b321 59be 6e40 1ec0
000000f0: ceec abbf 7183 aabf 128c a4bf ca77 073f
00000100: 6a6c e03d 54f1 383f 86ce aabe a8c7 b4be
00000110: d853 2440 605d 803f d4c4 39bf 71db 683f
00000120: 91e5 12bf ffe7 183e 9903 3b3f 2db0 fbbe
00000130: 8c88 8fbe 7cfc 483f e5a7 053f 3da4 43bf
00000140: 20d6 ec3e 0bcf 36bf e6f0 5d3f 1f6c a43f
00000150: d4da 2a3f da65 06bf 8f10 83bf 9307 a6be
00000160: d504 b6bf 905d febf a451 143f efb8 24bf
00000170: 421d 343f 1a62 ed3e a2ca 01bf e444 b7bf
00000180: c1b7 5e3e 35f5 82bd dfb6 243f 7706 913f
00000190: 642b 4a3e 2a2a e83e dc3d a73e e939 24bf
000001a0: 5d8d db3f 2c01 9e3f 60ec 3bbf c79c 9dbf
000001b0: 5242 333e b749 32be 78a3 913f 1ecd 00bf
000001c0: 0492 bdbf f216 0d3f 1ebf 7d3f 96a9 a6bf
000001d0: f3d0 fdbe 50e5 1740 b0ea 013f 14e9 853f
000001e0: e9a4 e83e c7eb 2c3e def9 4b3f 32b0 1b3f
000001f0: 86b1 663f 0b6e 623f 8483 5cbf 2bde 2cbf

p_node_conv f4 [64, 64]
-0.40470293 -0.5848647 0.70867133 -0.5254707 -0.32245737 -0.024906378 0.83115363 -0.60425997
-1.3713088 -0.27936277 -0.7864466 1.8815396 0.82798177 0.6107327 0.37657523 -0.554493
1.4116147 -1.0721921 0.8400125 1.095199 -1.8793428 -0.8749044 0.57906663 1.2683645
1.8041905 1.8688741 -1.5012023 -0.38689044 -0.84239566 1.3104767 1.2947807 1.1283114
0.58560205 -0.7781107 -0.3083966 -0.07183536 -0.16805646 -1.4290354 0.59817463 -1.5921155
-1.6341993 -1.8357424 1.319234 -1.5352982 -0.64019483 -1.2691008 0.14838643 1.2805476
-1.4460042 -1.1577158 1.0977544 -1.1449767 0.58139205 -0.34490782 1.8243471 -0.0707843
-0.0064450665 1.5021031 -0.05452069 -1.4598727 0.2566555 0.41920757 -0.1620068 0.20220341
-0.25673777 -1.581239 -0.8879905 -0.24721326 -0.03138725 1.0569639 1.0792514 0.34544203
-1.2193885 0.57006454 -0.44272074 -0.044133745 1.4793667 -0.15130699 0.3656472 0.32106614
1.0895646 0.20959751 -0.43891978 1.7336336 -0.39535984 1.4999614 0.22394586 0.7994685
0.8646594 -0.3701648 1.1549928 -0.21295561 0.011952614 -0.5908479 0.80051 -0.059362177
-0.17452717 0.10922474 -1.5962526 -0.28003192 -0.13225697 1.8373762 0.26992083 -0.47649267
1.1578162 -0.5669417 -0.62891877 1.3158938 1.2051344 -1.5850948 0.41958904 1.5142114
0.15693937 0.63316566 -0.5759757 -0.8323961 -0.72625107 2.2842877 1.6135776 -0.5689822
-1.0469105 -1.1471492 -2.2614713 0.8909792 0.28237113 0.7298968 1.987042 0.8630866
0.17182265 -0.32773432 0.14173347 0.20464912 0.032733716 0.71857893 0.86795986 -2.275492
-1.0294214 -1.55497 -0.41982302 0.75694656 -0.5059077 0.7351123 1.5464463 0.50473696
-1.8217489 1.2819352 1.4950668 -0.8979469 -0.55238295 0.81900835 0.8578459 -0.33801287
0.91690665 1.4430184 0.16161418 0.26170057 -0.7020289 -0.22686942 -1.1315384 0.72528
-1.7377373 0.33380982 -1.3631997 1.1441025 -0.5589807 0.47691974 -0.0025030577 0.65814215
-1.339765 -0.42198825 -0.7467835 0.34707153 -1.2301292 -1.57804 0.41955832 -0.71967953
0.5808462 0.47113544 0.71894103 0.67207867 0.31153288 -0.2723576 0.74106073 -0.13551018
0.058860585 -0.76246655 -0.5588069 0.56806284 -0.8958632 0.041821335 -1.1059567 0.21921578
0.17215686 -1.799171 1.1650922 0.8417248 -0.5838111 -0.52104133 -0.80416065 0.99281156
0.5096136 0.46791476 -0.46201405 -0.27070138 1.5819669 0.85693574 -1.6313753 -0.3139529
-0.7005956 -2.505917 -0.106562026 -0.6497537 1.1071669 -0.5539038 -0.1600613 1.056163
-0.7454156 1.282374 -0.016578797 0.40511546 -0.21708015 -0.70831823 -1.4014014 2.4503746
-0.58032477 -0.909207 -0.6350292 -0.99705476 -0.13787271 0.6904851 0.7617124 1.7960024
-0.94883144 -0.12437465 1.2581136 3.4080658 -0.7432684 0.66237974 1.1356642 -0.59163386
-0.13818346 0.28348616 -0.68506306 -1.3628643 -1.4887712 1.3608385 -0.57046324 0.52831054
0.30179316 2.0255103 0.7303593 0.06267514 -0.3114931 0.1902389 0.41813394 2.2947385
00000000: 3935 cfbe b1b9 15bf 7c6b 353f 3f85 06bf
00000010: 2219 a5be 7608 ccbc 7cc6 543f c8b0 1abf
00000020: 0c87 afbf a308 8fbe 9054 49bf 4ad6 f03f
00000030: 9df6 533f fa58 1c3f 78ce c03e 41f3 0dbf
00000040: caaf b43f 973d 89bf 0f0b 573f 7b2f 8c3f
00000050: 4e8e f0bf bcf9 5fbf b63d 143f c559 a23f
00000060: b7ef e63f 4437 ef3f 6627 c0bf 8116 c6be
00000070: 3ea7 57bf b3bd a73f 60bb a53f 826c 903f
00000080: 04ea 153f 4332 47bf 29e6 9dbe 6b1e 93bd
00000090: fe16 2cbe a2ea b6bf f921 193f 71ca cbbf
000000a0: 712d d1bf 9bf9 eabf a9dc a83f a784 c4bf
000000b0: cfe3 23bf e571 a2bf 9df2 173e fce8 a33f
000000c0: aa16 b9bf 0830 94bf 3783 8c3f 998e 92bf
000000d0: 1cd6 143f c297 b0be 3584 e93f 5cf7 90bd
000000e0: 2331 d3bb ea44 c03f 1651 5fbd 1cdd babf
000000f0: 5a68 833e 60a2 d63e 1ce5 25be 690e 4f3e
00000100: 2273 83be 0a66 cabf 5853 63bf 7925 7dbe
00000110: eb8f 00bd 984a 873f e924 8a3f c7dd b03e
00000120: ec14 9cbf c0ef 113f 4bac e2be 96c5 34bd
00000130: e35b bd3f 38f0 1abe 1c36 bb3e c862 a43e
00000140: da76 8b3f bba0 563e 18ba e0be b5e7 dd3f
00000150: 9b6c cabe bcfe bf3f 1052 653e f8a9 4c3f
00000160: 525a 5d3f 3e86 bdbe ced6 933f 0911 5abe
00000170: e6d4 433c cf41 17bf 39ee 4c3f c125 73bd
00000180: 40b7 32be 38b1 df3d 0152 ccbf 5860 8fbe
00000190: 5f6e 07be 252f eb3f 1033 8a3e d9f6 f3be
000001a0: 5233 943f 1723 11bf d200 21bf 356f a83f
000001b0: d841 9a3f 63e4 cabf 60d4 d63e aed1 c13f
000001c0: b7b4 203e 2517 223f 2573 13bf e917 55bf
000001d0: 97eb 39bf c531 1240 b689 ce3f d1a8 11bf
000001e0: 2a01 86bf c9d5 92bf f2bb 10c0 3617 643f
000001f0: f392 903e 84da 3a3f 6457 fe3f 3ef3 5c3f
00000200: 47f2 2f3e cbcc a7be 9422 113e 8a8f 513e
00000210: ca13 063d caf4 373f 9e32 5e3f a9a1 11c0
00000220: 15c4 83bf 4209 c7bf 0bf3 d6be 40c7 413f
00000230: 2b83 01bf 5230 3c3f f4f1 c53f 7136 013f
00000240: 112f e9bf 7416 a43f 595e bf3f d9df 65bf
00000250: f868 0dbf 88aa 513f ca9b 5b3f 0610 adbe
00000260: 65ba 6a3f d4b4 b83f 307e 253e 9efd 853e
00000270: 2ab8 33bf 7550 68be 40d6 90bf f3ab 393f
00000280: 2d6e debf 1fe9 aa3e 547d aebf f371 923f
00000290: 5c19 0fbf d32e f43e 570a 24bb 017c 283f
000002a0: 6b7d abbf d80e d8be 342d 3fbf 5cb3 b13e
000002b0: e074 9dbf 37fd c9bf 59d0 d63e eb3c 38bf
000002c0: 56b2 143f aa38 f13e 850c 383f 590d 2c3f
000002d0: 3d81 9f3e 7572 8bbe 28b6 3d3f 2ec3 0abe
000002e0: cc17 713d 0231 43bf f80d 0fbf 916c 113f
000002f0: 4a57 65bf d94c 2b3d fd8f 8dbf 1a7a 603e
00000300: e349 303e 3c4b e6bf be21 953f 477b 573f
00000310: a574 15bf f762 05bf 79dd 4dbf e628 7e3f
00000320: 0976 023f 8692 ef3e 1b8d ecbe 5f99 8abe
00000330: e47d ca3f 2460 5b3f e8d0 d0bf 6fbe a0be
00000340: 3c5a 33bf f260 20c0 313d dabd 4256 26bf
00000350: a5b7 8d3f a4cc 0dbf 1ce7 23be 5930 873f
00000360: 8fd3 3ebf d524 a43f 42d0 87bc 4b6b cf3e
00000370: 424a 5ebe 5854 35bf 1f61 b3bf f0d2 1c40
00000380: 2a90 14bf cac1 68bf 4691 22bf fb3e 7fbf
00000390: 812e 0dbe a2c3 303f 95ff 423f 68e3 e53f
000003a0: 9ee6 72bf 23b8 febd de09 a13f c01d 5a40
000003b0: d646 3ebf b891 293f 725d 913f 5175 17bf
000003c0: f77f 0dbe 1925 913e 4b60 2fbf 5672 aebf
000003d0: 0e90 bebf f52f ae3f e109 12bf 5c3f 073f
000003e0: a284 9a3e f6a1 0140 d4f8 3a3f d35b 803d
000003f0: 067c 9fbe fccd 423e a715 d63e ffdc 1240

p_node_conv2 f4 [64, 64]
-0.13635337 -1.8277694 -0.68559176 -0.07385746 0.414256 -0.9748481 0.21775287 -0.9131416
2.7166924 0.91305286 0.6207478 -0.97706234 -0.58584654 -1.2676631 0.3551151 0.22200282
-0.9306149 -0.48338634 0.023744756 -0.46312472 0.08008231 -0.39088014 0.29382816 0.15072429
2.7616243 0.8689724 0.38430446 -1.1752642 -1.0132122 1.3171859 1.1947324 -0.58728206
-1.0431458 -1.2112751 -0.858827 -1.3092072 1.0513558 -0.8121035 0.52804935 -0.62343293
0.35968876 -0.2614344 0.35072973 -0.3308238 -0.058866754 1.2957227 0.37937212 0.09703242
-2.9980397 0.44582337 -1.3712718 -2.399545 0.3523499 -0.6342005 -0.32487968 -0.633047
0.99812657 0.36426246 -0.6573728 -1.445028 -0.411914 1.2807451 0.004482765 0.68039596
0.15525028 -0.049684186 0.37199 1.1886718 -0.23280984 0.27197692 -0.7663241 -1.5170615
0.09643312 0.1505324 -0.5606799 1.3169765 -0.4093511 -1.2788863 -2.2130573 0.18622215
-0.3516402 -0.55982774 0.16467102 -0.06571095 -0.2853409 -0.2897158 -1.5023718 -0.5396998
1.5285571 1.1245176 0.65900695 -0.8170636 -0.4479611 0.37348548 0.163749 -0.16258888
-1.8505971 -0.38286418 -1.293124 -0.23412459 -1.8015683 1.379642 0.71432054 0.4893425
0.15291993 -0.7438047 0.76980376 0.7365353 0.6216351 -0.17521124 -1.0818304 -0.7384579
-2.6699712 1.5804151 0.7368493 -0.7262491 1.2166879 1.3816922 1.2991146 -0.18581404
0.16474026 1.9132483 2.3070803 0.7399004 -1.6415286 1.5471982 2.0140443 -1.168161
-0.68222106 0.3258519 0.08210373 -0.6385327 1.5126882 1.0310464 -0.9305427 0.36882862
-0.15776733 0.8473442 0.46620268 -0.74307245 0.51248544 -1.6337913 0.38053733 0.19576973
-0.17258875 -1.2920251 0.6495623 -0.8567861 -0.26268905 0.78816617 0.024377856 -1.2449996
-1.3307242 -3.3133254 1.1077489 1.0504025 -0.6996412 -1.1906259 -1.6016157 -0.75864774
0.30460206 0.17884482 1.6889443 0.26670194 1.2418263 -0.33929682 -0.5974316 -0.071751125
-1.3666391 -0.058554202 1.1764275 -0.7420527 0.55674267 -1.1021402 0.33790183 -0.59752524
1.501079 -0.2854955 -0.23669568 -0.25430816 1.8210067 0.3832074 1.0229667 2.087145
1.1028931 1.1124743 -0.6827271 -0.7473909 -1.2746869 0.33560088 1.0267915 -0.061283093
1.0538684 0.5819455 0.16277778 1.4618468 -0.63878226 -0.08513162 -0.4860727 -0.2083537
1.2384604 -0.42179608 2.799032 -1.3409736 -0.4371382 0.22959991 1.7286525 -2.2880569
1.1470715 -2.4312553 1.3313361 -1.1840593 -1.3088638 -0.99695194 0.2348171 0.87083805
-0.5760682 1.2040191 0.11485852 0.48933226 0.5096385 1.8647683 0.4931398 -1.0218822
1.2856528 1.3011225 0.39697677 1.6709924 -0.22409323 0.36025387 -0.6086386 -1.594767
0.006545504 -0.9755137 -0.8400862 0.23538308 0.9182263 2.6469438 1.3474972 -1.4944264
-0.35628754 0.9822266 -0.2401328 -0.26462755 1.8665605 1.7312298 1.6034278 -0.5457825
1.3417455 0.70610166 -1.0453306 0.7193473 0.071147144 -1.4764043 0.113992184 1.4796834
00000000: 38a0 0bbe 59f4 e9bf f182 2fbf 9442 97bd
00000010: 5d19 d43e a58f 79bf 9cfa 5e3e a6c3 69bf
00000020: 4ade 2d40 d5bd 693f 54e9 1e3f c220 7abf
00000030: 0afa 15bf c942 a2bf a5d1 b53e b554 633e
00000040: c73c 6ebf 6a7e f7be 5d84 c23c af1e edbe
00000050: 3202 a43d 7121 c8be a570 963e 7857 1a3e
00000060: 74be 3040 fa74 5e3f 8ec3 c43e 0f6f 96bf
00000070: f0b0 81bf 8c99 a83f feec 983f 1e58 16bf
00000080: cd85 85bf 100b 9bbf 16dc 5bbf 1a94 a7bf
00000090: d492 863f 04e6 4fbf 3e2e 073f 4d99 1fbf
000000a0: 2029 b83e bbda 85be d992 b33e bd61 a9be
000000b0: 441e 71bd 3eda a53f 103d c23e efb8 c63d
000000c0: e2df 3fc0 f642 e43e d685 afbf 2592 19c0
000000d0: 3567 b43e f75a 22bf a156 a6be 5e0f 22bf
000000e0: 3985 7f3f 9c80 ba3e 9549 28bf adf6 b8bf
000000f0: 64e6 d2be 75ef a33f 29e4 923b 6e2e 2e3f
00000100: eef9 1e3e a581 4bbd 7975 be3e 6626 983f
00000110: b465 6ebe 8f40 8b3e d12d 44bf 122f c2bf
00000120: ba7e c53d 2a25 1a3e b888 0fbf b092 a83f
00000130: 7896 d1be 8cb2 a3bf bba2 0dc0 05b1 3e3e
00000140: 2f0a b4be df50 0fbf 859f 283e 7693 86bd
00000150: 3418 92be a155 94be b84d c0bf c429 0abf
00000160: c2a7 c33f 31f0 8f3f aeb4 283f 152b 51bf
00000170: 285b e5be 7d39 bf3e d1ad 273e b37d 26be
00000180: 5ee0 ecbf c606 c4be 1685 a5bf 5bbe 6fbe
00000190: ca99 e6bf 1c98 b03f b6dd 363f 1a8b fa3e
000001a0: 0b97 1c3e fc69 3ebf dc11 453f 948d 3c3f
000001b0: 7a23 1f3f 936a 33be 6b79 8abf 940b 3dbf
000001c0: cfe0 2ac0 0b4b ca3f 28a2 3c3f 76eb 39bf
000001d0: 6ebc 9b3f 4adb b03f 6349 a63f 0946 3ebe
000001e0: acb1 283e 52e5 f43f 34a7 1340 1d6a 3d3f
000001f0: 9c1d d2bf 970a c63f 1ae6 0040 4d86 95bf
00000200: 0aa6 2ebf 0fd6 a63e 0026 a83d e176 23bf
00000210: c49f c13f 54f9 833f 0c38 6ebf 1bd7 bc3e
00000220: c28d 21be 8deb 583f 1eb2 ee3e ff39 3ebf
00000230: 3f32 033f 1320 d1bf cad5 c23e dc77 483e
00000240: 1bbb 30be 1461 a5bf b749 263f 5556 5bbf
00000250: 2e7f 86be 42c5 493f 12b4 c73c 265c 9fbf
00000260: 2c55 aabf 860d 54c0 b7ca 8d3f 9773 863f
00000270: b01b 33bf 6e66 98bf be01 cdbf bd36 42bf
00000280: cdf4 9b3e 1923 373e 542f d83f 288d 883e
00000290: 2af4 9e3f 50b8 adbe 47f1 18bf 41f2 92bd
000002a0: 08ee aebf 88d6 6fbd 2d95 963f 2af7 3dbf
000002b0: b086 0e3f ee12 8dbf 7801 ad3e 6af7 18bf
000002c0: 5b23 c03f 772c 92be 5a60 72be ae34 82be
000002d0: bf16 e93f c333 c43e 93f0 823f c993 0540
000002e0: 9a2b 8d3f 8f65 8e3f 34c7 2ebf 0355 3fbf
000002f0: f128 a3bf e1d3 ab3e e76d 833f fb03 7bbd
00000300: 29e5 863f 61fa 143f 38af 263e cc1d bb3f
00000310: 3c87 23bf 7d59 aebd 85de f8be ac5a 55be
00000320: df85 9e3f a8f5 d7be 5723 3340 06a5 abbf
00000330: 94d0 dfbe 3d1c 6b3e 7c44 dd3f 866f 12c0
00000340: 3dd3 923f b099 1bc0 3969 aa3f 418f 97bf
00000350: d988 a7bf 3e38 7fbf e573 703e 3eef 5e3f
00000360: 3579 13bf 4c1d 9a3f f23a eb3d c289 fa3e
00000370: ab77 023f bab0 ee3f d27c fc3e 09cd 82bf
00000380: 4590 a43f 2f8b a63f 8a40 cb3e 14e3 d53f
00000390: b278 65be 3273 b83e bdcf 1bbf 5321 ccbf
000003a0: ab7b d63b 44bb 79bf e40f 57bf 4308 713e
000003b0: e110 6b3f 8767 2940 ca7a ac3f 5d49 bfbf
000003c0: 526b b6be 3473 7b3f 5fe5 75be 437d 87be
000003d0: 74eb ee3f f098 dd3f 1f3d cd3f 67b8 0bbf
000003e0: 51be ab3f 14c3 343f 65cd 85bf 2527 383f
000003f0: 98b5 913d d1fa bcbf bc74 e93d 4466 bd3f

p_node_conv3 f4 [128, 64]
-0.6610327 -1.1083403 -0.20444746 -0.47094065 -1.4795867 0.4494503 -0.85367614 -0.88875127
1.9938853 0.009334875 0.4639786 -0.44393888 0.07597298 -0.29346573 -1.8699747 -1.0117201
1.4475766 0.7609397 -0.6247958 -0.84269035 0.23362564 -0.80998194 -0.8497241 -1.123359
0.2495489 -0.039277077 0.22648048 0.11246865 -0.46499833 -0.4756328 0.1920559 0.042458255
-0.44082636 -0.18345584 0.15673263 0.62990534 -1.3820101 -1.3976221 -0.6101813 -0.7164422
0.52922684 0.1975993 1.4655693 -0.018746873 0.2519767 0.09479072 2.529742 -0.9706941
0.97282773 0.2994559 0.5500649 0.591762 -0.34979123 -0.26629245 -0.28921533 0.9754293
-1.183372 -1.1891109 0.9043564 -1.3391217 -1.2093787 0.90360355 -0.82323396 1.21665
-1.6363525 2.800155 -0.30794668 -0.7003628 -0.6512976 -1.1265938 -0.8092915 0.84655833
-0.0029034985 2.4323592 -1.2056046 1.1009142 -0.41308907 -0.48851585 0.35883066 0.67966264
-0.38359243 1.0069242 -1.714605 -1.0350025 0.42111203 -1.1722696 0.634162 -1.1364362
1.1555415 -0.5538334 0.26597607 -1.8532537 0.6475456 0.099564314 -1.706039 2.0452044
-0.80895853 0.23640572 1.5466512 -0.7336897 -0.8606343 0.79314405 -1.6797383 -0.24600337
-0.45282528 0.04639755 0.87821674 0.42451608 -0.6238195 1.0776606 -1.2496192 0.59877634
-0.2759231 -0.11237274 -0.46142262 0.6426539 0.8102882 -0.20209761 0.6214661 0.03018732
-0.117465794 -0.9789197 -0.37426957 0.58397603 0.17888819 0.89879954 -0.15107596 1.8384976
-0.24768327 -1.3804239 -0.9683019 -0.3709797 0.15762821 -1.7805907 3.4277508 -0.7734131
1.8133847 -0.12669794 -0.87103736 -1.1375493 0.8966999 -0.44286197 -0.86493444 0.39183724
-0.12126412 -0.17714538 0.03414477 -0.996319 -0.6682028 -0.08497757 -0.61899847 -0.598709
-1.3131924 0.5064236 -1.6668793 -0.029925507 -0.38830438 0.45711964 -0.55146486 0.54148626
0.23541434 -0.74615216 1.4714112 0.4674542 -0.7366251 -0.9089885 -0.882866 2.460525
0.64481616 -0.57909364 -1.2032593 0.85526586 -0.4775133 -0.48036718 -1.1884606 3.2779725
1.9665651 -0.93521667 1.9962723 -0.34744427 0.07606402 1.3546954 -0.9910177 -0.6818777
0.41841647 -2.206212 1.1742407 -1.842145 0.44892776 -0.8760349 -1.6241804 -0.37655896
-1.4844458 1.5222524 -1.7291853 -0.071796045 -0.2295139 0.1826714 0.18521701 0.4756717
0.19684292 -1.4090972 -1.3366779 -0.43996605 0.030600946 -0.30787387 -0.24818072 0.5140821
-0.69663864 -1.6565058 -1.1665021 -2.1154947 0.88889503 -0.8103457 -0.94227844 -0.5747807
-0.92752975 1.6657349 -1.0402864 -1.1837826 1.8877754 -2.4015799 -0.19020753 1.4862962
1.3159657 -0.124802664 -1.2990881 -3.0948455 0.022712803 1.226578 0.37126577 0.8388015
-1.6900482 -1.2313294 -0.33029523 0.43091133 -0.36325473 -0.5396554 -0.4618706 0.9815772
-1.2915459 0.39320213 -0.7669443 -0.9290091 -2.389059 -1.4487947 -0.015327212 0.23783427
-1.2266346 -0.82719105 0.097931035 0.38709563 -0.533482 -1.1634048 -0.8029019 1.1844531
00000000: 7039 29bf 18de 8dbf ad5a 51be 221f f1be
00000010: 1963 bdbf 5a1e e63e 858a 5abf 3485 63bf
00000020: a237 ff3f 4ef1 183c 9a8e ed3e f54b e3be
00000030: b997 9b3d 2441 96be 555b efbf 0b80 81bf
00000040: 314a b93f f2cc 423f 9ef2 1fbf 8eba 57bf
00000050: 8f3b 6f3e fa5a 4fbf 8587 59bf 3aca 8fbf
00000060: bf89 7f3e 00e1 20bd 80ea 673e f755 e63d
00000070: 4314 eebe 2486 f3be 4daa 443e b5e8 2d3d
00000080: feb3 e1be d9db 3bbe 857e 203e 7a41 213f
00000090: b5e5 b0bf 48e5 b2bf d734 1cbf c268 37bf
000000a0: 697b 073f 7957 4a3e c697 bb3f 0b93 99bc
000000b0: 1703 813e a321 c23d 4be7 2140 697f 78bf
000000c0: 3d0b 793f 4952 993e 0ed1 0c3f b77d 173f
000000d0: d617 b3be 7c57 88be 0814 94be bcb5 793f
000000e0: bc78 97bf c934 98bf e783 673f 5768 abbf
000000f0: eccc 9abf 9052 673f 76bf 52bf 30bb 9b3f
00000100: 0074 d1bf bd35 3340 30ab 9dbe fa4a 33bf
00000110: 71bb 26bf 3a34 90bf ba2d 4fbf 0cb8 583f
00000120: 9f48 3ebb c6ab 1b40 4051 9abf c2ea 8c3f
00000130: 6980 d3be c01e fabe a7b8 b73e 5ffe 2d3f
00000140: 3a66 c4be e4e2 803f 2d78 dbbf f67a 84bf
00000150: ff9b d73e ee0c 96bf 7158 223f be76 91bf
00000160: c9e8 933f 07c8 0dbf 042e 883e 6b37 edbf
00000170: 8cc5 253f 60e8 cb3d 7c5f dabf a1e4 0240
00000180: e817 4fbf 5714 723e abf8 c53f 17d3 3bbf
00000190: 8852 5cbf 7d0b 4b3f aa01 d7bf 4fe8 7bbe
000001a0: b7d8 e7be 5b0b 3e3d d0d2 603f 2c5a d93e
000001b0: a2b2 1fbf c8f0 893f 86f3 9fbf 6849 193f
000001c0: cb45 8dbe ae23 e6bd 963f ecbe f784 243f
000001d0: 0c6f 4f3f adf2 4ebe 6718 1f3f 664b f73c
000001e0: e891 f0bd 7b9a 7abf 43a0 bfbe 747f 153f
000001f0: 772e 373e ba17 663f a8b3 1abe e453 eb3f
00000200: afa0 7dbe bbb1 b0bf a2e2 77bf 0df1 bdbe
00000210: 4a69 213e 65ea e3bf 4560 5b40 67fe 45bf
00000220: fd1c e83f 1bbd 01be 4efc 5ebf 379b 91bf
00000230: 208e 653f cebe e2be 586c 5dbf e49e c83e
00000240: 5359 f8bd 9965 35be 63db 0b3d c30e 7fbf
00000250: 570f 2bbf b808 aebd af76 1ebf fe44 19bf
00000260: b016 a8bf faa4 013f 4d5c d5bf 5626 f5bc
00000270: d5cf c6be 960b ea3e cd2c 0dbf d89e 0a3f
00000280: 7510 713e d403 3fbf 3457 bc3f 2856 ef3e
00000290: 7693 3cbf 78b3 68bf 8203 62bf 3e79 1d40
000002a0: ac12 253f 7b3f 14bf 6704 9abf b4f2 5a3f
000002b0: a07c f4be b0f2 f5be 7a1f 98bf 4dca 5140
000002c0: 68b8 fb3f 5c6a 6fbf da85 ff3f 37e4 b1be
000002d0: 74c7 9b3d a966 ad3f 56b3 7dbf 898f 2ebf
000002e0: af3a d63e 9432 0dc0 854d 963f 68cb ebbf
000002f0: dcd9 e53e d343 60bf 25e5 cfbf 56cc c0be
00000300: 5202 bebf 2bd9 c23f f255 ddbf ce09 93bd
00000310: b105 6bbe 360e 3b3e 87a9 3d3e 3e8b f33e
00000320: 3191 493e 4c5d b4bf 4318 abbf 3b43 e1be
00000330: d6ae fa3c a5a1 9dbe 1623 7ebe e29a 033f
00000340: e956 32bf 6208 d4bf f14f 95bf 4464 07c0
00000350: a08e 633f d172 4fbf 2939 71bf d424 13bf
00000360: 9772 6dbf cd36 d53f 1b28 85bf 3086 97bf
00000370: a0a2 f13f 7cb3 19c0 c3c5 42be f43e be3f
00000380: 9071 a83f 8a98 ffbd 8548 a6bf f311 46c0
00000390: 3310 ba3c 8200 9d3f 8c16 be3e b2bb 563f
000003a0: 8053 d8bf 349c 9dbf 751c a9be 69a0 dc3e
000003b0: 86fc b9be db26 0abf 4e7a ecbe a548 7b3f
000003c0: 6051 a5bf ca51 c93e 7656 44bf 8ad3 6dbf
000003d0: 58e6 18c0 1b72 b9bf fd1e 7bbc d48a 733e
000003e0: 5d02 9dbf cbc2 53bf 1190 c83d 6631 c63e
000003f0: 4792 08bf 73ea 94bf fb8a 4dbf 299c 973f

h1_weight f4 [64, 32]
1.0774854 0.6586495 -0.035584163 -1.1027472 -0.65574384 0.8988984 0.04069649 -0.51452
-1.6496216 -1.5284339 -1.6048336 1.2133411 -0.9537201 1.2010378 -0.24547583 0.06452957
1.1342916 -0.0070473165 -0.11773157 -0.41936162 -0.42995483 -0.76950604 1.3536899 0.27942038
-0.8211426 -0.11348893 -0.22955936 -1.2647825 -1.182275 0.836043 0.19334663 -0.20563091
-0.6556788 -0.604103 -0.34358668 -0.5601057 0.42608634 0.8085606 1.039756 0.99895585
0.23547444 -1.160641 -0.3182123 0.090970576 0.67669743 -0.5348269 0.89910895 0.37925678
1.7626458 -1.3169562 1.6211665 1.2236104 0.99557036 0.98335916 0.31151372 -0.63232374
0.035058264 0.019484708 -0.41438514 0.85477686 0.41240424 0.70989895 0.07160536 0.8048868
-0.27234772 -0.20232184 -1.643245 1.0045028 0.9069114 0.024936847 0.73122317 -0.25244656
1.4915758 1.5202212 -1.2248642 -1.4561244 -0.3546179 -0.33773142 -0.2389313 -0.6782087
1.9331719 -0.6739598 2.4500444 1.2095269 -1.7668532 1.1181825 1.4821837 0.59708333
-0.32947308 -1.924752 -0.24952516 -0.82583696 1.9185287 1.3629246 -0.20666924 -0.5253504
0.9849841 -0.22547267 0.11236367 -0.028573291 0.66530436 -0.6867106 -0.937203 -1.880885
0.26385286 -0.83277994 0.078561924 -1.2828904 0.5935756 -0.59494567 0.952185 0.15530904
-0.050676595 0.4283587 -0.78725064 0.09489356 -0.45557192 -1.3879565 -0.9685312 2.0172474
-1.4672823 0.85834754 -0.49585363 -1.461564 0.3180315 -0.5235979 0.3196419 -1.1067793
0.30550194 -1.0305719 1.6617515 -0.29517627 -1.3451506 -1.2922454 -1.0211477 -0.8980818
1.4319736 0.341375 -0.68155015 -0.41429842 -0.7279442 0.019188454 -0.06797684 0.8471049
-0.9550751 0.058526702 1.7322042 2.3487253 1.20519 1.0892761 0.6959676 1.2650584
-0.44326445 -0.59657913 -0.19997719 -1.0784281 -0.96467173 0.36452806 2.0274973 1.1092279
-0.8387493 -1.0226421 -0.7149863 -1.094555 0.9487261 0.44014627 -0.6840543 -1.3138264
-3.642954 3.7800763 -0.445009 -0.9734571 -0.014149022 -1.0019687 -0.6932965 -0.1586994
1.1291307 -6.116052 -1.4951591 0.1469102 2.7875774 0.09724558 -4.153113 0.45889774
-0.62359357 1.9941843 0.17464966 1.7890971 0.75566894 -0.17424583 0.10361645 0.442096
-0.72661954 0.774606 -1.060455 -1.5666065 0.02156524 -0.14522105 0.079245694 0.42858717
-1.3642582 -0.5012901 -0.97654814 1.464586 -1.4370383 -0.78085184 0.0740209 -2.6267948
-0.060645033 -1.0875975 -0.14309108 0.54441875 0.98545194 0.7205082 0.84307885 -1.2959864
0.98956 -0.64161086 -0.20979434 -1.1434025 -0.7917575 -0.08249294 -1.317873 -0.25680166
1.9347373 2.7888424 -0.76227844 1.0894376 0.8917146 0.3289734 -0.7181322 0.53779936
-0.6577054 -0.95460826 -0.27914882 -0.23637556 1.3807888 -1.782327 0.1218586 0.09283104
-0.9561296 -1.784513 -1.2654994 0.16434659 0.93430924 -0.08402605 -0.27874032 -2.000388
-0.32658777 -2.000324 -0.096179165 -0.69599277 -0.30857754 1.0445911 -0.45878896 0.5648316
00000000: 0beb 893f 419d 283f b3c0 11bd d226 8dbf
00000010: d4de 27bf 351e 663f 5db1 263d 95b7 03bf
00000020: cd26 d3bf b9a3 c3bf 306b cdbf c34e 9b3f
00000030: 0027 74bf 9bbb 993f 045e 7bbe 1428 843d
00000040: 7830 913f 2ded e6bb 401d f1bd 91b6 d6be
00000050: 0a23 dcbe 59fe 44bf b645 ad3f 3010 8f3e
00000060: 6736 52bf e26c e8bd 9c11 6bbe 65e4 a1bf
00000070: ca54 97bf ea06 563f a9fc 453e e990 52be
00000080: 91da 27bf 7fa6 1abf 98ea afbe 1663 0fbf
00000090: fd27 da3e d4fd 4e3f b916 853f 92bb 7f3f
000000a0: 3620 713e e28f 94bf b9ec a2be c84e ba3d
000000b0: 0b3c 2d3f 6aea 08bf 012c 663f f22d c23e
000000c0: 619e e13f 0592 a8bf 6282 cf3f 449f 9c3f
000000d0: b3dd 7e3f 6dbd 7b3f ba7e 9f3e f8df 21bf
000000e0: 4199 0f3d 659e 9f3c 4a2a d4be a8d2 5a3f
000000f0: a626 d33e f0bb 353f d5a5 923d 100d 4e3f
00000100: 2971 8bbe 752d 4fbe da55 d2bf 8c93 803f
00000110: 582b 683f 5c48 cc3c 7131 3b3f ad40 81be
00000120: f5eb be3f 9c96 c23f 5ac8 9cbf 4962 babf
00000130: 7a90 b5be 22eb acbe 68aa 74be 169f 2dbf
00000140: 2d72 f73f a188 2cbf 87cd 1c40 c7d1 9a3f
00000150: 3f28 e2bf 9b20 8f3f 32b8 bd3f 74da 183f
00000160: b2b0 a8be 465e f6bf 8683 7fbe 0d6a 53bf
00000170: 5992 f53f 5074 ae3f 1aa1 53be 5d7d 06bf
00000180: eb27 7c3f 4fe2 66be ec1e e63d 8912 eabc
00000190: 6351 2a3f 44cc 2fbf 89ec 6fbf d7c0 f0bf
000001a0: b917 873e 1131 55bf 13e5 a03d c135 a4bf
000001b0: 92f4 173f 5c4e 18bf 65c2 733f 5509 1f3e
000001c0: 4392 4fbd d551 db3e 4289 49bf 8e57 c23d
000001d0: b940 e9be 8fa8 b1bf a9f1 77bf 951a 0140
000001e0: e8cf bbbf aabc 5b3f 87e0 fdbe 8714 bbbf
000001f0: 06d5 a23e 830a 06bf 1aa8 a33e f2aa 8dbf
00000200: c06a 9c3e c8e9 83bf 46b4 d43f 5821 97be
00000210: e52d acbf 4c68 a5bf f8b4 82bf b0e8 65bf
00000220: e94a b73f b4c8 ae3e 127a 2ebf ec1e d4be
00000230: 8d5a 3abf 1b31 9d3c 7137 8bbd dedb 583f
00000240: cd7f 74bf b2b9 6f3d deb8 dd3f 8451 1640
00000250: aa43 9a3f 666d 8b3f ef2a 323f 6fed a13f
00000260: 8ff3 e2be 69b9 18bf d2c6 4cbe ef09 8abf
00000270: baf4 76bf 6ca3 ba3e 84c2 0140 2efb 8d3f
00000280: 46b8 56bf f0e5 82bf 5809 37bf 611a 8cbf
00000290: b7df 723f da5a e13e 2f1e 2fbf 772b a8bf
000002a0: 2926 69c0 c5ec 7140 38d8 e3be 7c34 79bf
000002b0: 4dd1 67bc 8340 80bf e17b 31bf 1882 22be
000002c0: 5b87 903f b3b6 c3c0 6061 bfbf a16f 163e
000002d0: ab67 3240 b128 c73d 4de6 84c0 a5f4 ea3e
000002e0: d4a3 1fbf 6e41 ff3f 5cd7 323e 2201 e53f
000002f0: 8573 413f 806d 32be dd34 d43d 685a e23e
00000300: bd03 3abf 944c 463f fdbc 87bf 9086 c8bf
00000310: 96a9 b03c d4b4 14be 914b a23d c76f db3e
00000320: 03a0 aebf 8c54 00bf 0fff 79bf 8e77 bb3f
00000330: dff0 b7bf e8e5 47bf 4598 973d 681d 28c0
00000340: ed66 78bd 6536 8bbf 7886 12be 075f 0b3f
00000350: 9446 7c3f 3a73 383f 04d4 573f e2e2 a5bf
00000360: ce53 7d3f 9c40 24bf 54d4 56be 035b 92bf
00000370: 9fb0 4abf 0ff2 a8bd 10b0 a8bf 827b 83be
00000380: 79a5 f73f 657c 3240 ae24 43bf b172 8b3f
00000390: 6847 643f 346f a83e 83d7 37bf 38ad 093f
000003a0: 625f 28bf 3561 74bf 98ec 8ebe 6f0c 72be
000003b0: b0bd b03f 4b23 e4bf 0091 f93d 331e be3d
000003c0: e9c4 74bf ec6a e4bf e2fb a1bf 794a 283e
000003d0: e42e 6f3f da15 acbd 0db7 8ebe 5b06 00c0
000003e0: 8336 a7be 4f05 00c0 95f9 c4bd 952c 32bf
000003f0: e0fd 9dbe 29b5 853f 63e6 eabe ce98 103f

h2_weight f4 [36, 1]
0.1407579 -0.07893215 -0.44464993 -0.70458144 1.3422959 0.26002276 -0.60345334 0.7536356
-1.0591542 0.41973156 0.31264862 0.3916353 -0.98645186 -1.2548841 -0.27328688 0.28412142
0.13149866 1.5663269 -1.5117899 -0.871508 -3.6559165 0.39774328 0.80612755 -0.07466785
-1.4143351 2.2395434 0.9687203 1.2800891 -0.35541174 -0.7674132 -0.8847788 -1.2847141
-0.03857449 0.28190288 -0.14893486 -0.2474258
00000000: d722 103e 2ea7 a1bd 28a9 e3be 735f 34bf
00000010: 5ad0 ab3f b421 853e eb7b 1abf 43ee 403f
00000020: 5d92 87bf 0ee7 d63e 7b13 a03e 6c84 c83e
00000030: 1c88 7cbf 0ba0 a0bf 42ec 8bbe 5d78 913e
00000040: 96a7 063e 667d c83f 5582 c1bf 261b 5fbf
00000050: 89fa 69c0 02a5 cb3e 605e 4e3f 75eb 98bd
00000060: ef08 b5bf ae54 0f40 0efe 773f f6d9 a33f
00000070: 87f8 b5be 3175 44bf dd80 62bf 8371 a4bf
00000080: 4900 1ebd 9355 903e 6182 18be 305d 7dbe

last_w f4 [36, 1]
0.1407579 -0.07893215 -0.44464993 -0.70458144 1.3422959 0.26002276 -0.60345334 0.7536356
-1.0591542 0.41973156 0.31264862 0.3916353 -0.98645186 -1.2548841 -0.27328688 0.28412142
0.13149866 1.5663269 -1.5117899 -0.871508 -3.6559165 0.39774328 0.80612755 -0.07466785
-1.4143351 2.2395434 0.9687203 1.2800891 -0.35541174 -0.7674132 -0.8847788 -1.2847141
-0.03857449 0.28190288 -0.14893486 -0.2474258
00000000: d722 103e 2ea7 a1bd 28a9 e3be 735f 34bf
00000010: 5ad0 ab3f b421 853e eb7b 1abf 43ee 403f
00000020: 5d92 87bf 0ee7 d63e 7b13 a03e 6c84 c83e
00000030: 1c88 7cbf 0ba0 a0bf 42ec 8bbe 5d78 913e
00000040: 96a7 063e 667d c83f 5582 c1bf 261b 5fbf
00000050: 89fa 69c0 02a5 cb3e 605e 4e3f 75eb 98bd
00000060: ef08 b5bf ae54 0f40 0efe 773f f6d9 a33f
00000070: 87f8 b5be 3175 44bf dd80 62bf 8371 a4bf
00000080: 4900 1ebd 9355 903e 6182 18be 305d 7dbe

cross_product f4 [64, 1]
-0.23547842 -0.91167575 -2.4102464 1.0221473 -0.27867332 0.60276216 0.78309137 0.452729
0.18541072 -0.9528495 1.3978457 0.39112622 -0.14433 0.65305734 -0.5608915 0.62057763
-0.7644068 0.66085994 0.6214314 0.36319795 0.08756593 0.070516475 0.81810236 1.1513265
0.42576748 0.9679801 1.8410579 2.115165 -0.6329614 0.45288906 1.6319007 -0.555515
-1.0796353 0.5784316 1.3578897 -2.0711868 1.3159606 0.41213098 -0.41967818 -0.43607602
1.2773737 -2.1774423 -0.005919978 -1.9399803 -0.7959068 -1.1057804 0.6078883 0.14035183
-0.5086256 -1.5223324 0.16014148 0.095481895 -0.8330045 0.17789102 -1.2235714 0.033655874
0.78993577 -1.4203054 -0.4761781 -0.75254077 1.1417532 -0.6351513 -0.09900451 0.34796852
00000000: 4121 71be 9563 69bf 7a41 1ac0 b9d5 823f
00000010: 45ae 8ebe 9f4e 1a3f ad78 483f 18cc e73e
00000020: 4fdc 3d3e f2ed 73bf 9cec b23f b241 c83e
00000030: 3ecb 13be c42e 273f 9696 0fbf 2dde 1e3f
00000040: 2ab0 43bf 1e2e 293f 2116 1f3f 15f5 b93e
00000050: c455 b33d f16a 903d 286f 513f ab5e 933f
00000060: 32fe d93e 8bcd 773f c9a7 eb3f dd5e 0740
00000070: c209 22bf 13e1 e73e 1fe2 d03f 3b36 0ebf
00000080: 7d31 8abf 1814 143f 54cf ad3f 538e 04c0
00000090: 6671 a83f d502 d33e 0fe0 d6be 5b45 dfbe
000000a0: fb80 a33f 375b 0bc0 60fc c1bb 4651 f8bf
000000b0: 8cc0 4bbf 368a 8dbf 919e 1b3f 64b8 0f3e
000000c0: 4a35 02bf cadb c2bf 21fc 233e 038c c33d
000000d0: c83f 55bf 1029 363e fd9d 9cbf beda 093d
000000e0: 3b39 4a3f 91cc b5bf 9ecd f3be 83a6 40bf
000000f0: f824 923f 4799 22bf e0c2 cabd ee28 b23e
