MultiDismantler_degree_cost/models/nrange_30_50_iter_30000.ckpt (torch, 76819 bytes, 8 tensors)

w_n2l f4 [2, 64]
2.4059083 -0.20105554 -0.44188258 -0.41971463 -0.040059753 1.3466127 -0.21845135 -0.8354507
0.038182463 1.188184 3.7032652 1.3053522 0.22258711 0.061766144 0.4429962 -0.5028826
2.4102907 -1.0956862 2.250757 0.8506599 1.209118 2.2450547 1.0791861 0.8235085
2.2237594 0.3754187 -1.9609934 0.25497496 0.92007595 -2.5298448 0.42228886 1.4356743
-1.5685807 -1.5891521 -1.020234 1.191657 -0.6595876 -0.19996266 0.18122648 -1.0980011
1.1512406 -0.14193666 -2.038537 0.43646327 0.9133697 0.4987212 0.9351977 1.8108448
-0.008422234 1.8502929 0.9218408 0.61062074 -0.4546222 -0.72628105 -0.30920383 1.1936582
0.27180657 -0.08986604 -0.5210522 -0.7042952 0.2707703 -1.8011302 -1.5596797 2.2176623
0.82341903 1.4636132 0.6890845 -1.3559681 0.2462287 0.55238056 1.7116196 0.12401082
-1.5896946 -0.6960198 0.6741626 -0.37483203 1.6808777 0.6561162 0.6100158 0.11274228
-0.3518578 -0.39332882 -3.0632877 0.7532323 0.21228762 -1.4671438 -0.23275718 -1.3492941
-0.6157023 0.39801118 -0.6518665 -0.255224 2.4375856 0.026569588 2.4960756 1.5748659
-1.4731932 0.2614546 -0.74016124 0.95963585 0.014319336 -0.74317205 2.049865 -0.9410839
-0.51853263 0.18847518 -0.4572705 0.71240383 1.1474308 -0.11072375 -1.688952 -2.3879735
-0.67885655 0.31072208 -2.4064312 0.2428897 -0.022393225 -0.6191755 -0.19013606 -2.028455
-1.1965406 -0.8644001 0.3481335 0.2550747 0.36185738 -1.2598785 -0.3671856 0.14201424
00000000: 67fa 1940 81e1 4dbe 6f3e e2be d6e4 d6be
00000010: b215 24bd ce5d ac3f b6b1 5fbe 19e0 55bf
00000020: 3765 1c3d 6a16 983f 4c02 6d40 c815 a73f
00000030: e0ed 633e 7ffe 7c3d 66d0 e23e eabc 00bf
00000040: 3442 1a40 723f 8cbf 670c 1040 d9c4 593f
00000050: 61c4 9a3f faae 0f40 c522 8a3f 74d1 523f
00000060: 1352 0e40 e136 c03e d501 fbbf 148c 823e
00000070: 198a 6b3f fae8 21c0 3f36 d83e 2dc4 b73f
00000080: 41c7 c8bf 5669 cbbf 0797 82bf 3788 983f
00000090: bcda 28bf 03c3 4cbe 6f93 393e 4d8b 8cbf
000000a0: da5b 933f d857 11be 6477 02c0 1d78 df3e
000000b0: 99d2 693f 6358 ff3e 1e69 6f3f c3c9 e73f
000000c0: 69fd 09bc 66d6 ec3f c2fd 6b3f a451 1c3f
000000d0: 3ec4 e8be 8eed 39bf f74f 9ebe cbc9 983f
000000e0: 3b2a 8b3e b00b b8bd ad63 05bf b14c 34bf
000000f0: 68a2 8a3e 6f8b e6bf 96a3 c7bf 2eee 0d40
00000100: 97cb 523f ad57 bb3f d767 303f 5d90 adbf
00000110: 6023 7c3e d068 0d3f 5a16 db3f 63f9 fd3d
00000120: 1d7b cbbf 5b2e 32bf ec95 2c3f fce9 bfbe
00000130: 0027 d73f 3bf7 273f ff29 1c3f 6de5 e63d
00000140: b526 b4be 6562 c9be e80c 44c0 d5d3 403f
00000150: ed61 593e 5ecb bbbf e657 6ebe abb5 acbf
00000160: aa9e 1dbf 1fc8 cb3e b9e0 26bf b8ac 82be
00000170: 6701 1c40 77a8 d93c b4bf 1f40 3595 c93f
00000180: 9891 bcbf 61dd 853e 357b 3dbf b2aa 753f
00000190: a69b 6a3c 8640 3ebf fd30 0340 e0ea 70bf
000001a0: 8ebe 04bf a3ff 403e 5c1f eabe 1960 363f
000001b0: 03df 923f 22c3 e2bd 942f d8bf 8fd4 18c0
000001c0: 8bc9 2dbf f716 9f3e f802 1ac0 14b8 783e
000001d0: ff71 b7bc 4982 1ebf 07b3 42be 35d2 01c0
000001e0: 3e28 99bf 5349 5dbf 8e3e b23e 2799 823e
000001f0: 5f45 b93e b343 a1bf c0ff bbbe 2e6c 113e

p_node_conv f4 [64, 64]
0.7236906 -1.1991658 -0.13266274 0.5608976 -0.10883535 -0.15525553 -0.32561573 1.6907046
-0.5298574 0.82608473 0.30112714 -0.36609504 -0.8864363 -0.55391526 -1.8681294 -0.59367424
0.9621803 0.077809416 0.2872463 -0.014706024 1.2957672 -0.07041276 -1.887152 0.6171316
0.18548946 0.8483661 0.92429745 -0.36752045 -1.7768642 -1.9765091 0.67624754 0.6495342
0.86109537 -0.24765743 0.31345338 -0.9781382 1.2945163 1.2511288 1.0137273 -0.8837664
0.8997865 -0.18090105 0.23251317 0.23287761 -1.4165918 0.8242136 -0.5122256 0.43009606
-0.12522505 0.70008063 0.3281913 -0.07925285 -1.1106982 -2.7524679 1.0977811 0.6424657
0.2888412 0.63508916 0.3954384 0.50039476 -0.49209505 0.3559223 -0.102056384 -2.0531442
-0.037900444 -1.0531254 -0.36119607 0.95454293 0.81635255 -1.0544263 -0.654923 1.4022214
1.2083414 0.98277617 0.2134435 0.4032208 1.4188726 -2.6286507 -2.9585462 0.7015908
0.828698 1.5631881 0.06547358 -1.418762 0.53951067 0.31657997 1.1205704 -1.0915718
-0.3455905 0.97876257 0.37132072 -0.6500057 -0.01947688 0.4095644 -0.56533974 -0.5031211
1.9827377 0.3319787 1.093526 0.012267032 3.4397664 0.20650768 0.9102656 -0.9029484
0.01145093 -1.952781 2.0108497 -0.59052974 -0.54685533 0.000316585 0.6043814 0.80768305
0.3800413 0.33246177 0.31508985 -1.369033 0.16878568 0.72541857 -0.9724325 -0.633229
0.5357335 -1.5564711 -1.8031576 -0.44749963 -0.13881293 -1.2279847 1.2696362 0.41286227
-0.31335264 -0.8858349 1.0445833 -0.8548025 -0.26184455 1.0091598 -2.853566 -0.009035237
-1.2013571 -0.9477516 -0.5642028 -1.0372678 -1.056512 -1.1071435 -0.46423954 -0.6224214
1.7614077 0.03598196 -0.3966984 0.8658027 -1.0118133 -1.5517368 -0.65040505 -0.96227556
0.5085307 -0.9322458 -0.10452445 0.14847766 0.9796133 0.7351765 -0.3484438 1.8279785
-1.0856079 -0.69504595 -0.6605481 1.2376202 -0.52987915 -1.29691 1.2448477 -0.89218354
0.51969206 0.7430086 -0.9582644 1.0972779 0.92818254 0.20390014 0.40942422 -0.17780425
0.54574037 0.5372017 0.5836751 0.32624874 0.7732201 0.75424325 -0.7630244 0.35563326
0.4967093 -0.6214975 1.3815303 0.5927974 0.2403869 -2.0672083 0.8397996 0.29398125
-0.092939444 -0.27990428 -1.0651103 0.41666493 0.040306587 0.78362024 -2.0604663 0.5609463
1.1722851 1.6454686 -0.1456583 -1.5103304 -0.9333069 0.16756664 -0.31505314 0.12629752
0.20741184 -0.85397595 0.2713625 0.86455953 -0.7511407 0.6385873 0.05044324 0.64906913
-0.8466282 -2.361361 0.49321836 -0.15046555 0.27855733 -0.53214467 1.1904558 0.7936674
-0.31351066 -0.5270576 0.92905146 -0.7718247 1.0683447 -0.38792092 1.7216824 0.16479717
2.6060956 -1.7552965 0.92318237 -0.52748936 -1.1079485 0.5283092 0.29352978 -0.7919053
-0.78739923 -0.7736504 -1.0396218 -0.25342587 -1.0783019 -0.7318386 -0.66858333 0.73723936
-1.2339095 -0.00069196516 -0.2707357 -0.986242 -0.30463713 -0.42310882 1.6886622 -0.08508139
00000000: ca43 393f 447e 99bf bed8 07be fc96 0f3f
00000010: 11e5 debd 4efb 1ebe 1bb7 a6be 0269 d83f
00000020: bca4 07bf 4a7a 533f 562d 9a3e cf70 bbbe
00000030: 7ded 62bf 64cd 0dbf dd1e efbf 09fb 17bf
00000040: 7351 763f 8b5a 9f3d f211 933e 89f1 70bc
00000050: b3db a53f 9134 90bd 328e f1bf 56fc 1d3f
00000060: f3f0 3d3e 852e 593f c29e 6c3f a42b bcbe
00000070: 4970 e3bf 40fe fcbf 8f1e 2d3f e047 263f
00000080: bf70 5c3f e999 7dbe f67c a03e 4467 7abf
00000090: b6b2 a53f fd24 a03f d1c1 813f 843e 62bf
000000a0: 6858 663f 203e 39be ef17 6e3e 7877 6e3e
000000b0: e152 b5bf aaff 523f 3821 03bf 8d35 dc3e
000000c0: ff3a 00be 7c38 333f b108 a83e 514f a2bd
000000d0: 5c2b 8ebf 6f28 30c0 1784 8c3f a278 243f
000000e0: fee2 933e 3495 223f e776 ca3e df19 003f
000000f0: e2f3 fbbe 733b b63e f002 d1bd b766 03c0
00000100: 7f3d 1bbd d0cc 86bf b1ee b8be ed5c 743f
00000110: 7bfc 503f 71f7 86bf 09a9 27bf fe7b b33f
00000120: eeaa 9a3f 3897 7b3f ef90 5a3e f572 ce3e
00000130: 9e9d b53f d03b 28c0 d258 3dc0 749b 333f
00000140: 8d25 543f 8c16 c83f 0317 863d fe99 b5bf
00000150: 5f1d 0a3f c516 a23e da6e 8f3f a0b8 8bbf
00000160: 3df1 b0be 2f90 7a3f c01d be3e c666 26bf
00000170: fa8d 9fbc 6db2 d13e 1bba 10bf 8bcc 00bf
00000180: 59ca fd3f 1df9 a93e a9f8 8b3f a9fb 483c
00000190: 2225 5c40 c076 533e 2b07 693f a027 67bf
000001a0: ae9c 3b3c baf4 f9bf c3b1 0040 f52c 17bf
000001b0: b6fe 0bbf 52fb a539 bdb8 1a3f 51c4 4e3f
000001c0: c694 c23e 6e38 aa3e 7553 a13e 793c afbf
000001d0: 27d6 2c3e 08b5 393f 56f1 78bf 4c1b 22bf
000001e0: d525 093f 723a c7bf decd e6bf ac1e e5be
000001f0: fa24 0ebe 9a2e 9dbf 7083 a23f af62 d33e
00000200: c26f a0be 13c6 62bf e8b4 853f 56d4 5abf
00000210: 7d10 86be 262c 813f d3a0 36c0 8808 14bc
00000220: 12c6 99bf d99f 72bf 986f 10bf 31c5 84bf
00000230: c93b 87bf e1b6 8dbf ceb0 edbe 0257 1fbf
00000240: cf75 e13f d261 133d 0d1c cbbe 3fa5 5d3f
00000250: 1983 81bf 509f c6bf f280 26bf b157 76bf
00000260: 112f 023f a9a7 6ebf ea10 d6bd 870a 183e
00000270: f0c7 7a3f 8734 3c3f 3a67 b2be 33fb e93f
00000280: 33f5 8abf 88ee 31bf ae19 29bf 576a 9e3f
00000290: 29a6 07bf 2601 a6bf 2b57 9f3f 2466 64bf
000002a0: 8a0a 053f d035 3e3f d150 75bf 9a73 8c3f
000002b0: 5f9d 6d3f 33cb 503e 0da0 d13e 5112 36be
000002c0: a4b5 0b3f 0d86 093f bb6b 153f 130a a73e
000002d0: c1f1 453f 1616 413f 9155 43bf 9015 b63e
000002e0: ae50 fe3e 761a 1fbf fcd5 b03f 92c1 173f
000002f0: fc27 763e 244d 04c0 1bfd 563f b684 963e
00000300: 0957 bebd 9d4f 8fbe 8955 88bf 1b55 d53e
00000310: 8518 253d 569b 483f aede 03c0 2d9a 0f3f
00000320: 700d 963f b79e d23f 7327 15be 8252 c1bf
00000330: 33ed 6ebf 9796 2b3e a54e a1be 2354 013e
00000340: c563 543e 2b9e 5abf 07f0 8a3e c653 5d3f
00000350: c24a 40bf 757a 233f 929d 4e3d 6529 263f
00000360: a0bc 58bf 8a20 17c0 1e87 fc3e a413 1abe
00000370: 119f 8e3e a23a 08bf db60 983f c92d 4b3f
00000380: 7884 a0be 3fed 06bf 51d6 6d3f 4e96 45bf
00000390: 85bf 883f 929d c6be 1760 dc3f 97c0 283e
000003a0: 45ca 2640 8ead e0bf ae55 6c3f 8b09 07bf
000003b0: 42d1 8dbf 463f 073f 8949 963e 4eba 4abf
000003c0: ff92 49bf f40d 46bf 5412 85bf 09c1 81be
000003d0: cc05 8abf c659 3bbf 4728 2bbf b8bb 3c3f
000003e0: bff0 9dbf ff64 35ba df9d 8abe 5b7a 7cbf
000003f0: 66f9 9bbe b8a1 d8be 1526 d83f 273f aebd

p_node_conv2 f4 [64, 64]
0.31532645 -0.15503757 -0.8249883 1.1529714 -0.8572822 -1.0006207 1.0015488 0.6025607
1.2246385 -0.926276 -0.26627222 0.27211565 -1.8967025 -0.067918226 -1.5871987 -1.6612134
-0.3345491 -2.0672112 1.1796572 0.79121655 0.36651316 0.50695187 0.9853411 -0.10782385
1.339974 -0.41348916 0.5304175 -0.6134751 -1.2936867 0.8326295 0.4179249 1.6579196
1.72094 -0.16999514 1.2151774 -0.04263112 -1.2335933 0.21629591 -2.0630438 0.67354655
1.1650352 0.9043892 -0.3911431 0.48678023 -1.3030114 0.3700522 0.7126789 -1.13853
-1.7441489 0.12408993 0.5933294 -0.82743526 0.5201599 0.5060232 1.0186837 0.91485435
-1.0027877 -0.78643566 -0.60979927 1.387488 0.6574281 0.9009847 -2.0665984 -0.13003734
-0.5096248 -0.29959878 -0.7159827 -0.025316667 -0.21039882 1.0015683 -0.24351439 0.5062374
-0.9208578 1.069243 0.6285913 -0.45921135 0.6302217 0.524822 0.55801016 1.2590537
0.88010156 0.84863245 0.6439123 0.7997044 -0.10914321 1.8342526 -1.3329216 0.7518667
0.43324628 -0.036004886 1.3223288 -1.1371545 -0.28342435 0.47982845 -0.7523511 -1.9353659
-0.3289162 0.74214137 1.3613096 -0.5720725 0.016242282 -0.11464204 -0.3707571 0.020000413
-1.2707815 0.5052359 0.7011093 -0.09784195 -0.68605244 -0.96473837 2.1895258 0.15197815
1.1685213 0.5032691 1.3877633 -1.0157335 1.4887239 2.0125008 0.7811849 1.5370837
-0.5783606 0.73664564 -1.9495451 -0.9984057 -0.032187033 -0.8936197 0.5555871 -0.8564011
-0.9986807 0.81452775 -0.26657674 0.562949 1.1156466 -1.6627811 1.7785826 0.7429789
-1.1075201 1.0356923 0.9873742 1.1353068 0.072928846 -1.6045573 0.27503103 0.63667184
0.9533232 -0.34551314 1.3047934 -0.031749424 -1.6167289 0.23627113 0.53005236 0.77539486
1.0403786 -0.3076073 0.21370685 0.25903967 -1.2378359 -0.49384695 0.1428623 -0.13615365
0.5668143 -0.29569745 -0.98652786 0.7835785 0.39594328 0.2844004 0.2953881 -0.25596413
0.40002468 -1.3527894 -0.94460624 -0.19579047 -1.0523989 0.3874471 0.61252886 0.39202052
-0.8536294 0.2076005 1.4701937 0.46038455 -1.9065276 -1.0587188 0.36820948 -1.378633
0.88865024 0.57210964 -1.0374298 0.52127105 -0.77856106 0.9416202 0.76206744 0.8362363
-0.16473044 0.9822134 -0.17354035 0.180058 -0.48990515 -0.338137 -1.2188888 2.2721193
0.039007112 0.23307307 -0.32813635 -1.0246418 1.3463498 -0.8584336 -1.1923648 -1.9683774
-0.888192 -0.66326493 -1.2207409 -0.10075018 1.1471037 -0.039148197 -0.69204503 -2.1911592
1.1623939 2.131884 1.0821131 0.380098 1.4265356 0.13392106 0.54808813 -0.16466966
-1.5237266 1.741492 0.6145668 0.018638147 -0.16772924 1.4275291 -0.09844844 0.8145895
-1.1277176 1.4609895 -0.6935852 -1.155379 0.21923088 0.58912265 0.6386051 -1.8644321
0.71230227 1.5031615 -0.70211506 0.34423354 0.11314585 2.4086957 -0.14941266 0.7204027
-0.49337903 -0.9870897 -1.0243981 -0.8753964 0.6902149 0.48624897 0.7670826 0.59882253
00000000: 7872 a13e 2bc2 1ebe 6f32 53bf 9194 933f
00000010: d976 5bbf 5714 80bf c032 803f 6b41 1a3f
00000020: f4c0 9c3f 6d20 6dbf d554 88be be52 8b3e
00000030: 26c7 f2bf b618 8bbd 5429 cbbf a4a2 d4bf
00000040: 054a abbe 304d 04c0 02ff 963f 2b8d 4a3f
00000050: 9da7 bb3e 99c7 013f 503f 7c3f c0d2 dcbd
00000060: 4584 ab3f dab4 d3be 71c9 073f b40c 1dbf
00000070: 8797 a5bf 3527 553f 41fa d53e b636 d43f
00000080: c347 dc3f 3513 2ebe ef8a 9b3f f89d 2ebd
00000090: 63e6 9dbf ad7c 5d3e e908 04c0 8c6d 2c3f
000000a0: e01f 953f 0d86 673f e943 c8be 423b f93e
000000b0: 14c9 a6bf 7b77 bd3e 2072 363f 5abb 91bf
000000c0: 4540 dfbf dc22 fe3d 70e4 173f ccd2 53bf
000000d0: 3329 053f bd8a 013f 3a64 823f e533 6a3f
000000e0: 595b 80bf d953 49bf ce1b 1cbf 3599 b13f
000000f0: 354d 283f efa6 663f 2643 04c0 8228 05be
00000100: c576 02bf 0365 99be a44a 37bf e664 cfbc
00000110: ca72 57be 6433 803f d65b 79be c698 013f
00000120: 56bd 6bbf f4dc 883f 5ceb 203f c01d ebbe
00000130: 3656 213f bc5a 063f c1d9 0e3f ac28 a13f
00000140: 564e 613f fa3f 593f 70d7 243f 6db9 4c3f
00000150: 7a86 dfbd cac8 ea3f 2d9d aabf 567a 403f
00000160: 75d2 dd3e dc79 13bd 1242 a93f 478e 91bf
00000170: ff1c 91be 13ac f53e 159a 40bf 12ba f7bf
00000180: b467 a8be fafc 3d3f 653f ae3f 5873 12bf
00000190: 890e 853c 72c9 eabd e0d3 bdbe e8d7 a33c
000001a0: f8a8 a2bf 2457 013f e67b 333f 5c61 c8bd
000001b0: 22a1 2fbf 18f9 76bf 3121 0c40 29a0 1b3e
000001c0: 1b92 953f 3ed6 003f 3aa2 b13f 8e03 82bf
000001d0: 818e be3f d0cc 0040 bcfb 473f 29bf c43f
000001e0: 710f 14bf cf94 3c3f b28a f9bf 8497 7fbf
000001f0: 8dd6 03bd 43c4 64bf f53a 0e3f 1a3d 5bbf
00000200: 8aa9 7fbf e484 503f bf7c 88be 6d1d 103f
00000210: 82cd 8e3f 03d6 d4bf 98a8 e33f dd33 3e3f
00000220: 38c3 8dbf 9191 843f 8ec4 7c3f bc51 913f
00000230: b85b 953d 2262 cdbf ded0 8c3e edfc 223f
00000240: fd0c 743f 19e7 b0be 7803 a73f af0b 02bd
00000250: f9f0 cebf 0ff1 713e 83b1 073f 4780 463f
00000260: 202b 853f b47e 9dbe f8d5 5a3e d9a0 843e
00000270: 6871 9ebf 82d9 fcbe 7f4a 123e dd6b 0bbe
00000280: be1a 113f a865 97be 178d 7cbf 9a98 483f
00000290: 14b9 ca3e ee9c 913e 1c3d 973e bb0d 83be
000002a0: 09d0 cc3e 3428 adbf b7d1 71bf 4c7d 48be
000002b0: 02b5 86bf 775f c63e b1ce 1c3f eab6 c83e
000002c0: 7587 5abf 3a95 543e 4f2f bc3f 86b7 eb3e
000002d0: 1909 f4bf 1984 87bf f485 bc3e 0c77 b0bf
000002e0: 957e 633f c775 123f 80ca 84bf 0572 053f
000002f0: c74f 47bf 050e 713f da16 433f 9513 563f
00000300: 19af 28be 5672 7b3f 90b4 31be 2061 383e
00000310: d9d4 fabe 4b20 adbe 8c04 9cbf 676a 1140
00000320: ecc5 1f3d b5aa 6e3e 7d01 a8be 7627 83bf
00000330: 3155 ac3f 4ec2 5bbf 699f 98bf caf3 fbbf
00000340: 8d60 63bf bbcb 29bf 3d41 9cbf 1c56 cebd
00000350: 4bd4 923f dc59 20bd dd29 31bf f43b 0cc0
00000360: 53c9 943f ca70 0840 af82 8a3f 349c c23e
00000370: b898 b63f 9a22 093e 814f 0c3f 2a9f 28be
00000380: 7909 c3bf 36e9 de3f 4054 1d3f 07af 983c
00000390: 37c1 2bbe 46b9 b63f 569f c9bd f088 503f
000003a0: 0d59 90bf b401 bb3f cd8e 31bf 76e3 93bf
000003b0: 0f7e 603e bed0 163f a07b 233f b6a5 eebf
000003c0: 7159 363f 9967 c03f d0bd 33bf 613f b03e
000003d0: 03b9 e73d 1228 1a40 a2ff 18be 506c 383f
000003e0: 2d9c fcbe e9b1 7cbf 7a1f 83bf fa19 60bf
000003f0: ecb1 303f a0f5 f83e 865f 443f 6f4c 193f

p_node_conv3 f4 [128, 64]
1.515009 -0.3154599 -1.9584968 0.10213995 -0.94914204 1.5229692 1.2281543 -1.3222522
0.6060847 0.52805835 -1.7273701 0.8617651 0.64704776 -0.9210728 -0.615745 -2.0661201
-0.01131047 0.2946886 -0.3699091 -2.7627547 -0.8131212 -1.6956849 0.11304802 -2.0738418
-1.075937 -0.66213834 -0.028099502 -0.7846356 -0.73618877 1.0078042 -0.25914323 0.6457151
0.7821857 -0.39011997 -0.62290555 0.61953944 -0.43806353 0.58988446 0.7743643 1.2522546
-0.045401953 -0.068171255 1.3818262 1.0757219 0.15527284 -0.41308397 -0.90209615 0.66662925
1.1916941 -0.3056991 0.5002073 -0.20909838 1.0454322 -0.04353385 -0.6840152 -0.03054795
1.7908876 1.1900908 -1.6065688 1.1411179 -0.65291256 -1.489045 -0.31984833 -0.15421523
0.9841005 -0.7548177 -1.1454118 -2.1340644 -0.2608342 0.9665321 -0.3698624 -0.96061975
1.308138 0.2906146 1.5999433 0.009134341 -2.1181216 -0.9042783 1.4279488 -1.0384004
-1.2438964 -0.7577517 -0.49122342 -0.36926362 0.14344525 -0.08180438 1.4368495 -0.7890876
-0.31563497 -0.29850087 0.48136833 0.3303241 -0.5832748 -0.7287275 -0.7453943 -0.20412514
0.3945983 1.0714074 -0.23981614 2.3013878 0.8730949 0.92523146 0.96882963 1.4046167
-0.055813134 0.75421214 -1.7632372 -1.2872924 -0.7062418 -1.6268506 -0.6933283 0.5675989
-1.6910138 2.5221596 1.3321306 0.32357648 -0.5323166 -0.1553026 1.1644299 0.9372553
1.2396694 1.7938637 -0.42758265 -0.79042953 -0.11611371 0.38790098 -0.62494946 0.65218776
-1.3106124 1.4232455 -0.36641392 1.4985827 0.8216088 1.834332 -1.1327202 0.8942104
-0.23750599 -0.7100917 -0.7762501 0.9259117 1.4279692 -0.057209924 -1.2517573 -0.9672897
-0.054327406 -0.41566274 0.3098306 0.16645381 -0.3112008 0.49213967 1.5979317 -0.5769079
1.1575503 -1.4985954 -1.9290462 0.4423125 1.721898 -1.1658406 0.291605 -1.0270218
2.137973 -0.5172402 -0.57750976 -0.4321401 -1.895554 -0.6691844 1.1581514 1.0263257
1.2116888 -0.02739731 0.00042312173 1.4757671 -0.9657654 -0.529591 1.1492906 0.11867747
-1.9808744 -0.54749554 -1.9497435 -0.5742783 1.293268 -0.48014438 0.792119 -1.1054448
0.3084882 0.90005416 0.564815 -1.1512876 -0.7448127 1.2973857 0.3136878 0.93139905
-0.45749924 -1.325228 -0.47647792 -0.09665118 0.44664606 0.063289106 -0.30602968 0.049548484
-0.589836 -0.40473467 0.54961187 -0.53780085 0.55301976 1.0542344 0.18456462 -0.32254735
-0.08017934 0.16229632 -0.42953694 0.7129572 -0.58977616 -0.4081759 0.53960085 -0.20930615
0.49676067 0.27224192 -0.89268655 -0.20703685 -1.1779937 1.6410884 -0.13618957 -0.4936758
-0.96637636 0.58240616 0.39460158 1.6644664 -0.38945282 0.19151749 0.12492532 -0.33571193
-1.3535769 0.79362917 -1.5261236 -1.2244287 1.8751613 -1.0600283 -0.6985132 -0.07882943
-0.17930296 -1.8561096 0.8201666 1.5458387 0.116199866 -1.3516574 -0.55072725 0.7748174
1.0540597 -1.6517969 -1.1819302 0.5941949 0.49160588 -0.667904 -0.06678983 -0.46624976
00000000: d1eb c13f f683 a1be 06b0 fabf c02e d13d
00000010: f9fa 72bf a8f0 c23f 2934 9d3f 8f3f a9bf
00000020: 5e28 1b3f d52e 073f 771a ddbf a39c 5c3f
00000030: eca4 253f 6dcb 6bbf 77a1 1dbf 503b 04c0
00000040: 8d4f 39bc 6de1 963e ba64 bdbe f9d0 30c0
00000050: b628 50bf 340c d9bf b885 e73d d3b9 04c0
00000060: 4eb8 89bf e681 29bf ed30 e6bc e1dd 48bf
00000070: de76 3cbf baff 803f 6cae 84be 964d 253f
00000080: 523d 483f cebd c7be bd76 1fbf 239a 1e3f
00000090: dd49 e0be ab02 173f bd3c 463f e149 a03f
000000a0: 66f7 39bd 5f9d 8bbd aedf b03f 41b1 893f
000000b0: d8ff 1e3e be7f d3be c6ef 66bf 37a8 2a3f
000000c0: 6f89 983f 9884 9cbe 960d 003f e31d 56be
000000d0: b9d0 853f 8d50 32bd 9f1b 2fbf b23f fabc
000000e0: ce3b e53f e554 983f 0ca4 cdbf 2710 923f
000000f0: 4725 27bf 0799 bebf 29c3 a3be 99ea 1dbe
00000100: 03ee 7b3f bc3b 41bf db9c 92bf 8394 08c0
00000110: 0f8c 85be a66e 773f 9b5e bdbe 2deb 75bf
00000120: 1171 a73f 70cb 943e f1ca cc3f 34a8 153c
00000130: 4e8f 07c0 c87e 67bf 07c7 b63f 4eea 84bf
00000140: ff37 9fbf 04fc 41bf a381 fbbe 1f10 bdbe
00000150: 50e3 123e 0e89 a7bd afea b73f a501 4abf
00000160: e89a a1be 1bd5 98be e975 f63e 3e20 a93e
00000170: 7f51 15bf e38d 3abf 29d2 3ebf 2e06 51be
00000180: ca08 ca3e e123 893f 5d92 75be f049 1340
00000190: 2683 5f3f f8db 6c3f 3805 783f 7bca b33f
000001a0: 509c 64bd 0c14 413f c2b1 e1bf ffc5 a4bf
000001b0: 43cc 34bf a43c d0bf f77d 31bf 294e 113f
000001c0: 2473 d8bf 106b 2140 4183 aa3f d1ab a53e
000001d0: e745 08bf a507 1fbe 0a0c 953f f7ef 6f3f
000001e0: 7dad 9e3f 539d e53f 1dec dabe 9759 4abf
000001f0: 06cd edbd f59a c63e b0fc 1fbf c7f5 263f
00000200: 26c2 a7bf e92c b63f 9b9a bbbe 8fd1 bf3f
00000210: f454 523f 64cb ea3f fafc 90bf f9ea 643f
00000220: c534 73be 92c8 35bf 54b8 46bf 8d08 6d3f
00000230: b2c7 b63f f454 6abd 9539 a0bf 4ca0 77bf
00000240: 6a86 5ebd bfd1 d4be 1ea2 9e3e de72 2a3e
00000250: b655 9fbe bbf9 fb3e 0789 cc3f 3cb0 13bf
00000260: 9c2a 943f f9d1 bfbf fcea f6bf c976 e23e
00000270: 2767 dc3f 443a 95bf 404d 953e 7375 83bf
00000280: 8dd4 0840 db69 04bf aed7 13bf 7841 ddbe
00000290: 83a1 f2bf ab4f 2bbf 4e3e 943f a45e 833f
000002a0: 9e18 9b3f 5370 e0bc 70d6 dd39 f0e5 bc3f
000002b0: 673c 77bf 4793 07bf f41b 933f 2c0d f33d
000002c0: 4b8d fdbf ab28 0cbf 3291 f9bf e703 13bf
000002d0: ce89 a53f 7cd5 f5be 50c8 4a3f 377f 8dbf
000002e0: 2af2 9d3e f369 663f b797 103f 645d 93bf
000002f0: 0cac 3ebf bc10 a63f b09b a03e 2b70 6e3f
00000300: 573d eabe 12a1 a9bf eaf4 f3be 0ef1 c5bd
00000310: cbae e43e b89d 813d ecaf 9cbe 5af3 4a3d
00000320: 7eff 16bf 6239 cfbe 5db3 0c3f 51ad 09bf
00000330: b492 0d3f 27f1 863f 82fe 3c3e ed24 a5be
00000340: 1135 a4bd 0231 263e 44ec dbbe 5d84 363f
00000350: 92fb 16bf 6efc d0be 4823 0a3f 5a54 56be
00000360: 6a57 fe3e 4b63 8b3e 1b87 64bf 7801 54be
00000370: 7fc8 96bf 2f0f d23f 4775 0bbe 13c3 fcbe
00000380: 7164 77bf 9218 153f 3809 ca3e 3c0d d53f
00000390: 5c66 c7be 291d 443e d9d8 ff3d 6fe2 abbe
000003a0: 0242 adbf 482b 4b3f 0558 c3bf 14ba 9cbf
000003b0: 4905 f03f 02af 87bf c3d1 32bf 5371 a1bd
000003c0: 329b 37be 0095 edbf 70f6 513f 0bde c53f
000003d0: 32fa ed3d 1c03 adbf 76fc 0cbf 6f5a 463f
000003e0: 6eeb 863f 156e d3bf 7d49 97bf 281d 183f
000003f0: c4b3 fb3e c2fb 2abf 1bc9 88bd 4ab8 eebe

h1_weight f4 [64, 32]
0.0070176465 1.7360984 -1.3322144 -1.1699969 1.5086797 0.11616474 -0.03366167 1.1700605
-0.39449507 0.9859402 -0.68930036 -1.4811165 -0.16045424 -1.9891623 -0.52078366 0.024606131
-0.64594513 -0.51307166 0.8496586 1.218369 0.035999697 -1.0762584 -0.95497316 0.16050388
-1.1111146 -0.0128257815 -0.03306822 -0.052482422 -1.9614276 -0.27352712 -2.3021064 -0.6110839
-0.7119597 0.45009804 -0.33702165 0.67137915 -0.47890756 -0.1411387 -1.0372802 0.6150299
0.20014435 0.13637397 -0.5045122 -1.1830733 0.41248864 1.211702 1.8798674 -0.9894044
1.5084257 -1.1452721 -0.69621944 -1.6875521 1.4549264 -0.3365285 -0.09282161 -1.1369562
0.70061845 0.37400255 -1.4600042 0.90361524 -1.848826 -0.25905323 0.4332628 1.1620593
1.2704625 -0.81120896 -0.8270437 -0.949556 -0.41906828 -0.41588193 1.1183399 0.43986893
-0.8415603 0.074178986 1.1798104 0.59848434 -0.4431762 1.0535682 -2.0548303 0.35077035
0.59160805 -2.1696641 0.44025275 -0.10869684 -0.11127396 -0.6504828 1.9520371 -0.8891181
-1.3190717 0.29626423 -0.7028529 -1.7627736 0.80299485 -0.6779062 0.51714176 -1.5020723
-0.92081755 -1.1778754 -0.016980987 0.3717668 -0.40150282 0.031359814 1.4225109 0.21058187
-0.4091368 -2.1123552 -1.4821889 0.09898378 -0.50870275 0.8738818 -0.14084662 -0.6287995
-0.89489114 -0.3883012 -0.3799668 1.2668296 0.892055 0.1525721 -1.5331062 -0.7699174
0.6342052 -0.3185889 0.38657898 3.3806674 1.9921619 -0.031259514 0.47581506 0.06579805
-0.23561369 -0.95863605 -0.4770796 0.18640417 -0.6967039 0.534573 0.53240806 0.82186186
-1.6387813 -1.9038212 0.14869834 1.4478037 -0.23826432 0.3468633 1.6330985 -0.079601064
-0.62549376 -1.8380018 -0.39084536 0.6490553 -1.0683278 -0.07769968 -1.5092442 -1.1747729
0.21832174 0.9127038 2.8660676 0.47025147 -0.3899988 0.22865956 -2.0130877 1.3909382
-0.5646806 -1.0720294 -1.1980547 0.8832123 -0.25700623 -0.77749395 1.2678638 0.0968912
0.22991414 -0.5884703 1.7306961 0.3139972 0.32227266 -0.37585965 -0.76462567 -0.04373503
-0.19324696 -0.00994397 -0.21503785 0.8879568 1.4021722 -1.8718926 0.41753116 -0.20028873
1.5199285 1.187247 0.33245376 0.028489579 -0.87103206 0.16348329 0.2074538 0.49996048
-0.11239202 0.5704717 -0.2603133 2.0217168 -0.354055 1.9054149 -1.614249 0.24238336
-1.4957482 -0.15643547 -1.0525664 -0.47431436 0.69669765 -0.4157167 0.01677228 0.056266773
0.9940637 -1.5678362 0.28472576 -1.1328076 1.6409799 -1.0078177 0.81091154 -0.62706006
-1.1029023 -0.72735804 0.19351661 -0.010668423 -1.3335941 1.5251949 2.5414076 0.34477445
-2.1706848 -0.5697117 1.0864763 -0.19061625 -0.24396203 -0.5467552 -1.8185261 -1.4625722
-1.592721 -1.0523216 -0.81436324 1.8801848 1.3809472 0.28307974 0.17890705 0.5052594
0.6072794 1.7449837 -0.3576793 0.39188364 -0.09010438 -0.419743 0.52880585 0.18507807
-0.053747714 0.54168266 0.13736586 0.18331611 -1.3784392 -0.9397896 0.4700677 1.0750239
00000000: 49f4 e53b 7938 de3f 0086 aabf 75c2 95bf
00000010: 6b1c c13f c7e7 ed3d d2e0 09bd 8bc4 953f
00000020: 42fb c9be 9466 7c3f fd75 30bf 3a95 bdbf
00000030: 1e4e 24be df9c febf 1452 05bf cc92 c93c
00000040: a95c 25bf aa58 03bf 3a83 593f 84f3 9b3f
00000050: 6b74 133d d6c2 89bf 1f79 74bf 215b 243e
00000060: 0139 8ebf 3a23 52bc 8b72 07bd cff7 56bd
00000070: 0f10 fbbf bf0b 8cbe b655 13c0 ff6f 1cbf
00000080: fe42 36bf 4073 e63e 1a8e acbe 81df 2b3f
00000090: 5f33 f5be aa86 10be 99c5 84bf 9972 1d3f
000000a0: a4f2 4c3e 9ea5 0b3e b627 01bf f26e 97bf
000000b0: b631 d33e 0d19 9b3f 7f9f f03f 9b49 7dbf
000000c0: 1814 c13f 4798 92bf 703b 32bf b501 d8bf
000000d0: 073b ba3f 774d acbe 4219 bebd c887 91bf
000000e0: bb5b 333f 437d bf3e 6be1 babf 5453 673f
000000f0: 55a6 ecbf a0a2 84be 9fd4 dd3e 5cbe 943f
00000100: 849e a23f 64ab 4fbf 23b9 53bf 1a16 73bf
00000110: 1e90 d6be 7aee d4be c325 8f3f 8036 e13e
00000120: 7f70 57bf 27eb 973d 0704 973f 4536 193f
00000130: fee7 e2be 53db 863f 5782 03c0 2c98 b33e
00000140: a073 173f c7db 0ac0 cf68 e13e 739c debd
00000150: 9ae3 e3bd 0a86 26bf 5adc f93f 3e9d 63bf
00000160: 57d7 a8bf f2af 973e 2bee 33bf 91a2 e1bf
00000170: 1291 4d3f 438b 2dbf 6763 043f e843 c0bf
00000180: b3ba 6bbf 9fc4 96bf b61b 8bbc 3858 be3e
00000190: c791 cdbe 2673 003d d614 b63f c6a2 573e
000001a0: 617a d1be d430 07c0 5eb8 bdbf 02b8 ca3d
000001b0: 583a 02bf b8b6 5f3f 193a 10be 01f9 20bf
000001c0: 9617 65bf 6acf c6be 028b c2be 7927 a23f
000001d0: b75d 643f dc3b 1c3e d33c c4bf 4f19 45bf
000001e0: 465b 223f 161e a3be aeed c53e db5c 5840
000001f0: 29ff fe3f fa09 00bd 089e f33e 21c1 863d
00000200: b744 71be 2c69 75bf c743 f4be bce0 3e3e
00000210: 305b 32bf c7d9 083f e54b 083f 8a65 523f
00000220: 96c3 d1bf 6ab0 f3bf 6144 183e a251 b93f
00000230: 90fb 73be 1198 b13e 5f09 d13f e205 a3bd
00000240: 5c20 20bf a543 ebbf e21c c8be 7d28 263f
00000250: f7be 88bf 0321 9fbd ea2e c1bf f55e 96bf
00000260: bc8f 5f3e f5a6 693f a76d 3740 cdc4 f03e
00000270: ecad c7be bb25 6a3e 6ed6 00c0 430a b23f
00000280: e88e 10bf 4238 89bf db59 99bf 341a 623f
00000290: 5296 83be d809 47bf 5c49 a23f e56e c63d
000002a0: 9d6e 6b3e fda5 16bf 7387 dd3f 3ec4 a03e
000002b0: ec00 a53e ad70 c0be 82be 43bf 8123 33bd
000002c0: 88e2 45be 08ec 22bc e232 5cbe 2351 633f
000002d0: 617a b33f 2d9a efbf a5c6 d53e 7d18 4dbe
000002e0: 048d c23f b6f7 973f 6137 aa3e fa62 e93c
000002f0: f5fb 5ebf 2a68 273e c56e 543e d2fa ff3e
00000300: ca2d e6bd 6f0a 123f c947 85be cf63 0140
00000310: b246 b5be a3e4 f33f b69f cebf 5833 783e
00000320: ad74 bfbf 9f30 20be 7fba 86bf 55d9 f2be
00000330: c75a 323f d2d8 d4be 0566 893c fd77 663d
00000340: f57a 7e3f dbae c8bf 93c7 913e d7ff 90bf
00000350: a10b d23f 2c00 81bf e697 4f3f 0287 20bf
00000360: e72b 8dbf 2334 3abf 3829 463e 9cca 2ebc
00000370: 36b3 aabf 9639 c33f 6ca6 2240 4786 b03e
00000380: 80ec 0ac0 a0d8 11bf a811 8b3f e830 43be
00000390: 2fd1 79be 26f8 0bbf 77c5 e8bf 9135 bbbf
000003a0: 48de cbbf 79b2 86bf 1c7a 50bf e5a9 f03f
000003b0: e1c2 b03f d4ef 903e 6933 373e ae58 013f
000003c0: aa76 1b3f a05b df3f be21 b7be f9a4 c83e
000003d0: a588 b8bd 8ee8 d6be d25f 073f 1b85 3d3e
000003e0: 9026 5cbd b7ab 0a3f a3a9 0c3e 38b7 3b3e
000003f0: b270 b0bf 0d96 70bf b7ac f03e 629a 893f

h2_weight f4 [36, 1]
1.6820353 0.60474956 -0.41783044 -0.29906937 -0.1205493 0.16879097 1.230403 0.79535997
-0.2841986 -2.2817476 -1.1316782 -0.9279993 0.045843784 -0.52923983 1.0230579 0.59686315
-0.81620884 -0.1497139 1.2048868 -0.2600651 0.39998698 0.28187633 -1.2876312 -1.5015736
0.88855606 0.8047492 0.9250963 0.023384383 -0.32861137 -0.8146576 -0.69193083 -0.4994101
0.64134854 -0.44287956 -0.0928075 -1.8069587
00000000: ef4c d73f ded0 1a3f dfed d5be 9f1f 99be
00000010: 8de2 f6bd 8ad7 2c3e d87d 9d3f b69c 4b3f
00000020: 7b82 91be 2708 12c0 d5da 90bf 5d91 6dbf
00000030: b1c6 3b3d 437c 07bf 90f3 823f 06cc 183f
00000040: 10f3 50bf 9a4e 19be bb39 9a3f 4127 85be
00000050: 18cb cc3e 1852 903e 19d1 a4bf 9033 c0bf
00000060: 6978 633f 0b04 4e3f 1cd3 6c3f 9b90 bf3c
00000070: c03f a8be 678d 50bf 6122 31bf aeb2 ffbe
00000080: 6b2f 243f 1cc1 e2be dc11 bebd 6c4a e7bf

last_w f4 [36, 1]
1.6820353 0.60474956 -0.41783044 -0.29906937 -0.1205493 0.16879097 1.230403 0.79535997
-0.2841986 -2.2817476 -1.1316782 -0.9279993 0.045843784 -0.52923983 1.0230579 0.59686315
-0.81620884 -0.1497139 1.2048868 -0.2600651 0.39998698 0.28187633 -1.2876312 -1.5015736
0.88855606 0.8047492 0.9250963 0.023384383 -0.32861137 -0.8146576 -0.69193083 -0.4994101
0.64134854 -0.44287956 -0.0928075 -1.8069587
00000000: ef4c d73f ded0 1a3f dfed d5be 9f1f 99be
00000010: 8de2 f6bd 8ad7 2c3e d87d 9d3f b69c 4b3f
00000020: 7b82 91be 2708 12c0 d5da 90bf 5d91 6dbf
00000030: b1c6 3b3d 437c 07bf 90f3 823f 06cc 183f
00000040: 10f3 50bf 9a4e 19be bb39 9a3f 4127 85be
00000050: 18cb cc3e 1852 903e 19d1 a4bf 9033 c0bf
00000060: 6978 633f 0b04 4e3f 1cd3 6c3f 9b90 bf3c
00000070: c03f a8be 678d 50bf 6122 31bf aeb2 ffbe
00000080: 6b2f 243f 1cc1 e2be dc11 bebd 6c4a e7bf

cross_product f4 [64, 1]
-1.1257341 -0.43600366 -0.387731 -1.8687905 -0.41157097 -0.52671844 -0.5954756 0.7288752
-2.1127381 2.422882 -1.1480064 -0.12118754 0.3474894 0.30339238 0.62996876 0.27435124
1.157919 2.407466 0.6318708 0.8906571 0.14064555 0.56407577 -0.0076761204 0.702661
0.29688752 -1.2852008 0.23822059 1.0623577 0.4238744 -1.1197175 -1.6612108 -1.7626909
0.51094025 0.9418727 0.4322263 0.113463216 1.260328 1.5533617 0.4434041 0.11706739
-0.023729764 0.08091746 1.6427438 -0.70989126 1.1549503 -2.2645535 0.59510124 0.0073120142
-0.7739543 -0.04508287 -0.1974575 -0.45444542 2.4276936 -0.6664984 -1.2430519 -0.33121976
-0.9512811 -0.774603 -0.72552353 -0.8287539 -1.1623317 2.7927983 0.05421802 0.05524365
00000000: 0e18 90bf df3b dfbe ad84 c6be 8734 efbf
00000010: 6eb9 d2be 05d7 06bf 1771 18bf 9197 3a3f
00000020: 1a37 07c0 8010 1b40 e0f1 92bf 2c31 f8bd
00000030: 21ea b13e 3f56 9b3e a245 213f c477 8c3e
00000040: b136 943f ec13 1a40 49c2 213f 1b02 643f
00000050: 6305 103e 4567 103f f787 fbbb 97e1 333f
00000060: a401 983e 7681 a4bf 19f0 733e 56fb 873f
00000070: 1106 d93e e752 8fbf 8ea2 d4bf db9f e1bf
00000080: fbcc 023f 921e 713f c44c dd3e 675f e83d
00000090: 6e52 a13f 8ed4 c63f dd05 e33e 07c1 ef3d
000000a0: ec64 c2bc 0eb8 a53d 6e45 d23f 6fbb 35bf
000000b0: 69d5 933f 72ee 10c0 8e58 183f 9f99 ef3b
000000c0: de21 46bf d1a8 38bd 4d32 4abe 12ad e8be
000000d0: 555f 1b40 a49f 2abf 531c 9fbf a395 a9be
000000e0: 2887 73bf 624c 46bf e9bb 39bf 3729 54bf
000000f0: 49c7 94bf 35bd 3240 b713 5e3d 2a47 623d
