MultiDismantler_degree_cost/models/nrange_30_50_iter_100000.ckpt (torch, 128830 bytes, 13 tensors)

w_n2l f4 [2, 64]
00000000: 5cf5 633f ad8b 913f a1b8 a73f ff83 babf
00000010: becf 1e3f 7a79 03bf 4fcd ab3e 0e09 b63f
00000020: 11b6 26bf d6ac f5be 42d6 ffbe d092 88bf
00000030: d0f3 9d3f 2c0c 10be 546d 493f b3c6 ab3e
00000040: ad1b 293f e226 7bbf 8cf1 053c 0b9b 643f
00000050: 07e2 cdbe c926 833f 94ae b23e ca85 58bb
00000060: 70e3 9a3e 31db f0bf 2849 9dbd dcc1 85bf
00000070: 0a10 75bf 5813 37bd 33de 383f 60ea d4bf
00000080: 041a aebf a791 a73e 0a0a 013f e76b 22bf
00000090: 1326 d9bf 0be9 aabe 6d51 913e 0602 963d
000000a0: ddcf 61b8 0af4 9d3e 5cbf ef3e 7f06 e53e
000000b0: fa88 5dbf b768 4b3f 1242 6dbf 5442 4a3e
000000c0: e0c0 debe 5554 95bd 5535 0bbd f167 6e3f
000000d0: 90e2 aa3e 4311 6dbf e7ba 1ebd 0f3f 25bf
000000e0: fe6c edbe fe8d fa3f a8b9 f8be 5951 0d3e
000000f0: f2fe 893f 3562 6c3f dbeb a43f a240 ae3f
00000100: f5dd b5be 8915 56bf 3d84 103f 6785 1a3f
00000110: 379c ed3e a93f f53f 9d13 88bf 6bb6 8b3f
00000120: 334a 373d c80f 18bf 0a39 9fbf f115 d1bd
00000130: 9324 73bf 3212 a0be af7b 8d3e d9cb c73e
00000140: 3bd0 053e 5520 903d 3914 953f 54f6 983e
00000150: d5a6 ce3e 624a 08be e919 3cbd 6351 54bf
00000160: 13ac 45bf 843e f3bf 54e7 ff3d 9c4c 34bf
00000170: adcd 983e d245 2a3e 573b ac3e b063 073f
00000180: 99b7 7dbf 8b03 953e 9315 0dbe 196e 853f
00000190: 8b57 ffbe f9b5 423f fd15 213f ec48 99be
000001a0: 15f8 593e 1f04 3abe 9612 b93e e193 b8be
000001b0: 1b13 8abf 61f6 8e3e 93b7 b2bf 456e ec3d
000001c0: 517a b7be 41e1 c7bf ce93 b5be 4375 8c3f
000001d0: 0910 083e 9d2e cc3f 9328 433f ab29 7a3f
000001e0: 8c8d 38bf c32a bf3f 01b6 6f3e d6e8 2c3f
000001f0: 8019 8abf 143d 98bf 2ef9 a4bf 4eba a83f
0.89046264 1.1370751 1.3103219 -1.4571532 0.6203574 -0.51357234 0.33555076 1.4221513
-0.6512156 -0.47983426 -0.49968153 -1.0669804 1.2340031 -0.14067143 0.78682446 0.33550033
0.66057855 -0.98106205 0.008175265 0.89299077 -0.40211508 1.0246211 0.34898818 -0.003303873
0.30251646 -1.8816892 -0.07679969 -1.0449786 -0.957276 -0.044696182 0.7221405 -1.6634026
-1.3601689 0.3272831 0.50405943 -0.63445896 -1.6964744 -0.33380923 0.28382435 0.07324605
-5.3837768e-05 0.3085025 0.46825683 0.4473152 -0.86537135 0.7945666 -0.9267894 0.19751865
-0.43506527 -0.07291476 -0.03398641 0.9312735 0.33375978 -0.92604464 -0.038752463 -0.64549345
-0.46372217 1.9574583 -0.48579144 0.13800563 1.0780928 0.9233735 1.2884477 1.3613474
-0.35520902 -0.8362661 0.5645178 0.60359806 0.46408245 1.9160053 -1.0630985 1.0915045
0.044748496 -0.5939908 -1.2439282 -0.10209263 -0.9497768 -0.31263882 0.27633426 0.3902271
0.13067715 0.07037417 1.1646796 0.29875433 0.40361658 -0.13309625 -0.045923147 -0.82936686
-0.7721569 -1.9003453 0.12495294 -0.70429397 0.29844418 0.16628197 0.33639023 0.52886486
-0.9910827 0.29104266 -0.13777761 1.0424224 -0.49871477 0.7605892 0.62924176 -0.29938447
0.21286042 -0.18165635 0.36146992 -0.36050323 -1.078708 0.27922347 -1.3962272 0.1154447
-0.35835508 -1.5615617 -0.3546433 1.0973285 0.13287367 1.5951725 0.76233786 0.9771983
-0.72090983 1.4934925 0.23409273 0.6754278 -1.0789032 -1.189364 -1.2888544 1.3181856

p_node_conv f4 [64, 64]
00000000: 5dec 053f fd23 c53e bf65 c93e 60a7 273e
00000010: 1291 5c3f 4d4e 96be 5f4d 823f a79f 04bf
00000020: 0909 8cbf b8a3 c23e 0e9a 153f 37dc 2b3f
00000030: c689 97bf c30d 1d3f 875f 17bf e13d 8ebf
00000040: 4e99 c83d 9e7d 753f 2fe6 5c3f a277 a3bf
00000050: 879f 793f 15c1 f8be 1894 a4bf 5d9a e13e
00000060: 421f a03f b3ba 2fbf 3072 103f e40c 9e3e
00000070: 90a9 e3bd 39b1 86bf 1648 03be 0710 4e3e
00000080: 7e0d cc3f 214d 4e3e 4006 b83e 9a4d 13be
00000090: a198 333f 6411 8ebe eacd acbf e9bf 29bf
000000a0: dd4d febe 11b7 0abf db64 633f a991 64bf
000000b0: ac9a 4d3f 4b67 953f c584 dfbf 3266 8abf
000000c0: 820d e4bf 75fd 9c3d 9e0d 89bf 0d7d b83f
000000d0: 4709 e0bd 5d29 153f 3890 27be 5615 a53f
000000e0: 0d9a 823f e930 663f c43a e8be b3fd 5ebf
000000f0: 1154 173e 43f9 f43f 7bcd d53e 8e55 cc3c
00000100: 7519 4fbf ae88 05bf c87e d0be b0ef 213f
00000110: 0b58 93bf 55a4 1fbe c701 56be 2a33 bd3f
00000120: 5250 b33f b926 153f d09a fbbe c6d1 b2be
00000130: fb36 a2bf aa70 da3f c754 6e3d b737 823e
00000140: 342b 3c3f f4b1 083f fb71 933e 81ce 9abd
00000150: bbd9 013f 012f 06bf ec07 59bf 085b 68bf
00000160: 622e 913f 0d2b c13e c66e 52be 1e23 92bf
00000170: 711d c5be a55e 7b3f d169 96bf c20b 4b3f
00000180: b7fe 533f 996b 44be 94ff 3abf cdb5 99bd
00000190: fb0b 6fbf 6e56 973d 340c f6be 95d8 cbbf
000001a0: 22be 5a3f 1907 2abf 3271 a63f 22f9 ba3f
000001b0: 48a4 2cbf ff8b 823f 847b d0be 1544 8cbf
000001c0: b7f8 7ebe 2910 00bf 24ce 4d3f 0e87 e93d
000001d0: 4111 88bf 88a8 dfbd 70b0 84bf 8fbc b1bf
000001e0: 9a29 f03e dbe5 9ebf f1f0 aabf 42c8 c43f
000001f0: c8f5 83bb fb64 d0be a3a6 70be 4389 dfbe
00000200: ecda 2abd d0b3 b63e 2d12 873f 65e8 f33f
00000210: 2c5c 823f 96f0 7d3f 4c5a d1be 0382 983f
00000220: bba9 a13f 4f30 733e 469b 043f 6c93 06bc
00000230: 43c4 4ebe b7a2 bb3f cbd2 9bbf 9cb0 92bf
00000240: 6057 f63f 86a4 97bd 0cd3 983e 3052 d33e
00000250: 76e5 31bf 9212 77bf fccb aa3f daac 0abf
00000260: ddc6 adbf 47be abbe 7956 b6bd 5edf 703f
00000270: 5842 33bf c62e fb3f f0dc 8abf d4c3 d23e
00000280: ef62 c63f 4b53 913f 9da5 993f 33ec b43d
00000290: 6397 d43f ede5 f03e 8c1a a33f 68b3 a23e
000002a0: 962a 7a3d 25d1 3d3f f0f7 76bf c6bd 63bf
000002b0: 57d4 a8be 36c4 b2be 90c3 d73e e35b f13e
000002c0: ad8a 593f 95e2 d33e 55b8 bb3f 6e3c f33e
000002d0: 36b0 06bf 5ca2 23bd 4107 2e3f aa31 8cbf
000002e0: 0cb3 05bf 13d3 ebbe 4ef3 a0bf 79cf 2ebe
000002f0: 5e0c 103f d1cb 4fbe e885 4ebe a6d7 edbf
00000300: 64c4 4c3f 0047 9f3f bfe9 733f ebe1 0c3f
00000310: e4af c6bf 5e4a 9d3e 4a18 3a3f ca02 943e
00000320: d58c d53d ed9f 8c3f 705a c5bf 087d 31bf
00000330: e90e 193f 294b a03f 78d1 31bf 380c 26bf
00000340: c50b 843e ad07 1e3e d2cf 58be ef20 ad3f
00000350: ebff 01bf 4d58 d63f 927a 82bf daae 11bf
00000360: 4862 9ebf 410e 3d3f 0364 9a3f 3191 2abf
00000370: 295f cbbd 076f 673e 2c35 e53f 5a56 273f
00000380: b7c6 7d3f 2018 87bf 8119 e03f dccc 8dbe
00000390: 4fe3 4ebe a9df 403f 43e2 28bf 7dc1 ba3f
000003a0: 283f 9e3e 8517 283f 8634 ef3f 8fa6 9a3f
000003b0: 3304 28bf 170b 7b3f 5a62 bebf f8a2 3cbf
000003c0: 05e7 9a3f 87ca f7be 02f2 e83e 791f ac3f
000003d0: 8ef7 df3e b41d 01bf c28d 31be 4b29 45bd
000003e0: 2361 d23d 0da4 b53e 8ddd 3ebf 01fa 523e
000003f0: b426 84be 09d5 c73f 977c 52be 95b0 7bbd
0.52313787 0.3850402 0.3933544 0.16372442 0.8615886 -0.29356614 1.0179862 -0.5180611
-1.0940257 0.38015532 0.58438194 0.67132896 -1.183892 0.61349124 -0.5913014 -1.1112634
0.097948655 0.958948 0.8628873 -1.2770884 0.97509044 -0.4858481 -1.2857695 0.44063082
1.2509539 -0.68644255 0.56424236 0.3086921 -0.11116326 -1.0522834 -0.12820467 0.20123301
1.5941617 0.2014661 0.35942268 -0.14385071 0.7015477 -0.27747643 -1.350034 -0.66308457
-0.4966878 -0.5418559 0.8882577 -0.8928476 0.80314136 1.1672148 -1.7462393 -1.0812438
-1.7816622 0.076655306 -1.0707281 1.4413162 -0.109392695 0.5826624 -0.16363609 1.2897136
1.0203263 0.8991838 -0.45357335 -0.87105864 0.14778163 1.9138569 0.41758332 0.02494314
-0.8089822 -0.5216168 -0.40721726 0.6325636 -1.1511244 -0.15590031 -0.20899116 1.4781239
1.4008887 0.5826221 -0.4914155 -0.3492567 -1.2673029 1.7065632 0.05818632 0.25433132
0.7350342 0.53396535 0.28797898 -0.07558919 0.50722855 -0.5241547 -0.8477771 -0.907639
1.134228 0.37728158 -0.20550069 -1.1416967 -0.38499025 0.9819129 -1.1751043 0.79314816
0.8281054 -0.1918167 -0.7304623 -0.07505379 -0.93377656 0.07389532 -0.48056185 -1.592547
0.8544637 -0.6641708 1.3003294 1.4607279 -0.67438173 1.0198973 -0.40719235 -1.0958277
-0.24899565 -0.5002466 0.8039267 0.11402713 -1.0630265 -0.10920817 -1.0366344 -1.3885669
0.4690674 -1.2413896 -1.335478 1.5373614 -0.004027102 -0.40702042 -0.23501067 -0.4365941
-0.041712686 0.3568406 1.0552422 1.9055296 1.0184379 0.9919523 -0.40889204 1.1914676
1.2629923 0.23748897 0.5179943 -0.008213859 -0.20192055 1.4659032 -1.2173704 -1.1460147
1.9245415 -0.07404427 0.29848516 0.41273642 -0.69490755 -0.9651271 1.3343501 -0.5417
-1.3576313 -0.33543608 -0.08903212 0.9409083 -0.7002311 1.9623649 -1.0848675 0.4116503
1.5498942 1.1353544 1.2003666 0.08834114 1.66087 0.4705042 1.2742476 0.317775
0.06107577 0.74147254 -0.9647207 -0.88961446 -0.32974502 -0.34915322 0.4214139 0.47140417
0.8497723 0.41383806 1.4665629 0.47507042 -0.52612627 -0.03994976 0.6797982 -1.0952656
-0.5222633 -0.46059474 -1.2574251 -0.17071332 0.5626887 -0.20292594 -0.20168269 -1.8581436
0.7998717 1.2443542 0.95278543 0.55032223 -1.5522428 0.307208 0.7269331 0.28908378
0.10427252 1.0986305 -1.5418224 -0.6933141 0.59788376 1.2522937 -0.6946025 -0.64862394
0.2579023 0.15432616 -0.21173027 1.3525676 -0.50781125 1.6745697 -1.0193655 -0.5690743
-1.2373743 0.73849875 1.2061771 -0.66627795 -0.0993026 0.22600947 1.7906852 0.6536614
0.9913134 -1.0554237 1.7507783 -0.27695358 -0.20203899 0.7534128 -0.6597025 1.4590298
0.3090756 0.6566089 1.8687904 1.208208 -0.6563141 0.98063797 -1.4873765 -0.7368617
1.2101752 -0.48396704 0.45497137 1.3447105 0.43743557 -0.5043595 -0.17339233 -0.048135083
0.102724336 0.35476723 -0.7455681 0.20603181 -0.25810778 1.5611888 -0.2055534 -0.0614477

p_node_conv2 f4 [64, 64]
00000000: fe49 8c3f 390e b4be cc97 5cbf 5a00 89bf
00000010: 407c 803f 12d4 40bf 43cf b8bf 6c24 6cbe
00000020: 90d4 6ebf 92e9 e1bf 92e7 bebe 5325 1cbf
00000030: c261 403f b204 863f 4977 743e f55f 30be
00000040: 0ea7 31bf 3e04 00be 8bbd 90be ed4e efbf
00000050: 4c3c 9dbd 51d2 4d3f 4186 d53f 3144 02bf
00000060: aff4 28bd 6fd0 aabf e487 52bf c171 3dbf
00000070: 3a42 babe ea13 803f be8e 82bf 09bc f83b
00000080: a296 933f b20f a83e 1c7b 2e3f 8cb2 623f
00000090: 3a26 29bf 025f dc3f e5bb 4a3e 0e89 773f
000000a0: 7d4d b93f 3d70 aabf 4d20 6cbf 0f27 a13f
000000b0: ebaf 073f b321 1abf ea83 d1be 5c13 643f
000000c0: 559c 613f c3b7 543e c582 c63e 67bc aebf
000000d0: 7e00 7cbf 0268 abbe d5f0 0abf d601 febc
000000e0: e9ef cd3f 1ba4 87bf bb9d 043e aa3b 9b3d
000000f0: 3c56 a83f fe48 ddbf 93ec 9ebe 089f 0b3f
00000100: df48 1d3f 5b71 8f3e 227a 82bf e903 053f
00000110: 91cb 74bf ff15 81be e03e c0be 19a1 2fbf
00000120: f183 9d3f 93eb 83bf 4c09 51bf 4d0f b7be
00000130: 24bd 4f3f 620f 423e 1681 a9be a41e 4a3f
00000140: e58d 2d3f 3edc 193d f238 03c0 8f80 1abf
00000150: 6a43 e5ba edd2 ef3d a845 e43e ee5d 12bf
00000160: 75ff 30bf a8c2 38be f174 053f 801e dbbe
00000170: 9301 b6bd 7d0d 74bf 69e7 0b3e 882f 28bf
00000180: 8efa 34be 7e28 063f f525 3cbf 816e 793d
00000190: 1f31 793e 9998 373f 6194 633e c5ad 333f
000001a0: 7c32 2cbe 98c8 8abe 9144 c53e 105f 893f
000001b0: 161b 0d3e 69f8 603f 7e20 a53f f6d4 213f
000001c0: ea63 143f 162f 893e 407c 9abf d44e 0d3e
000001d0: 83ae b53e 6db9 023f 73bf 2ebf ac2f 653f
000001e0: 0243 ec3e f207 f2bf c262 353f 76d8 a33f
000001f0: dcbf c13e dd3b 373f 5a1e 14bf a03c 5bbf
00000200: d107 083e e2dc b93e 89fd b63e f843 183f
00000210: 58a2 e1be c62a 383f d18b 923e fbe9 a5bc
00000220: 688d b43e 3da3 623f 9bd2 1dbf fcce 213f
00000230: d941 b9be f9c7 33bf a0f1 913c 6747 debf
00000240: 47c8 34bd 4ddc c9bf b0ea 8ebf d79c 87be
00000250: c991 57bf aa8d b03f c93e d1bf ccf0 81be
00000260: c0de 7fbf a9a9 61bf 22ae 423e a628 68bf
00000270: 21b0 50bf e045 3a3e f7f3 71bf 0541 c83f
00000280: 7ee9 0abe 0a34 b83f ada9 cc3e a1f6 23bf
00000290: db2c f4bd d791 e2be a43c e1bf d988 9cbf
000002a0: aa63 31bf 1fe5 143f c078 aabf 20ef 95bf
000002b0: eacb 3abf 16ca c9bf 501b f73f 1354 743e
000002c0: 4d99 a0be 9734 9f3f c783 113f 691f bbbf
000002d0: dbe8 c0bf 56c5 9abf b512 933e d949 afbf
000002e0: 117d d93f 5c8d c8bf 33d0 813d e165 c1bf
000002f0: b830 043e 7580 a8be 5b24 c6be f1d4 11be
00000300: 90ee 0a3f 8323 d43e b2a1 3ebf e89f 3b3f
00000310: b220 893f f8ef 5bbf d33c f9be 0691 9e3e
00000320: f343 3c3d 35d7 fbbe b167 943e 9278 6cbf
00000330: b2cc 87bf 8b7c 5cbe 6cc6 2abf 966b c13f
00000340: a6d4 f73f 0a21 e83f 59e0 dabe 455b e0bd
00000350: 889b 57bf 1a1f 863f 3306 c53f 7383 00c0
00000360: 90fb 013f 521a 56be 1471 6ebf 73fb c8bf
00000370: f287 3abf 7805 f1bf cf90 adbe f580 193f
00000380: bc74 b5be e75f d33e f865 ac3e 03f1 543e
00000390: bac0 403f 24af db3d 3000 7dbf 2bfa 8a3f
000003a0: d93c 843e 3235 31bf 634d 6dbf 2594 38bf
000003b0: 9d11 c8bf 40e8 df3f 7226 54bf 0f7e ec3e
000003c0: 0bb6 32bf 5d50 76bd 4067 163d 5e90 cbbd
000003d0: 48ec 1f3f dc14 a0bf 95ef 4b3f a62f 8c3f
000003e0: b85d d23f 6907 3c3d 6990 1bbc eddc c53d
000003f0: a86c db3f 6109 c8bd 5cd1 3cbf 2718 313f
1.0960081 -0.351671 -0.86169124 -1.0703232 1.0037918 -0.75323594 -1.4438251 -0.23060769
-0.93293095 -1.7649405 -0.3728605 -0.6099445 0.75149167 1.0470183 0.23873629 -0.17224105
-0.6939553 -0.12501618 -0.2826961 -1.8695961 -0.07677516 0.8039904 1.6681596 -0.508853
-0.041248973 -1.3344859 -0.822386 -0.740017 -0.36378652 1.0006077 -1.0199811 0.007590775
1.1530344 0.32824475 0.681566 0.8855369 -0.66073954 1.7216494 0.19798239 0.96693504
1.4476773 -1.3315502 -0.9223679 1.2590045 0.53002805 -0.6020767 -0.40920955 0.8909204
0.8812917 0.20773225 0.38771644 -1.3651246 -0.9843825 -0.3347779 -0.5427373 -0.031006735
1.608884 -1.0596956 0.12950794 0.075797394 1.3151317 -1.72879 -0.31039867 0.5453954
0.6143932 0.2801617 -1.0193522 0.5195909 -0.9562312 -0.25212094 -0.3754797 -0.6860519
1.230589 -1.0306267 -0.8165481 -0.3575386 0.8114798 0.1895118 -0.33106297 0.78953004
0.6779464 0.037563555 -2.0503507 -0.60352415 -0.0017491404 0.11710153 0.44584394 -0.57174575
-0.69139796 -0.18043005 0.52131563 -0.42796707 -0.08887019 -0.9533308 0.13662495 -0.65697527
-0.17673704 0.52405536 -0.7349542 0.0608964 0.24335144 0.7171722 0.22224571 0.70187026
-0.16816133 -0.27106166 0.38528875 1.0732136 0.13779864 0.87879044 1.2900541 0.6321558
0.57964957 0.26793736 -1.2069168 0.13799602 0.35484704 0.5106419 -0.6826088 0.89525867
0.46144873 -1.8908675 0.7085382 1.2800434 0.3784169 0.7157572 -0.5785881 -0.8563938
0.13284232 0.36301333 0.35740307 0.5947871 -0.4406917 0.7194027 0.28622296 -0.020253172
0.35264134 0.8853033 -0.61649483 0.6320646 -0.3618305 -0.7022701 0.017815411 -1.736554
-0.04413631 -1.5770355 -1.1165371 -0.26486847 -0.84206825 1.3793232 -1.6347286 -0.25379026
-0.99949265 -0.88149506 0.19011739 -0.90687025 -0.8151875 0.18190718 -0.94512886 1.5644842
-0.13565633 1.4390881 0.39973202 -0.640482 -0.11922618 -0.44251892 -1.7596631 -1.2229263
-0.692927 0.5816211 -1.33181 -1.17136 -0.729674 -1.5764797 1.930521 0.23860197
-0.3136696 1.2437924 0.568417 -1.4618961 -1.5071062 -1.2091472 0.2872521 -1.3694412
1.6991292 -1.566814 0.06338539 -1.5109216 0.1290921 -0.32910505 -0.38699612 -0.14241387
0.5427027 0.41433343 -0.7446548 0.7329087 1.0713103 -0.8591304 -0.48679218 0.3097002
0.04596324 -0.49187627 0.2898536 -0.92371476 -1.0609343 -0.21531884 -0.6670902 1.5110958
1.936177 1.8135083 -0.4274929 -0.10954908 -0.84221697 1.0478241 1.5392517 -2.008023
0.5077448 -0.20908478 -0.93141294 -1.5701736 -0.72863686 -1.8829794 -0.33899543 0.599624
-0.35440624 0.41284105 0.33671546 0.20795064 0.7529408 0.10726765 -0.9882841 1.0857595
0.25827673 -0.69221795 -0.9269621 -0.7210105 -1.5630375 1.7492752 -0.8287116 0.46189925
-0.69809026 -0.060135234 0.03671956 -0.09939645 0.6246991 -1.2506366 0.7966245 1.0952041
1.6434851 0.045905504 -0.009494879 0.09661279 1.7142534 -0.09767414 -0.7375696 0.6917748

p_node_conv3 f4 [128, 64]
00000000: d068 8b3f 767c d33e c741 8bbf 2a6e 313f
00000010: 0b1a 3ebf f39d 9abf 4e30 dabe b65f d83e
00000020: dfaf abbe ec03 47bf 5f92 3f3e 1ef3 b9bf
00000030: 8909 523f 3a28 7e3f 5359 b4bf 5a07 ee3e
00000040: ca0e 783f db31 cb3e f8a0 84bf 3ef2 e1be
00000050: 6815 bd3e 3496 743f dc35 8c3f 8f5c ac3f
00000060: f3e4 d83d 0a72 fd3e dbbf 753e 332f 32bf
00000070: 70cc 57bf f833 7bbe 3416 e33f bbe4 81be
00000080: eaf7 3f3f 61a8 e3be 84ae b13e 77c1 6c3e
00000090: cd60 03bf b86f 0abf 34b0 63bc 95c3 4e3f
000000a0: 7d98 dfbf 02d3 ee3d 7a36 853e 2e71 f23e
000000b0: cbeb 8dbf fc49 5cbf ab10 273e 8754 0a3f
000000c0: c104 ba3f 3233 17bf ac4c c6bd 47ed e43e
000000d0: 62e2 b43f 7ab0 833f 1d8b eabe 8fb9 a13d
000000e0: d8a6 0e3f 23a3 023f d471 a53e 06e3 6a3e
000000f0: d7d7 34bf 650b 563e 0020 9f3f d5ba 17be
00000100: 8a5d fb3c 8a0a 67be 5c24 fcbf d2de 213f
00000110: 65b4 81be 3c01 aabd c58f 4dbf 9fc4 cbbe
00000120: da3a b2bf 15e5 6c3f 2230 823f 6300 77bf
00000130: 728c 583e de51 87be b3d8 153e c6bc 8a3f
00000140: 33f2 03be 92f3 b7bf 18f5 d8be c2df 02bf
00000150: eee7 7d3d a851 13bf e803 fdbd 3694 153f
00000160: beb0 273f 3e26 34bf 7249 0b3f 9da5 95bf
00000170: 4d32 bebf fe85 99bf 5968 8d3f b95e 543f
00000180: 97f8 e9be 09fd 833f 96f5 5a3f 1568 f7bf
00000190: b5bd d23f 89bf afbd 8d92 9f3f 1577 263f
000001a0: 4e13 563f acbf 88bf a5a8 6c3f 0571 853e
000001b0: 504c 7c3f 8007 27bf 3c62 c8bf 9b94 8ebe
000001c0: d664 53bf 14fe 04bf 45d1 cbbf cbd8 e3bd
000001d0: 272d 643f 31dc ce3e 1348 f4bf 882c 5b3e
000001e0: 0e15 c8be caac e6bd 43ee 3ebf d095 183f
000001f0: aef2 fcbd 57e6 4b3e c987 553f 3f9c 863f
00000200: 6b5e 08be 36f0 80bf 9e56 593f ee69 503f
00000210: bcc4 b1bf 8118 f43f 9d2e 8b3f a978 6dbe
00000220: 4adf 173f c93f aebf ef6c e8bf c637 b5bf
00000230: eca6 26bb 8a6f 123d c76e af3f dd7f 65bf
00000240: 1b08 313c eb9a d33e 9f39 74bf 1991 d03e
00000250: d542 f33e 077b f03f e7f4 413e 1c92 d03f
00000260: 8d36 9bbe 0bec 97bf 9e35 bfbf 9343 a7be
00000270: 0f37 ef3d b4cd a63c 2fa6 cebf cea0 d3bc
00000280: ad66 e13d 7dc2 02bf 4c27 423f 2017 c3bf
00000290: 76f6 b3be ce83 cf3f 5478 4c3f b18a 5c3d
000002a0: e0ae 6bbf 1988 943c 1030 3fbf b414 1ebf
000002b0: 5fe8 893f 0dba 4ebe 261e debd 8fc7 f13e
000002c0: ebd3 1b3d ff01 923f 21b4 efbe c4ac 9cbe
000002d0: 7d16 a03c 7e83 5bbe 7ae1 083c 408c f03c
000002e0: 3c6a cbbf 1e45 57bf a978 babe c503 a13f
000002f0: 5b43 b1be 5142 98bf f2d7 c1be b43e 883f
00000300: 06fe e13f c0e2 3f3f bb1a f3bd d5ad 8f3e
00000310: e093 163f b11a 2c3f 326c f43d 57c1 323d
00000320: e1aa 84bf 7938 923d 1611 8b3e ddeb b3bf
00000330: 420e cd3e 1cb1 953f 3b32 623f e4d3 eabe
00000340: 08e9 b8bd 2a05 1d3f 98a6 45bf 66ec 233f
00000350: 00d6 b3bf 590f 9abf 9bc0 8d3f bdb1 6cbe
00000360: 7a6f 4cbf fd2e 48bf 67f8 0fbf c7e3 c5bf
00000370: d023 fc3f 8ade 3b3e 6da6 173f fa80 8abf
00000380: b2fd 3a3f b759 85bf 508d c03d e227 9e3f
00000390: 346d b03f f98d 77be 7a5b cb3e 66d9 8f3f
000003a0: 78e0 15be 062c 84bd c356 9fbd e13c c1bb
000003b0: 4e44 2abf a26a e2bf 354a 6fbf 9cce adbe
000003c0: ea86 83bf a084 febd 1df8 36bf d753 d3be
000003d0: 0226 ca3f 90cf a8be fcb1 4e3e 96aa 64bf
000003e0: 9c78 a1be 20b8 d3be 058d b03e d940 3dbf
000003f0: e871 2abe e7ca ff3e e466 56bf 78a1 3ebf
1.0891361 0.41305894 -1.0879449 0.6930872 -0.7425849 -1.2079452 -0.4261498 0.42260522
-0.33532616 -0.7774036 0.1870818 -1.4527318 0.820458 0.9928013 -1.408976 0.46489984
0.96897566 0.39686474 -1.0361624 -0.4413013 0.36930394 0.9554169 1.0953937 1.3465747
0.105905436 0.49501067 0.23998968 -0.6960327 -0.8429632 -0.24531543 1.7741151 -0.2536982
0.7498766 -0.444644 0.34703457 0.23120676 -0.5131958 -0.5407672 -0.013896991 0.80767184
-1.7468411 0.1166134 0.26018125 0.47351974 -1.1087583 -0.8605039 0.16314952 0.5403523
1.4532701 -0.5906249 -0.09682593 0.44712278 1.4131587 1.0288231 -0.4580926 0.078967206
0.55723333 0.51030177 0.32313406 0.22938165 -0.70641845 0.20902784 1.2431641 -0.14817365
0.030684251 -0.22562614 -1.9698596 0.6323062 -0.25332943 -0.08301017 -0.802975 -0.39798447
-1.392421 0.9253705 1.0170939 -0.96484965 0.21147326 -0.26429647 0.14633445 1.0838859
-0.1288536 -1.4371207 -0.42374492 -0.5112268 0.061988764 -0.5754647 -0.12354261 0.58429277
0.6550406 -0.7037085 0.54408944 -1.1691166 -1.48591 -1.1994016 1.1047469 0.82957035
-0.45697471 1.0311595 0.85530984 -1.9328638 1.6464144 -0.08581454 1.2466599 0.65025455
0.83623207 -1.0683494 0.9244483 0.2606279 0.98553944 -0.6524582 -1.5654979 -0.27847752
-0.8257574 -0.5195019 -1.5923239 -0.11125334 0.89131397 0.40402368 -1.9084495 0.21403706
-0.39078563 -0.11263426 -0.7458231 0.59603596 -0.12350975 0.19912086 0.83410317 1.0516433
-0.13317268 -1.0073307 0.8489779 0.81411636 -1.3888164 1.9069978 1.08736 -0.2319056
0.5932509 -1.3613216 -1.8158244 -1.4157646 -0.0025429083 0.035750903 1.3705682 -0.8964823
0.010805155 0.4132913 -0.9540042 0.407357 0.47511926 1.8787545 0.18941079 1.6294589
-0.30315056 -1.186891 -1.4938238 -0.32668743 0.116804235 0.020361759 -1.6144465 -0.025833514
0.11005912 -0.51078016 0.7584121 -1.5241432 -0.35148972 1.6212099 0.79871106 0.053843204
-0.92063713 0.018131303 -0.7468271 -0.6175034 1.0774039 -0.2018816 -0.10845594 0.47222564
0.038043898 1.1406859 -0.46817115 -0.3060056 0.019541973 -0.21436879 0.008354539 0.029363751
-1.5891795 -0.8408984 -0.3642018 1.2579275 -0.346217 -1.1895238 -0.37860066 1.0644135
1.7655647 0.7495537 -0.11870333 0.2806231 0.5881939 0.6722823 0.11934699 0.043641414
-1.0364648 0.071396776 0.27161473 -1.4056355 0.4004994 1.1694674 0.88357896 -0.45864785
-0.09028822 0.61336005 -0.77207327 0.6403259 -1.4049683 -1.2035934 1.1074404 -0.23114677
-0.798576 -0.781967 -0.56238407 -1.5460137 1.9698429 0.1834661 0.5923832 -1.082061
0.7304336 -1.0418004 0.09401953 1.2355921 1.3783326 -0.24175252 0.3971823 1.123822
-0.1463641 -0.06453709 -0.0778022 -0.00589715 -0.66510475 -1.7688792 -0.93472606 -0.33946693
-1.0275548 -0.1242764 -0.7147234 -0.41274902 1.5792849 -0.32970858 0.20185083 -0.89322793
-0.3153733 -0.41351414 0.3448259 -0.73927075 -0.16645014 0.4995949 -0.8375075 -0.7446513

h1_weight f4 [64, 32]
00000000: 5593 b5bf e053 553f 6222 95be b91d e8bd
00000010: d867 0bbf 2e0a edbf 0585 773f 65e9 aebd
00000020: fc9c 3a3f 4d29 483f c43a 6cbf 9492 693f
00000030: 8174 9fbf 0d80 b73e 2615 2bbf 30d0 363f
00000040: 82d3 c23e a18a d33d cb3b a43f d1ea 97be
00000050: 0afc ba3e 96b7 773e fada dcbe cddf e5bf
00000060: d6fb debe bb5a 9dbf 81f4 42bf b023 b4be
00000070: 7c44 163f 83fc e0bb 124b 9cbe b0b2 373e
00000080: 95fb 343f 02a2 893f 89aa 9bbf e5a6 00bf
00000090: 7dea 68bf 09f5 ea3f 3ab9 483f 7e1a 923e
000000a0: f33f b6be f3d2 ed3e b18b d4bf b175 cbbe
000000b0: ed63 313e 3ee6 adbf a83f 843f 6c60 eabe
000000c0: 1d26 dabf b25f 8dbf 964c 273f f731 aabf
000000d0: 5821 3cbf 2581 25bc 7069 013f f0da 813f
000000e0: f281 a6bf c5f2 603f f57e 31be 0c0c 79be
000000f0: fca8 9b3e 5d43 1c3f d5e1 4fbf 268c d8bd
00000100: f4de 553f 7f87 0abf b741 bfbf 9557 cc3f
00000110: ec90 be3e 83d7 f63e 88b7 833e ad0d a5bd
00000120: edd4 bd3f d159 803f 21f3 973f ee2c d53f
00000130: f1f2 5bbf 5cb0 50be 1f12 eebd aed8 51bf
00000140: 0171 47bf fc91 d33e d914 983f b093 7dbe
00000150: a1ea 8dbf 966f c5bf 7019 ac3e eab3 74be
00000160: 7125 a93f a089 9cbd 2029 a23e a06a 263e
00000170: 5945 50bf 9770 14bf c155 a93f 1211 a13f
00000180: 6970 e6bd b881 8d3e 7cae a03e a06f c23f
00000190: ea31 bc3f bcb7 053f 9f44 e8be 4043 813e
000001a0: 1a71 973f f906 893f 7d80 b0bf bea8 a0bd
000001b0: 965c e6be 8b5f dd3f e279 b6bf f232 803f
000001c0: 6b8e edbd c5ab e8bc cabe c2bf 10b7 c4be
000001d0: 2922 42be 60bd 10bf 4066 813f 5d05 a2be
000001e0: 072e 35be a791 79be dc7e 09bf a129 3dbe
000001f0: ea16 a93f 98eb debe d167 073f 3a8e a6bf
00000200: 798d 673d a00f 063f 8f74 a6bf 1dba a2be
00000210: 503c 18bf b182 4dbf d013 22bf a639 82bf
00000220: 639f b43e 7874 4a3f ba8b 593f 0ccd 243f
00000230: 0772 07bf 31f0 debe caf8 27be 0c6d 79be
00000240: c91a 65bf 29d7 d7bf fdc0 64bf 6593 cc3e
00000250: cd51 1abf def5 8fbf 4bae d63d 9ff3 a03f
00000260: 58b6 2f3f 6d78 00bf ebf5 4d3f 7e69 bebf
00000270: 912e 96bf 1ee6 36bf 8e24 9e3f a682 db3f
00000280: 7b40 723e 9a19 1abf 078f 2ebf 708e c93f
00000290: 44a6 fc3e 0aad c9bf a5b4 9e3f 7171 8c3f
000002a0: c639 a8bf 5629 d2bd a90a 6abe 1572 90be
000002b0: f5c6 733f 1019 d8be 879f e23e 4032 843f
000002c0: 0e8b 8abe 87d2 7c3f 5cb3 0a3f 16b5 34bf
000002d0: 351d aebe 3b1a 283f 3011 06be bcb6 2fbf
000002e0: a48e 343d 7d8e 19bf 716a a9bf 86e6 5ebf
000002f0: f9f4 413f a4c8 053e 57e4 8f3f 0dca a83e
00000300: 96ae 2c3f b6f4 eabe fa51 69be a0ae d73e
00000310: 3197 4a3f 3d48 903f bad0 02bf cce2 58bf
00000320: 67f7 623e 6c02 3b3f 26e9 443f ff02 053f
00000330: ec49 4e3f 9a71 ec3f 4280 983e f4c0 b53f
00000340: 3be7 97be eff4 a5bf 6f66 f2be f667 f0be
00000350: 5d55 bfbf 8788 113e 23f0 7ebf 12bb 683f
00000360: dda3 723d 656b 703e 3ac7 c13f be3f a03f
00000370: a8aa b4bf 3cc7 8b3f 4cab fbbf 9311 293f
00000380: e555 863f 1c90 4bbf 439f 49bf 3338 fbbf
00000390: 4353 d93d be85 ccbf cf3f 86be 7068 d73f
000003a0: 51ea 36be 2684 353f 96ae 423e 425e 2f3e
000003b0: a565 e3be 4e72 a8be 2374 673e 1e31 22bf
000003c0: e29a 06bf 9482 143f 1931 e53e b0e2 cfbe
000003d0: 4fc4 81be 59d5 e43e 75c0 fd3c 5534 fe3e
000003e0: 3c46 71bc 2e08 77bf 492a 1abf 8a79 dc3f
000003f0: 3df1 423f e2eb 06bf efcc 133f 5501 90bf
-1.4185587 0.8333111 -0.29127795 -0.11333794 -0.5445533 -1.8518732 0.96687347 -0.0854061
0.7289579 0.7818802 -0.9227717 0.91239285 -1.2457429 0.35839882 -0.66829145 0.7141142
0.38051993 0.10329176 1.2830747 -0.29671338 0.36520416 0.24191126 -0.43135816 -1.7958924
-0.4355151 -1.2293314 -0.76154333 -0.35183477 0.5869825 -0.0068660392 -0.30526024 0.17939258
0.70696384 1.0752566 -1.2161418 -0.5025466 -0.909828 1.8356029 0.78407633 0.28535837
-0.35595664 0.46450004 -1.660513 -0.3973823 0.17323275 -1.3585889 1.0331926 -0.4577669
-1.7042881 -1.1044829 0.65351236 -1.3296498 -0.7348838 -0.010101591 0.5055151 1.014494
-1.3008406 0.87870437 -0.17333587 -0.24321002 0.30402362 0.6104029 -0.8120397 -0.10573606
0.83543324 -0.54113 -1.494193 1.5964228 0.37219942 0.48211297 0.2572596 -0.08059249
1.4830605 1.002741 1.1871072 1.6654336 -0.85917574 -0.20379776 -0.1162455 -0.8197125
-0.77906805 0.41322315 1.1881362 -0.2476337 -1.1087228 -1.5424678 0.33613157 -0.23896757
1.3214551 -0.076434374 0.31672 0.16251612 -0.81355816 -0.579843 1.3229295 1.2583334
-0.11251909 0.2763803 0.3138312 1.5190315 1.4702733 0.5223348 -0.45364854 0.2524662
1.1831391 1.0705253 -1.3789212 -0.07844685 -0.44992512 1.7294782 -1.4255946 1.0015547
-0.1159943 -0.028402219 -1.5214474 -0.38420916 -0.18958344 -0.56538963 1.0109329 -0.31644717
-0.1769334 -0.24371968 -0.537092 -0.18472911 1.3210118 -0.4353912 0.52892786 -1.3012154
0.056531403 0.5236759 -1.3004321 -0.31782618 -0.5946703 -0.80277544 -0.6331148 -1.0173843
0.35277852 0.7908397 0.8497883 0.64375377 -0.52908367 -0.43542627 -0.16403499 -0.24358004
-0.89493996 -1.6862537 -0.89356977 0.39956203 -0.6028107 -1.1246908 0.104824625 1.2574347
0.6863761 -0.50183755 0.80453366 -1.4875944 -1.1732961 -0.7144488 1.2354906 1.7149246
0.2365741 -0.60195315 -0.6818699 1.5746593 0.493456 -1.5755932 1.2398878 1.097212
-1.3142631 -0.102617905 -0.22855629 -0.28212038 0.9522546 -0.4220662 0.44262335 1.0327835
-0.27059215 0.9875874 0.5417993 -0.70588815 -0.34006658 0.65665025 -0.13092494 -0.68638206
0.044081345 -0.59983045 -1.3235608 -0.870705 0.75764424 0.1306482 1.1241559 0.32966653
0.67453897 -0.45889825 -0.22785178 0.42125416 0.7913695 1.1272045 -0.5109974 -0.84721065
0.22164689 0.7305057 0.76918256 0.51957697 0.80581546 1.8472168 0.29785353 1.419951
-0.29668602 -1.2965373 -0.47343776 -0.46954316 -1.4947926 0.14212237 -0.9958517 0.90910447
0.059238303 0.23478468 1.5138924 1.2519453 -1.411458 1.0920177 -1.9661651 0.6604244
1.0494963 -0.7951677 -0.7875864 -1.9626526 0.10611584 -1.5978315 -0.26220557 1.6828747
-0.17862822 0.7090477 0.19011912 0.171258 -0.44413486 -0.32899708 0.22602896 -0.63356197
-0.5258008 0.58011746 0.4476402 -0.40602636 -0.25345084 0.4469402 0.03097556 0.496493
-0.014726218 -0.96496856 -0.6022077 1.7224591 0.7614935 -0.5270368 0.5773458 -1.1250407

h2_weight f4 [36, 1]
00000000: ce63 1e3f 9caf 7e3e 6e4a ca3e 9345 883f
00000010: 90b3 3d3c 56ff aa3e 8a63 a13f 89ba 7e3e
00000020: 391a a93f 957e b63f c217 03bf db86 0f3f
00000030: 1d3e 823d b8cc a5be 29ea 7d3f c2b6 9c3f
00000040: 8ea4 613e 3569 f7be 8951 b3bf b53e 3b3f
00000050: ae27 45bf 905f efbe 40c1 813f 66c4 973e
00000060: aba2 ea3e 6a8d 82bf 04dd b8be 341a aabe
00000070: 1fe2 463e 0aba 84bf 0e4e 89bd 4f73 20bf
00000080: 8a38 3bbd b27a a73d 6ef9 23be 4361 003f
0.6187104 0.24871677 0.3950991 1.0646232 0.011578456 0.3339793 1.2608502 0.24875845
1.3211128 1.425738 -0.51208127 0.5606515 0.063595034 -0.3238275 0.99185425 1.2243273
0.22035429 -0.48322454 -1.4009258 0.7314256 -0.7701367 -0.46752596 1.01371 0.29642028
0.4582723 -1.0199406 -0.36106122 -0.33223116 0.19422196 -1.0369275 -0.06704341 -0.62675947
-0.045708217 0.08177699 -0.16013119 0.5014841

last_w f4 [36, 1]
00000000: ce63 1e3f 9caf 7e3e 6e4a ca3e 9345 883f
00000010: 90b3 3d3c 56ff aa3e 8a63 a13f 89ba 7e3e
00000020: 391a a93f 957e b63f c217 03bf db86 0f3f
00000030: 1d3e 823d b8cc a5be 29ea 7d3f c2b6 9c3f
00000040: 8ea4 613e 3569 f7be 8951 b3bf b53e 3b3f
00000050: ae27 45bf 905f efbe 40c1 813f 66c4 973e
00000060: aba2 ea3e 6a8d 82bf 04dd b8be 341a aabe
00000070: 1fe2 463e 0aba 84bf 0e4e 89bd 4f73 20bf
00000080: 8a38 3bbd b27a a73d 6ef9 23be 4361 003f
0.6187104 0.24871677 0.3950991 1.0646232 0.011578456 0.3339793 1.2608502 0.24875845
1.3211128 1.425738 -0.51208127 0.5606515 0.063595034 -0.3238275 0.99185425 1.2243273
0.22035429 -0.48322454 -1.4009258 0.7314256 -0.7701367 -0.46752596 1.01371 0.29642028
0.4582723 -1.0199406 -0.36106122 -0.33223116 0.19422196 -1.0369275 -0.06704341 -0.62675947
-0.045708217 0.08177699 -0.16013119 0.5014841

cross_product f4 [64, 1]
00000000: 1ebf c23e 3ce7 a6bf 21ca 4e3e 3ded 5bbf
00000010: 4632 373f 6e44 1bbf 503c 8ebe dcfd 95bf
00000020: 25e2 ea3e 5bd6 c53f 26aa cd3f 2701 0abe
00000030: c4a1 b4bf 85ad 943e db38 1bbe 1127 fb3e
00000040: 46aa 3cbe 89df 32bf b808 053f c819 73bf
00000050: 11bc e5bd e9c6 febc 5c60 6cbf b3ab a0be
00000060: dedf 373f fa80 61bf e750 b5bf 8def 2dbc
00000070: eec0 1ebf 9fcc 453f 2eca 60bd 053f 29bf
00000080: fcd2 41bf 6d8e a9bf 338b b0be 0d26 543f
00000090: 2975 24bf bcc7 123f 6833 da3f 3816 813d
000000a0: 1759 c2bf d210 d83f 5a0a 07bf dcf5 043f
000000b0: 9890 a0bc 8afb cd3e 1a98 b83f 869c 5d3c
000000c0: 7e9a e9be 8218 ec3f 2cf9 f53c 691a 21be
000000d0: a64d b63e 488c 203f 54cc 4cbe 3f69 b8bf
000000e0: e464 b63f acd9 e2be 0dba 66bf 2caa e8bc
000000f0: 1fe9 3abf 52bd a33f 591e 61bf 332d f8be
0.38036436 -1.3039317 0.20194294 -0.8590887 0.71561086 -0.6065129 -0.2778039 -1.1718097
0.4587566 1.5456041 1.606755 -0.13477002 -1.4111867 0.29038635 -0.15158407 0.49053243
-0.18424329 -0.6987234 0.5196643 -0.94961214 -0.112175114 -0.031100707 -0.9233453 -0.31380996
0.7182597 -0.8808743 -1.4165314 -0.010616195 -0.6201314 0.7726535 -0.054880314 -0.66111785
-0.7571256 -1.324659 -0.344812 0.8287056 -0.6424127 0.5733602 1.7046938 0.06303066
-1.5183438 1.6880133 -0.5275017 0.5193765 -0.019600198 0.40230972 1.4421418 0.013526088
-0.4562568 1.8444979 0.030026041 -0.15732731 0.35606116 0.6271405 -0.1999982 -1.4407119
1.4249539 -0.44306695 -0.9012764 -0.028401457 -0.73011965 1.2792151 -0.8793693 -0.48471984

w_layer1 f4 [64, 128]
00000000: 001a 96bd 6324 a9bf e4a1 0cbf 18c6 a7bf
00000010: 307f b2bf 9ce9 08bf 0f79 773f 986d f73e
00000020: 1292 983f 5530 b2bf 2293 d03f 8a6a dbbe
00000030: 9f9f c5be 0068 81be b450 edbf 9d08 86bf
00000040: 73e4 e83f d4b6 043f 0f4c fbbe 9518 0ebf
00000050: bf08 523f 2e8b 873c bd96 023f 7a57 77bf
00000060: eae0 91bf 631f d8bd 3afe 6abf e666 443f
00000070: 8756 93be c697 26be f68a e9bf 8fbb 1f3f
00000080: d913 aabf b87d b23e 2019 bebd ebda 7ebf
00000090: d8ab bb3e e05b 153f 63b7 603f 5054 993f
000000a0: 395e 37be 0fa5 143e 25ab 3e3f 0241 df3c
000000b0: afac 80bf c03e 883f 5361 383f aa5e 65bf
000000c0: 5c1c b2be 8d67 09bd 2176 6d3f 82ae 52be
000000d0: afd8 64be 3124 c4be cbc8 52bf 1a60 883e
000000e0: 7849 12be c8ae d33f facb fabe 952c b83c
000000f0: 2aef 21be 2a07 8b3f d816 433f f1d6 c13f
00000100: 691e 54be 28b2 0abf 33ff 7c3e 8cd0 18bf
00000110: 09e6 c33e eecb 3b3d 6842 a1bf c7e8 313e
00000120: 5416 1b3f 17f0 4dbd 36b2 cebf 8470 d53f
00000130: 0f5f c2bf 01d5 b8bd cb8a bdbd f342 af3c
00000140: 0b6f 9dbe 4d6d 083f 7c66 97bd 4c2d b8be
00000150: a2e9 be3f 6a68 04bc 6877 8c3f a426 c33f
00000160: 026d 733f 97ef 9f3f 84f5 493f 38eb 8fbf
00000170: 84b0 cf3d 126a 193e 9e28 ca3f 2748 11bf
00000180: bd0b a53f ae98 abbd e29b 923e ab13 343e
00000190: 3466 aabf 9b34 843f 0846 98bf b9f5 9e3e
000001a0: bbc2 8e3f 48d7 4a3d 567b 21be 2d5a 3b3f
000001b0: 101a ce3f a287 dfbf bd3f 9d3f dd35 b63f
000001c0: 7aa9 cb3e 1725 363f 1842 73be 9f1d 863f
000001d0: 9b1d 25be 037d 903e 7989 db3e 4a60 7f3f
000001e0: ebc4 ef3e 246b 80bd 40c8 c53d 98b2 0f3e
000001f0: af38 95bf 1525 e9bf 84c6 1bbf bbf8 00bc
00000200: 94ce d2be e36a fe3e 2898 77bf 7d21 2cbf
00000210: 3ec2 80bf f773 0abe 8987 65bf 0635 23bf
00000220: 7c7c 7ebf 7c93 a3bf c0ff e7bf a92b 94bf
00000230: 87c3 aabe 1308 a63f 9bc4 a93d c50f f8bf
00000240: 93d4 933e 6aa6 33bf 7353 2fbd 237b 0d3d
00000250: e554 123f 9980 4cbf f626 9b3e f72e c7bf
00000260: 0d68 27bf 9a9f a2bf 7af3 dfbe 0695 343f
00000270: edca 383e 72cd 91bf 6a5e c9be 598d 7f3d
00000280: 40aa 7e3f 490d 0abf d257 97bf 23c6 303f
00000290: 8e49 c8be 9d86 34bf db15 6cbe 3584 9bbe
000002a0: 3701 113f 45d0 213f c8b5 a0be 4491 0b3f
000002b0: efef 64be 39e5 933f 08f1 58bf 6f87 36bf
000002c0: 0f4b 5bbd fbc4 cebd 01c4 5b3f 053f 903e
000002d0: 3a2b 993f c230 443e 86d1 3abd 6efb d83f
000002e0: fd5a 943f 1c38 41be e44a 05bf 63ff a03e
000002f0: 71ee ba3e a6e1 733c 8caf f9be 1363 ffbe
00000300: af73 a83f 74da 4abe 43ad 08bf e436 613f
00000310: ac9b 433d 4428 463e 6157 fabf 1ed6 36be
00000320: 3ff9 d53e 9743 f8be de3b c33e 8b5b 0a3e
00000330: 3851 4cbe 572c b9bf 6e96 d33e 5cb6 c4be
00000340: 9526 623e 5965 773f 0d3f 593f 1b0b cb3e
00000350: 8190 84be 181f 1bbf 7c4d 0340 dbef adbf
00000360: 0d48 093f 3fc5 c53f 1522 c93e fdd5 93bf
00000370: f7ee 8ebe ac7e b23e 4f18 e7bf 1e29 793f
00000380: db12 ca3f ba49 88bd cbb1 6fbf 6c34 793e
00000390: b95a 1a3f 7b2b d6bc a8ed 953f 34e2 cdbf
000003a0: 3dbd 92bd 7198 aabf 4bbc 473f 6f53 2f3f
000003b0: 6f69 8f3d 5b9c 8f3e d2ba de3f fb71 ea3f
000003c0: e1b5 39be b448 6d3e 72f3 61bf 8f66 263e
000003d0: 24c7 ca3e 24ae 8e3f 8701 d83f 5616 c43f
000003e0: b957 18bf a97a ba3e cbfd 2dbf adb1 0e3f
000003f0: 9b95 9fbf af8d 8fbe c8d5 a83f 84e0 39bf
-0.07329178 -1.3214229 -0.54934525 -1.3107328 -1.3945065 -0.5348146 0.96669096 0.483258
1.1919577 -1.3921 1.6294901 -0.4285472 -0.38598344 -0.25274658 -1.8540254 -1.0471379
1.8194717 0.51841474 -0.49081466 -0.5550626 0.82044595 0.016545858 0.5101126 -0.96617854
-1.1396763 -0.105528615 -0.9179417 0.7671951 -0.28776953 -0.16268834 -1.8245533 0.62395567
-1.3287307 0.3486154 -0.09282136 -0.9955279 0.36654544 0.58343315 0.87779826 1.1978855
-0.17907037 0.1451609 0.74479896 0.027252678 -1.0052699 1.064415 0.72023505 -0.8959757
-0.3478726 -0.03354602 0.92758375 -0.20574382 -0.22348283 -0.38308862 -0.82337636 0.2663582
-0.14285839 1.6537714 -0.48983747 0.022482196 -0.1581389 1.0861561 0.7620673 1.514372
-0.20714726 -0.54178095 0.24706726 -0.5969322 0.3826144 0.04584878 -1.259839 0.17373954
0.60580945 -0.050277796 -1.6148136 1.6674962 -1.518526 -0.09025002 -0.09254988 0.021394229
-0.30748782 0.5329178 -0.07392594 -0.3597206 1.4915049 -0.008081535 1.097394 1.5246167
0.9508821 1.2494992 0.7889025 -1.1243658 0.101410896 0.14981869 1.5793645 -0.5675072
1.2894207 -0.08378731 0.28634554 0.17585628 -1.331244 1.0328554 -1.1896372 0.31046847
1.1153177 0.049521714 -0.15769705 0.7318447 1.6101704 -1.7463267 1.2285076 1.4235188
0.39777738 0.71150345 -0.23755682 1.047779 -0.16124575 0.28220376 0.4287832 0.997563
0.46829924 -0.062704355 0.09657335 0.14032972 -1.1657923 -1.8214442 -0.60849786 -0.007871802
-0.41173232 0.49690923 -0.96716547 -0.672386 -1.0059278 -0.135208 -0.89659935 -0.6375278
-0.994087 -1.2779384 -1.8124924 -1.1575824 -0.333523 1.2971214 0.08289453 -1.9379812
0.2887312 -0.701758 -0.042804193 0.03454126 0.5716079 -0.79883724 0.30303162 -1.5561208
-0.65393144 -1.2704957 -0.43740445 0.7053989 0.1804616 -1.1390822 -0.39329845 0.06239066
0.9947853 -0.5392652 -1.1823676 0.6905233 -0.39118618 -0.70517904 -0.23055212 -0.30374303
0.5664248 0.6320842 -0.31388688 0.5451853 -0.22357152 1.1554328 -0.84742785 -0.71300405
-0.05353838 -0.10096165 0.85845953 0.2817308 1.1966317 0.19159225 -0.045609973 1.695173
1.1590267 -0.1886906 -0.520674 0.31444845 0.3651004 0.014885342 -0.48766744 -0.49880275
1.3160304 -0.19809896 -0.53389376 0.8797438 0.047755882 0.19351298 -1.9557916 -0.17855117
0.41791722 -0.48489067 0.38131613 0.13511483 -0.19952857 -1.4466656 0.41325706 -0.3842038
0.2208503 0.9663902 0.8486183 0.3965691 -0.25891498 -0.6059432 2.0516043 -1.3588823
0.53625566 1.545082 0.39283815 -1.1549679 -0.2791669 0.34862268 -1.8054293 0.97328365
1.5787004 -0.06654687 -0.93630666 0.24336404 0.6029468 -0.02614378 1.1713152 -1.6084657
-0.071650006 -1.3327771 0.7802169 0.68486685 0.07002532 0.28048977 1.7400763 1.8316034
-0.18135788 0.23172265 -0.88262093 0.1625006 0.39605057 1.1146894 1.6875466 1.5319316
-0.59508854 0.36421707 -0.6796538 0.5573986 -1.2467531 -0.28037784 1.3190241 -0.7260821

w_layer2 f4 [128, 1]
00000000: 7a42 eb3f fddb 04bf f8dd 39bf 6c37 98be
00000010: 59c5 4a3f d356 233f 60b8 8f3f 0646 e5be
00000020: 7556 a53f c3c2 90be f26b 9e3f 398e 3dbf
00000030: 8191 b5bf e72c be3f 1a3b 06be d7c3 92bf
00000040: 1fa3 ba3e e0ff 9ebf 5272 2bbf 40e5 d8be
00000050: c52c 40bf 7ae4 56be 9710 553f e2eb 24be
00000060: 828f 913e 62f8 e4be c8e7 20bd 40bc 51bf
00000070: 2166 663e 1784 2b3f b101 93be ccfa 0440
00000080: 1bb3 8f3e f3e1 fd3e cfff acbe c068 06bf
00000090: 9f7e 813d e3fb 82be c382 993f 1ee4 11c0
000000a0: c03b 1abf 519c f23f f271 8abf 382e b4be
000000b0: 46a3 83be 8e2e 0c40 6460 30bf 95b8 a43f
000000c0: d8fc a33f 67fc 96bf acf0 83bf fefb 843f
000000d0: 9dc1 fc3f 2567 83bf b5d1 2bbe cab0 29bf
000000e0: 40ae 23bf b440 d03e 4a3a a43f 290b 51bf
000000f0: 8ba2 5fbf ceb9 9cbf 8ff7 a73e 2fef a63f
00000100: 7421 1a3f 8a5c ee3d 5ffc c7bf 42bc 08c0
00000110: 128e f7bd 570f 14c0 9a87 15bf 5167 7cbf
00000120: 6fa4 19bf 2db1 ae3e 8bb8 c6be 9d24 ce3f
00000130: d57e d5bf fae0 d0bf 1b56 f1be e7d6 13bf
00000140: 945f d7bb bf0c 92bf f6b7 46bf d4a2 b0bf
00000150: e2ba 593f 1c65 423e 20f9 c8bf 3049 e43f
00000160: 33dc 853f 158a c03f 89be b3bf 491d 9b3f
00000170: 2296 023f 1999 913e 8860 0bc0 92df 26bf
00000180: 967d 2bbf c45b 14bf 7b3a bbbe f292 ecbf
00000190: 1a27 a4bf 0bac cabe fd5e 2c3f e94e b63e
000001a0: 99ef 75bf e440 e9be 5720 17bf 6a6c d93d
000001b0: 5303 68bf c359 d83e 8941 4fbf 7e0c eb3f
000001c0: 1495 e93f 4413 493f c957 e13f 3838 28bf
000001d0: 7bad 31be 7f92 40bf 215c 823f 8daa 4dc0
000001e0: 7e4d eebe 7669 b23e 7164 343f 0e1d 983e
000001f0: 4994 803e 8bba cabf 5696 0c40 4ce8 573f
1.8379662 -0.51898175 -0.7260432 -0.29729784 0.7920738 0.6380436 1.1228142 -0.44779986
1.291701 -0.2827359 1.2376692 -0.7404514 -1.4185029 1.4857453 -0.13108483 -1.1466016
0.36452577 -1.2421837 -0.66971314 -0.42362404 -0.7506831 -0.20985594 0.8322844 -0.16105607
0.284298 -0.4472075 -0.039283544 -0.8192787 0.22499897 0.6699843 -0.28712228 2.0778074
0.28066334 0.49586448 -0.33788916 -0.52503586 0.06322979 -0.255828 1.199303 -2.2795482
-0.6024742 1.8953954 -1.0816023 -0.35191512 -0.25710505 2.1903415 -0.6889708 1.286883
1.2811537 -1.1795777 -1.0307822 1.0389402 1.9746586 -1.0265852 -0.16779216 -0.66285384
-0.6393776 0.40674365 1.2830288 -0.81657654 -0.87357396 -1.2244203 0.3280606 1.3041743
0.60207295 0.11638744 -1.5623893 -2.1364903 -0.12087645 -2.3134363 -0.58410037 -0.9859515
-0.6001653 0.3411955 -0.3881267 1.6104923 -1.6679331 -1.6318657 -0.47136006 -0.5774979
-0.006572673 -1.141014 -0.7762445 -1.3799691 0.85050786 0.18983883 -1.5701027 1.7834835
1.0457824 1.5042139 -1.4042522 1.2118312 0.51010334 0.28437117 -2.1777668 -0.6518489
-0.66988504 -0.57952523 -0.36568055 -1.8482344 -1.2824433 -0.39584383 0.6733244 0.3560708
-0.9606872 -0.4555732 -0.5903372 0.106163815 -0.9063007 0.42255983 -0.80959374 1.8363187
1.824862 0.7854502 1.7604915 -0.65710783 -0.17351334 -0.75223535 1.0184366 -3.2135346
-0.46543497 0.34846085 0.7046576 0.29709667 0.25113133 -1.5838178 2.1966758 0.8433883

layerNodeAttention_weight.trans f4 [64, 64]
00000000: 08af 813f 9060 083c 2893 f93c 6357 473c
00000010: 38e9 753c 3a00 5d3d e5e8 553d d0df 733c
00000020: 99f9 143d 1509 9cbb ff5d 373b 637c b2bb
00000030: c06b 493c d544 483c 1d23 f93c 20a9 da3c
00000040: 40e3 29bb 5ac8 0d3d 87c7 b73c 1e68 913c
00000050: 1d5d 2cbc 7583 823d 5f5d 233c 2d29 4a3c
00000060: bae2 88bb 7f2b 123c daea d23b 1e04 373d
00000070: 7fd2 d8bc d5ea 183a 63b0 6bbd 69ac 35bb
00000080: 0945 233c fba2 77bb 56d0 093b c3b5 5f3b
00000090: f725 323c 0120 92bb 39cb 9dbb 6439 ef3c
000000a0: a57a a23b 5590 6dbb 56df 3d3d 32e5 7e3d
000000b0: 843f 08bc 3be9 ea3c ec78 233c 7c9b ab3c
000000c0: 8aa0 243c 8325 ac3a a909 00bc 4463 053c
000000d0: d399 9a3a c0d9 953c dc28 21ba 42d1 8a3b
000000e0: 6691 153b 88f5 593d 959c 013d 37cc 513d
000000f0: 720d 363d ecb1 eebb 7836 ba3b e50a 01bb
00000100: 17b2 763c a971 813f 207a 373d a889 4a3b
00000110: 2b09 a63c 62c2 973d 865e a43d d628 deb9
00000120: 9359 373d ff27 3aba cf89 5a3c 1bd3 53bc
00000130: 00a8 373c 7294 013d a282 483d 4948 143d
00000140: dddc 3f3c a642 833d 7837 3a3c a196 7f3c
00000150: e64c f0bb 6e69 3d3d 240a da3b 9b51 e3bb
00000160: 2217 043b 66b7 ae3b 6aa4 213b 9d13 1e3d
00000170: 09dc a3bc 65a9 fe3a 104e 19bd 417a a23b
00000180: 6ff2 a33b c273 41bc f791 e03c 10cf b43b
00000190: 34dd 5d3b ece2 29bb 137c e8bb abc7 323c
000001a0: 2821 6a3b 513c f4bb f6ea 063d e315 5b3d
000001b0: 0e88 b53b efd3 233c dbcc b73b 4594 0d3d
000001c0: 37e5 43ba fe24 a73b 11b5 33bb 7274 bbbb
000001d0: f69f 21b8 2390 eabb f7a3 69bc 2ad6 a53a
000001e0: 6492 993b fa58 123d ea76 333d 3e4f af3c
000001f0: 70e0 313d 861c abba 112a 07b9 5536 82bc
00000200: 7621 b23c a055 9b3a 6e23 843f 655f e83b
00000210: 5ab7 3e3c 1c04 773d 1b8f 6b3d 6d6c ba3b
00000220: 5d34 483d 9e50 653b 6865 3a3c db25 14bc
00000230: c71a 543c ab84 323c 0713 f83c 4f01 053d
00000240: 5b51 773b f037 443d f0b4 683c 94ba 1a3c
00000250: eb59 5dbc e23c 653d b91f 5a3a c812 1f3c
00000260: 046d 873b 42f1 a13a a9d4 acba b536 203d
00000270: 5afe 09bc 8a90 183c a34e 33bd 9742 9fbc
00000280: e936 1d3b 8493 41bc 8d83 0cbc 4770 e73b
00000290: 1539 443b b6a8 4cbb ad17 983b 5f51 583c
000002a0: 4e0d 59bb 6d64 273b a0f6 313d ad18 833d
000002b0: 6a2a b63a 7f7f 3f3c a859 a43c cb03 d83c
000002c0: 76e9 7eb9 dfe0 9f3b 86bd 63ba fb21 633a
000002d0: 976e 2b3c 8d0d 923b d4aa 62bb f41b 29bb
000002e0: 9ba1 f33b 0f91 313d c4b5 e83c b6f0 093d
000002f0: 731e 243d fd6c 21b9 1d9c 3dba 2e25 02bc
00000300: 4640 943c ef48 c438 8254 223d 7e49 803f
00000310: 58a1 f63a d061 533d 5e4f a33d 3c86 fb3b
00000320: 465b ab3c 8f7d 1f3b b15c 833b e651 d2bc
00000330: 2fe0 793c 4446 6d3c 1d57 dd3d 2d55 c33c
00000340: 1981 233d eba4 873d 7669 13bc e8c3 003c
00000350: 1874 7e3d 4235 d63d 19d7 013a c14c 81bb
00000360: f94b d03b 62ee 6fbb 7cae 9fbb 57c4 073c
00000370: 6528 5bbc 64ab 033c 7b48 35bd d197 3fb9
00000380: 6da1 353b 8827 d33b d123 553d 0932 df3a
00000390: f185 2aba 644b f63a 427e 76ba 8df5 3bbc
000003a0: df66 45bb 73be 953b 6ebf 053d a1bc 183d
000003b0: 2589 fc3c 37df 4f3c 2086 12bb 7145 613d
000003c0: 4fe1 513b 4c21 bd3a ef3b 153c dde3 87bb
000003d0: c04e a13c 5d96 26bc 5f85 b13b 2171 06bb
000003e0: 457a ff3b f288 333d df2e 973c 6685 cb3c
000003f0: 803f ee3c a018 72bb 04d5 923a cda2 58bb
1.013154 0.008323804 0.030465677 0.012166831 0.015009217 0.053955294 0.05222406 0.014884904
0.036370847 -0.004761825 0.002797961 -0.005446957 0.012293756 0.012223442 0.030412251 0.026691973
-0.0025922805 0.0346149 0.02243401 0.017749842 -0.010520247 0.0637273 0.009970992 0.012338919
-0.0041774185 0.008921503 0.006436688 0.04468166 -0.02646756 0.00058333325 -0.057541262 -0.0027721173
0.00996519 -0.0037786353 0.002102872 0.0034135438 0.010873309 -0.0044593816 -0.004815486 0.02920217
0.004958468 -0.0036249359 0.046355568 0.062230296 -0.008315925 0.028675666 0.0099775605 0.020948164
0.010048041 0.0013133738 -0.007814803 0.008141343 0.0011795111 0.018292308 -0.0006147751 0.0042363713
0.002282226 0.053212672 0.03164347 0.051220145 0.044446416 -0.0072843935 0.0056827627 -0.0019690332
0.015057108 1.0112811 0.0447942 0.0030904803 0.020268044 0.074101225 0.080258414 -0.00042373565
0.04476316 -0.0007101297 0.01333852 -0.012928749 0.011209488 0.03163571 0.048952706 0.03620175
0.011710373 0.064091966 0.011365764 0.015599878 -0.0073333858 0.046243124 0.006654041 -0.0069372184
0.002015539 0.0053319214 0.0024664649 0.038592923 -0.020002382 0.0019429146 -0.03742796 0.0049584215
0.0050032656 -0.011807384 0.027413351 0.005517848 0.0033853771 -0.002592261 -0.007094869 0.010911862
0.003572533 -0.0074534793 0.03293892 0.05348767 0.0055399006 0.009999259 0.0056091375 0.03456523
-0.00074728153 0.0051008454 -0.0027421156 -0.0057206685 -3.8534366e-05 -0.0071582957 -0.014260284 0.0012652327
0.0046866406 0.035729386 0.043814577 0.02140009 0.04342693 -0.0013054765 -0.00012890274 -0.015895048
0.021744471 0.001185108 1.0323312 0.00709145 0.011640394 0.060306653 0.057509523 0.005689195
0.048878063 0.0034990679 0.011376716 -0.009042229 0.012945837 0.010895888 0.03028251 0.03247195
0.00377377 0.04790491 0.014203295 0.009443898 -0.013510208 0.055966265 0.0008320767 0.009709068
0.0041328687 0.0012355226 -0.0013185936 0.039114673 -0.008422459 0.009311805 -0.043776166 -0.019440932
0.0023989028 -0.011814956 -0.008576286 0.007062945 0.002994125 -0.003122849 0.0046414942 0.013202994
-0.0033119502 0.0025542036 0.04344809 0.06401191 0.0013898138 0.011688112 0.020062283 0.026368996
-0.00024310299 0.0048791016 -0.0008687604 0.0008664426 0.010463378 0.004457182 -0.0034586685 -0.0025804015
0.0074350364 0.04335123 0.028406985 0.033676825 0.0400681 -0.00015394758 -0.00072330405 -0.007943435
0.018097054 9.359593e-05 0.039631374 1.0022428 0.0018816395 0.051606953 0.079741225 0.007675914
0.020917546 0.0024336313 0.0040088524 -0.025673818 0.015251203 0.014482085 0.10807631 0.023844326
0.03991804 0.066232525 -0.008997312 0.007859208 0.062122434 0.10459377 0.00049530115 -0.0039459174
0.006356713 -0.0036610593 -0.004873095 0.008286557 -0.01337633 0.008036468 -0.044258576 -0.00018271735
0.0027714625 0.0064439215 0.05203611 0.0017028461 -0.0006504944 0.0018790779 -0.0009402969 -0.011472118
-0.003012113 0.0045698225 0.032653265 0.037289266 0.030827114 0.012687496 -0.0022357777 0.054997865
0.0032025164 0.0014429479 0.009108528 -0.0041470365 0.019690871 -0.010167685 0.0054175104 -0.0020514207
0.007796558 0.043831773 0.018454967 0.024843883 0.029083014 -0.0036940947 0.00112024 -0.0033056021

layerNodeAttention_weight.bias f4 [64]
00000000: 02f7 a43c 21cb 123b c492 143d 5635 d33b
00000010: 9090 8c3b 0a52 7c3d 6fbd 7f3d 5284 e23b
00000020: 2791 3a3d 844d c23a 3b25 243c 3cc4 89bb
00000030: 58ca ab3c f930 903c 9f1a ee3c 3fb9 013d
00000040: fdfa 123c f7cb 433d 5c8a 4b3c a813 2b3c
00000050: 08b8 babb a835 7b3d 9e3a 233b 259d ac3b
00000060: b941 4a3b f714 933a e431 5aba c595 193d
00000070: f1e2 b5bb c6f5 023c 6d9b 1cbd 018c d2ba
00000080: da23 1d3b 8cde febb 2e28 1c3a a03a c23b
00000090: eb5a c83b bcd1 9dbb f19b 503b 1bdc 3f3c
000000a0: a18a f6ba ecd7 1f3b 1f18 333d e19d 4f3d
000000b0: c11c 0d3b f718 303c 638f 2c3c 800e ec3c
000000c0: 1b47 a638 5d62 cb3a 9670 80ba 2277 50ba
000000d0: ad6d 38bb bd97 c3ba 2c67 10bb ed64 dbba
000000e0: 07a4 de3b f8b0 453d a0d0 023d 4e80 f93c
000000f0: 7270 343d b246 18ba 4e5d 6aba f38a 0bbc
0.020137314 0.0022398906 0.03627278 0.006445567 0.004289694 0.061601676 0.062436517 0.0069127465
0.045548584 0.0014824127 0.010018642 -0.004204301 0.020970508 0.017601477 0.029065428 0.031670805
0.008970973 0.047801938 0.012423124 0.010441698 -0.0056982078 0.061330467 0.0024906765 0.0052677565
0.0030861928 0.0011221458 -0.00083234743 0.037496347 -0.005550735 0.007993167 -0.038234163 -0.0016063453
0.0023977668 -0.0077779945 0.0005956915 0.005927399 0.006114354 -0.004816262 0.003183123 0.011710192
-0.0018809625 0.0024390174 0.043724176 0.050687674 0.0021532031 0.01074814 0.010532233 0.028815508
7.928741e-05 0.0015516985 -0.0009799178 -0.00079523225 -0.0028141544 -0.0014922541 -0.0022034151 -0.0016738452
0.006794456 0.048264474 0.03193724 0.030456688 0.04405255 -0.0005808874 -0.0008940295 -0.008517015

layerNodeAttention_weight.logis.parameter.weight f4 [1, 64]
00000000: 77d2 3e3f 0a76 e43e 4240 e0bd a3ec 013f
00000010: 7c7e 7abd 1f79 433f 1e90 fa3f f76c 573e
00000020: 1170 cc3e fb6d 263d 36ba eabe d3b4 0d3e
00000030: 1132 51bf d256 9dbc 96ae 893e 55b1 2ebe
00000040: 2298 0b3f 522c 8a3f f72d e43e c1c6 abbf
00000050: 289d 16be ee40 d33e 2d1c bb3d 9d2f 383f
00000060: 64d2 fd3b 9380 8f3a 3832 f43d 9f94 6d3f
00000070: eadc 7c3e 2489 8d3e b51d 2b3e e615 173e
00000080: 26d7 b1bd 48b3 f9bc d8a8 a2bd c364 313e
00000090: 5e08 da3e 296d 30be 4603 6b3f 8ed6 13be
000000a0: b874 0e3d a9fa 60be 6fe6 4bbe 2575 34bf
000000b0: f626 a7be 6c94 e3bc 618c 703d 42b4 1d3e
000000c0: aa5d 34be 2a54 2d3c 4732 b53d 78b0 0c3e
000000d0: b375 f6bc 06ce eebc c9ac 1e3e 1b78 b2bd
000000e0: 1a0b 7bbf f8c7 1fbf 2b9b 673f a31a e0bc
000000f0: f085 45bf 8c3a 8a3d 0150 54bc 603f 2bbd
0.74539894 0.44621307 -0.10949756 0.50751704 -0.06115578 0.7635669 1.9575231 0.2103766
0.3992925 0.04063223 -0.45845193 0.1383851 -0.8171702 -0.019206438 0.2689101 -0.17059834
0.5452901 1.0794775 0.44566318 -1.342003 -0.14708388 0.41260475 0.091362335 0.7194765
0.007746028 0.0010948352 0.11923641 0.928049 0.24693647 0.27643692 0.16710551 0.14754447
-0.086836144 -0.030480996 -0.07942361 0.17323594 0.4258451 -0.17229141 0.9180187 -0.14437315
0.03477928 -0.2197062 -0.19912122 -0.7049125 -0.32646912 -0.027780734 0.058727626 0.15400794
-0.17613855 0.010579148 0.0884748 0.13739192 -0.03008542 -0.029150974 0.154956 -0.087143146
-0.98063815 -0.62414503 0.9047114 -0.027356451 -0.771575 0.06749448 -0.012958528 -0.041808486
