MultiDismantler_degree_cost/models/nrange_30_50_iter_400000.ckpt (torch, 76819 bytes, 8 tensors)

w_n2l f4 [2, 64]
1.9724683 -1.5234082 -1.2858145 -0.9015719 0.46684524 1.6229597 0.27002752 0.7516003
-1.4510893 0.42532474 -1.9159516 1.5777742 0.22204337 0.41231558 -0.6319474 2.0239248
-0.41280684 0.9814223 -0.6012006 1.64905 -1.1022297 0.7312973 -0.11991172 0.2132614
-0.29605505 -1.7872809 0.5248256 -0.631888 -0.6411787 -0.38958535 -0.2898046 -0.37102574
-0.83737665 1.7750716 -0.58814824 -1.2284749 0.30892068 -0.24424356 0.49164122 0.66056615
-1.3732302 -1.2760952 0.15324299 0.7273668 0.17550485 -0.22356461 -1.4842124 -1.5530894
1.4689568 -1.8066722 -0.7004896 1.2241342 1.2598523 -1.8739396 0.18076749 -1.138078
1.43504 -0.66368455 0.49085274 -0.28727847 0.8415846 0.07529172 0.15808946 -0.01612546
0.3416237 -2.4818153 -0.18385337 0.8693575 1.7289891 1.8105636 0.07014254 -2.445188
-1.0890989 -1.6877935 -0.21112868 0.18037517 -0.0060224705 -0.30633536 0.61664534 1.0450106
1.4518083 0.6946804 0.93157786 1.3237213 0.5630056 -0.8086204 -2.379684 -0.1432081
-1.610774 -0.5951136 -0.81371504 -0.701588 -0.057978593 -0.71079934 -0.7119106 1.5225527
-0.30713102 1.811413 0.85965765 -0.25279054 -0.9516268 1.3661091 -0.5569208 1.4782342
-1.2818016 1.2364167 -0.73303825 0.2754829 -0.92354673 -0.31419927 -0.30542383 -0.8449912
-0.6934646 -0.17002448 -1.1881317 -0.12598096 -0.5424263 0.8899789 -0.84440607 0.32497925
0.4506858 1.5024403 0.7132033 1.3128524 -0.36443505 1.2233928 -1.8461342 -0.04003121
00000000: d779 fc3f 0aff c2bf 9295 a4bf 6bcd 66bf
00000010: 5706 ef3e 25bd cf3f 0c41 8a3e e168 403f
00000020: 4bbd b9bf 2ac4 d93e e73d f5bf 81f4 c93f
00000030: 565f 633e 071b d33e 4ec7 21bf fc87 0140
00000040: 6b5b d3be 7e3e 7b3f 48e8 19bf 1214 d33f
00000050: dd15 8dbf 4d36 3b3f 4794 f5bd 3261 5a3e
00000060: 8794 97be 9fc5 e4bf f85a 063f 69c3 21bf
00000070: 4a24 24bf bb77 c7be 4561 94be 16f7 bdbe
00000080: 515e 56bf 8c35 e33f e290 16bf aa3e 9dbf
00000090: da2a 9e3e fc1a 7abe 66b8 fb3e dd1a 293f
000000a0: 02c6 afbf 1657 a3bf bbeb 1c3e b634 3a3f
000000b0: 8bb7 333e 1fee 64be acfa bdbf a2cb c6bf
000000c0: c706 bc3f 0941 e7bf 4953 33bf 6eb0 9c3f
000000d0: d742 a13f 41dd efbf 1d1b 393e 8aac 91bf
000000e0: 64af b73f 3be7 29bf 0d51 fb3e 2a16 93be
000000f0: 1772 573f 8c32 9a3d 34e2 213e 8a19 84bc
00000100: 4de9 ae3e 10d6 1ec0 0f44 3cbe 378e 5e3f
00000110: 844f dd3f 8cc0 e73f e4a6 8f3d f67d 1cc0
00000120: 9867 8bbf 9e09 d8bf 1e32 58be 45b4 383e
00000130: 2558 c5bb fdd7 9cbe 78dc 1d3f e8c2 853f
00000140: dbd4 b93f 93d6 313f e37b 6e3f b36f a93f
00000150: 2321 103f bf01 4fbf be4c 18c0 25a5 12be
00000160: d82d cebf 5d59 18bf a14f 50bf 459b 33bf
00000170: f67a 6dbd f2f6 35bf c63f 36bf 02e3 c23f
00000180: 4740 9dbe 62dc e73f 8612 5c3f c36d 81be
00000190: d09d 73bf aadc ae3f 5d92 0ebf c736 bd3f
000001a0: 1312 a4bf e742 9e3f 65a8 3bbf 180c 8d3e
000001b0: 8f6d 6cbf bade a0be 8360 9cbe 5851 58bf
000001c0: e586 31bf e61a 2ebe b314 98bf 2701 01be
000001d0: 73dc 0abf a8d5 633f ff2a 58bf ae63 a63e
000001e0: 4ac0 e63e f74f c03f 7e94 363f 8c0b a83f
000001f0: 3b97 babe 2398 9c3f 204e ecbf c4f7 23bd

p_node_conv f4 [64, 64]
-0.7401962 0.51910466 0.8345427 1.218774 -0.059090536 0.5239333 0.30753064 -3.0250957
-0.63594425 -2.0956948 0.589564 -0.6263143 1.1775601 -2.0970654 -0.1521343 1.6838541
-1.2634506 0.48094225 0.13958824 0.34219182 -0.8535589 -0.5049223 -0.7255917 -0.8818209
0.3390972 2.8190324 0.57429314 -0.5023377 -0.16267341 0.14626896 0.43809524 0.8093643
0.028263878 -0.21510613 -0.06478187 0.7662872 -0.7288601 1.9604136 0.006166411 1.6292449
-0.50178605 -0.26265654 1.3893687 1.5147444 -0.18497632 -0.98036146 -0.2517391 -0.88372946
0.82017857 1.5679097 0.47103676 0.0649485 0.2659996 0.06479518 -1.3278635 -0.9303879
-0.3255 -0.09697616 1.1934752 0.7957651 0.5316708 0.1696509 0.16715409 0.58427685
0.3809259 0.5049542 -0.31117886 0.722389 -1.2172031 -0.98347145 -2.2410836 1.2639031
-0.4529853 -0.35871723 -0.67126966 -0.41318023 1.2539917 0.58706844 1.2552501 1.643023
0.5769757 1.155152 0.6680262 -0.72621334 -0.61693794 0.1667633 1.039945 -0.10741783
-0.76778454 -0.32634822 1.1325276 -1.0760986 -1.0749985 0.17735782 1.0871464 0.06764424
0.052295662 -1.8391509 1.0666018 0.8841173 0.6609789 -0.10579162 1.5271702 1.183592
-1.5735862 -1.8105766 -2.0670898 -0.59066135 0.19749893 -0.92151225 1.1586283 -0.3956771
1.1780345 1.7122295 -1.3001835 -1.3600805 -1.4687337 0.45575026 -0.53426325 -0.014711362
2.148634 -0.8271268 0.0006101528 -0.43526995 -2.0008903 0.49895936 -0.04927443 0.99951434
0.037768573 -1.3349779 0.15363052 1.8144525 0.40431854 1.3870218 -0.114962086 0.90602505
1.341252 -2.182031 0.06279311 0.45441905 0.12555663 -0.7660738 1.0804781 1.2802413
1.2190787 -1.6064154 -0.38783044 -0.11320021 -1.1756432 1.41323 -1.2426602 0.012608813
0.6065955 -0.8210253 -0.01690802 -1.5998887 0.29673 -0.6281881 -2.4259276 -1.3490434
1.2582486 -0.29745564 -1.3265142 -1.746293 0.20898876 -1.5077109 -0.67603475 -0.5294446
-1.0049921 -1.4527134 -1.8207258 0.69284993 -0.13924414 0.30251557 2.9007883 2.2397456
-0.7335021 0.0050804354 -0.91873664 -0.95562845 -0.23591751 0.27061304 -0.22038183 -0.09125828
-0.8123552 -1.4273064 -0.55582917 -0.7157246 1.8804619 -0.92764217 -0.9948946 0.42509678
0.887489 -1.015967 0.5429873 -0.11468933 -1.9914851 0.2055984 0.28117082 -2.7174292
1.2215437 0.41449675 1.0277001 1.0166873 -0.75081396 -0.6457248 0.1679304 1.7495514
0.36008304 -0.4433824 -0.2103674 -0.50198144 0.2122792 0.18124275 2.4714804 -0.2792275
-0.5622659 -0.2731749 0.20122069 -0.72632414 1.3667881 1.0263122 0.4326318 -0.5367248
-0.49075347 0.28972417 1.8188509 -0.13022067 2.089098 -0.80516917 0.017541816 0.41756764
-1.2299212 -0.23808078 -1.1100966 -0.63754535 -0.24430817 0.58504033 1.6756135 0.7394791
-0.15346874 -0.9344353 0.90290475 -0.12873258 0.96633774 0.7117799 -2.1875947 1.7330652
0.5500701 -1.0264721 1.215565 -0.9550033 0.60625696 -0.48134208 -2.1489167 2.2494903
00000000: 807d 3dbf 0be4 043f 97a4 553f c900 9c3f
00000010: eb08 72bd 7e20 063f a874 9d3e 2b9b 41c0
00000020: 3ecd 22bf dd1f 06c0 abed 163f 2256 20bf
00000030: 4aba 963f 5236 06c0 18c9 1bbe 8888 d73f
00000040: c0b8 a1bf 103e f63e 38f0 0e3e c433 af3e
00000050: d682 5abf 9642 01bf 61c0 39bf 04bf 61bf
00000060: 269e ad3e 076b 3440 e004 133f 3499 00bf
00000070: dc93 26be 88c7 153e 054e e03e 8032 4f3f
00000080: a689 e73c c844 5cbe 5bac 84bd 662b 443f
00000090: 9396 3abf d5ee fa3f 9b0f ca3b 198b d03f
000000a0: 0d75 00bf eb7a 86be d5d6 b13f 25e3 c13f
000000b0: 6f6a 3dbe f8f8 7abf f3e3 80be 183c 62bf
000000c0: 39f7 513f 44b1 c83f bb2b f13e b803 853d
000000d0: 1931 883e 56b3 843d 6ef7 a9bf e72d 6ebf
000000e0: f0a7 a6be 709b c6bd ccc3 983f 43b7 4b3f
000000f0: 941b 083f f7b8 2d3e 712a 2b3e 2b93 153f
00000100: b808 c33e ae44 013f d652 9fbe 7cee 383f
00000110: 50cd 9bbf c9c4 7bbf ea6d 0fc0 94c7 a13f
00000120: b0ed e7be c9a9 b7be 54d8 2bbf 5c8c d3be
00000130: cd82 a03f 1e4a 163f 09ac a03f 944e d23f
00000140: aeb4 133f 05dc 933f c403 2b3f 1ee9 39bf
00000150: a5ef 1dbf 00c4 2a3e eb1c 853f e1fd dbbd
00000160: 878d 44bf 1d17 a7be aaf6 903f 99bd 89bf
00000170: 8d99 89bf 4a9d 353e 9d27 8b3f 1089 8a3d
00000180: fa33 563d 4c69 ebbf 6886 883f 8355 623f
00000190: ea35 293f 47a9 d8bd 507a c33f f17f 973f
000001a0: 466b c9bf f9c0 e7bf 334b 04c0 9535 17bf
000001b0: 293d 4a3e 3ae8 6bbf ef4d 943f 3096 cabe
000001c0: d6c9 963f 562a db3f 6a6c a6bf 1e17 aebf
000001d0: 77ff bbbf 1958 e93e 7ac5 08bf ed07 71bc
000001e0: 3883 0940 95be 53bf a9f2 1f3a b4db debe
000001f0: 960e 00c0 9a77 ff3e fcd3 49bd 2ce0 7f3f
00000200: 38b3 1a3d 8ee0 aabf 5251 1d3e fb3f e83f
00000210: d702 cf3e ee89 b13f 3e71 ebbd 42f1 673f
00000220: 25ae ab3f 65a6 0bc0 ad99 803d 9da9 e83e
00000230: eb91 003e 6a1d 44bf 1b4d 8a3f f2de a33f
00000240: c50a 9c3f 059f cdbf b691 c6be 83d5 e7bd
00000250: 7a7b 96bf b8e4 b43f 7d0f 9fbf 3295 4e3c
00000260: d849 1b3f b72e 52bf b082 8abc 27c9 ccbf
00000270: ffec 973e efd0 20bf 6642 1bc0 74ad acbf
00000280: 4a0e a13f 1b4c 98be 38cb a9bf 8786 dfbf
00000290: 2601 563e acfc c0bf 9d10 2dbf ae89 07bf
000002a0: 95a3 80bf 83f2 b9bf 8b0d e9bf 9d5e 313f
000002b0: 0496 0ebe 52e3 9a3e 84a6 3940 fe57 0f40
000002c0: cbc6 3bbf c879 a63b 5332 6bbf 11a4 74bf
000002d0: 5c94 71be cb8d 8a3e c6ab 61be 9fe5 babd
000002e0: 83f6 4fbf fab1 b6bf d24a 0ebf ba39 37bf
000002f0: fab2 f03f f579 6dbf 6ab1 7ebf 49a6 d93e
00000300: 7b32 633f 350b 82bf 3701 0b3f 3de2 eabd
00000310: fce8 febf 6388 523e 9ff5 8f3e 5cea 2dc0
00000320: 8b5b 9c3f eb38 d43e ad8b 833f cf22 823f
00000330: 5835 40bf 384e 25bf f2f5 2b3e 4df1 df3f
00000340: ce5c b83e 0503 e3be 8d6a 57be db81 00bf
00000350: b85f 593e b397 393e bc2c 1e40 e8f6 8ebe
00000360: a8f0 0fbf 95dd 8bbe cc0c 4e3e 61f0 39bf
00000370: eaf2 ae3f 335e 833f ea81 dd3e cc66 09bf
00000380: 0a44 fbbe ba56 943e 1bd0 e83f 9158 05be
00000390: c8b3 0540 911f 4ebf dbb3 8f3c 6dcb d53e
000003a0: 0f6e 9dbf 73cb 73be a517 8ebf 2c36 23bf
000003b0: ec2b 7abe 34c5 153f 817a d63f 814e 3d3f
000003c0: e926 1dbe 2737 6fbf c424 673f 79d2 03be
000003d0: e961 773f 3537 363f 8d01 0cc0 15d5 dd3f
000003e0: 65d1 0c3f 7063 83bf a297 9b3f 197b 74bf
000003f0: a833 1b3f 7872 f6be da87 09c0 a6f7 0f40

p_node_conv2 f4 [64, 64]
-1.2686807 -2.062226 1.0423067 -0.52589023 -1.2893943 0.26438618 -2.5344183 1.079964
-0.30388623 -0.0071761627 -0.41503638 -0.31112823 1.0725402 0.034145672 -1.3318064 0.7941254
-0.5980277 -0.93406284 1.1594385 -1.1688836 0.6110403 0.016792078 -0.18575881 -0.91541415
0.13373716 -0.8356313 0.2800946 -1.0210719 0.8597351 0.2666578 -0.4567183 0.8198057
0.19161116 -1.410758 -0.09237685 -1.0304786 0.10614121 -0.12058114 1.2043339 -0.06604568
-0.080999576 -2.2739537 0.019044168 -1.4157428 1.9307594 -1.0743504 -0.14949936 1.1902542
1.4452058 0.3060671 0.9605363 -0.3537849 0.955818 -0.8531402 0.65910214 -0.65381384
-0.10451738 0.2507751 -1.7273806 -0.48335287 -1.665622 -0.12639312 -0.868671 0.15432382
-0.7256978 1.8996179 0.5980985 -1.0665983 1.2746924 -1.3046561 0.50242496 -0.6852922
-0.6512166 -1.0331637 0.9416234 0.6607034 0.58695126 0.8519156 0.63134426 -2.153806
-0.058082752 -1.6110333 -0.38534346 -0.36924586 -1.2047318 0.08413595 -1.35464 -0.30015466
-1.0353738 0.89420974 -0.7141182 1.2722521 -0.004108209 -0.5279553 2.1250231 0.6055384
1.4896201 0.19101705 0.42321625 1.2472024 -0.52663386 -0.13903199 -1.1148441 0.5815792
-0.9058769 -0.80870134 -1.1464585 -0.6158047 -0.82827514 0.69886166 0.06697805 0.4083491
-1.4058138 -1.2308532 1.240277 -1.4974442 -0.02202123 -0.7009334 -1.1447912 -0.28622752
0.8917363 0.54020953 1.58895 0.8856092 0.76509154 -0.5183592 -0.42391762 -0.15512788
-0.17926247 -0.30382726 -0.32122108 -0.8408914 -1.2842728 -0.987065 1.5496587 0.1682891
0.50522345 2.7813542 -0.25706255 -0.47855714 0.2456119 -0.47180995 -1.2941213 -1.3753146
-0.47992212 -0.97009677 0.24229446 0.39951658 -0.16532595 0.74789613 -0.7618736 1.3174784
1.6067247 -0.40380034 0.6393173 1.6039608 -1.5809189 0.1960202 0.06807643 0.31858614
0.48563436 0.92759836 0.57688844 -0.33419573 -0.73648363 0.05942251 0.22941144 0.82649666
-1.7692323 -0.47257838 -0.24994315 -1.1431402 -0.08999606 0.18327612 -0.4131275 0.068027094
-0.4825916 1.0340481 -0.2771297 2.909257 0.7264562 -0.4466466 2.200148 -1.4086021
0.53536034 0.16334529 -2.2569983 1.2091453 1.2837316 0.8318909 -0.92069906 -0.41789728
1.2415802 -0.5911792 -0.642392 -0.59332675 0.48166704 0.81948453 0.4331983 0.4065844
-0.8193881 -0.2924726 -1.0442683 0.76855814 -1.4729413 1.3796682 -1.0365276 -1.3465524
1.4522163 2.6260674 0.5568263 -1.6464863 0.7813976 -0.5410942 0.5083068 -0.38876006
-0.3776527 0.09625124 -0.7844897 2.1642148 2.0552132 0.086996004 1.1398004 -0.15432233
0.83622575 0.9747991 1.6680087 -0.13049507 0.81317496 -1.1176388 -0.6824653 -0.5177447
0.35115284 -0.34887952 0.72188926 0.022105621 1.5290333 -0.28279692 -0.7874274 -0.40210876
0.26003698 0.8925488 -0.7071471 -0.10471358 0.56999975 0.46150428 1.5208652 0.20334622
-0.7483421 0.47681472 0.16183905 0.71639866 0.35380822 -0.7016823 0.6047894 -0.3117237
00000000: 2164 a2bf 83fb 03c0 4e6a 853f bea0 06bf
00000010: df0a a5bf a05d 873e e933 22c0 433c 8a3f
00000020: fa96 9bbe 0426 ebbb a67f d4be 334c 9fbe
00000030: ff48 893f 55dc 0b3d a278 aabf cd4b 4b3f
00000040: 5818 19bf be1e 6fbf 7b68 943f fa9d 95bf
00000050: 236d 1c3f 8a8f 893c 8f37 3ebe 9558 6abf
00000060: 65f2 083e efeb 55bf 8f68 8f3e 7cb2 82bf
00000070: 9917 5c3f 5f87 883e fbd6 e9be c9de 513f
00000080: b735 443e b893 b4bf 1330 bdbd b9e6 83bf
00000090: 9060 d93d 3ff3 f6bd 9d27 9a3f f542 87bd
000000a0: 1be3 a5bd 7588 11c0 8402 9c3c 0f37 b5bf
000000b0: 2023 f73f 5084 89bf 5c16 19be 405a 983f
000000c0: 81fc b83f d4b4 9c3e b5e5 753f 4b23 b5be
000000d0: 7db0 743f 6567 5abf ebba 283f 5860 27bf
000000e0: 350d d6bd 9865 803e cf1a ddbf 077a f7be
000000f0: 1a33 d5bf 336d 01be 3961 5ebf 1007 1e3e
00000100: 55c7 39bf ae26 f33f fc1c 193f 4b86 88bf
00000110: 1f29 a33f f9fe a6bf ec9e 003f 4f6f 2fbf
00000120: 22b6 26bf b53e 84bf 3b0e 713f dc23 293f
00000130: 7042 163f 2417 5a3f c79f 213f f5d7 09c0
00000140: 2ee8 6dbd 5736 cebf bd4b c5be cb0d bdbe
00000150: a734 9abf 784f ac3d d864 adbf dfad 99be
00000160: 2187 84bf eeea 643f 73d0 36bf 28d9 a23f
00000170: 289e 86bb 1428 07bf 6100 0840 9104 1b3f
00000180: dfab be3f f999 433e cdaf d83e 54a4 9f3f
00000190: 7ad1 06bf 675e 0ebe 36b3 8ebf 60e2 143f
000001a0: 8ce7 67bf 0d07 4fbf 27bf 92bf 60a5 1dbf
000001b0: d709 54bf 99e8 323f ca2b 893d 2213 d13e
000001c0: b5f1 b3bf 998c 9dbf 66c1 9e3f 40ac bfbf
000001d0: de65 b4bc 5f70 33bf 8588 92bf 6a8c 92be
000001e0: d548 643f 2c4b 0a3f b762 cb3f 49b7 623f
000001f0: 0add 433f 30b3 04bf bb0b d9be d8d9 1ebe
00000200: 9590 37be 3f8f 9bbe 1777 a4be a944 57bf
00000210: 0d63 a4bf 4bb0 7cbf 375b c63f fa53 2c3e
00000220: 5356 013f b501 3240 b49d 83be 7105 f5be
00000230: b081 7b3e 1391 f1be c4a5 a5bf 4f0a b0bf
00000240: 5ab8 f5be 4358 78bf 0a1c 783e 708d cc3e
00000250: 354b 29be 1f76 3f3f 260a 43bf 22a3 a83f
00000260: 28a9 cd3f ebbe cebe 4caa 233f 964e cd3f
00000270: 8d5b cabf 85b9 483e a86b 8b3d b91d a33e
00000280: 11a5 f83e 1677 6d3f f6ae 133f b41b abbe
00000290: 318a 3cbf 0565 733d d5ea 6a3e 4995 533f
000002a0: 3476 e2bf cbf5 f1be 19f1 7fbe 6b52 92bf
000002b0: db4f b8bd bcac 3b3e 7385 d3be ca51 8b3d
000002c0: 3f16 f7be b05b 843f f2e3 8dbe 4431 3a40
000002d0: 09f9 393f ddae e4be 3acf 0c40 134d b4bf
000002e0: 600d 093f fd43 273e a972 10c0 46c5 9a3f
000002f0: 5151 a43f cdf6 543f efb2 6bbf a2f6 d5be
00000300: 1aec 9e3f 8557 17bf cd73 24bf 43e4 17bf
00000310: 109d f63e bdc9 513f 2bcc dd3e d52b d03e
00000320: 6bc3 51bf f8be 95be 95aa 85bf 3ac0 443f
00000330: 5789 bcbf f898 b03f f0ac 84bf d45b acbf
00000340: 39e2 b93f 7d11 2840 2b8c 0e3f 10c0 d2bf
00000350: ac09 483f 2685 0abf 6520 023f 8f0b c7be
00000360: b25b c1be 5f1f c53d 51d4 48bf 7f82 0a40
00000370: 9d88 0340 f62a b23d fbe4 913f ac06 1ebe
00000380: e412 563f 6f8c 793f 4f81 d53f 80a0 05be
00000390: 3c2c 503f ca0e 8fbf 0cb6 2ebf eb8a 04bf
000003a0: 4eca b33e 56a0 b2be bccd 383f d916 b53c
000003b0: 5db7 c33f c2ca 90be d894 49bf 33e1 cdbe
000003c0: 9123 853e 147e 643f 9807 35bf 1374 d6bd
000003d0: 81eb 113f 4a4a ec3e b6ab c23f fe39 503e
000003e0: 5993 3fbf 0f21 f43e 23b9 253e e765 373f
000003f0: 5a26 b53e 74a1 33bf 7ad3 1a3f 409a 9fbe

p_node_conv3 f4 [128, 64]
-0.9828184 -1.286608 0.7713869 0.04992524 -2.5989766 -0.33154473 0.12502827 0.05267927
0.02464427 -0.08436644 -0.99421823 0.66660386 0.45872512 -1.5971965 0.48816553 1.3606926
-0.99270654 -0.10042072 1.0862062 0.58237416 1.5063256 1.2349862 -0.12895326 1.681585
0.4789229 0.2851006 1.1007237 -0.09113973 -0.4844605 -0.54469436 -0.6683646 0.17539084
-0.10310083 -0.16701323 -0.16951126 -0.6060809 -0.1025014 -0.31255546 -1.3704578 2.1460495
0.3889938 1.8934171 1.5309786 0.19767526 0.3902381 0.79011506 0.17017294 -0.49935445
-1.5729697 -0.9508721 -0.09365782 -0.6394767 0.68963265 -0.28621748 0.60476965 0.7208635
0.4354028 0.85827595 -0.36194167 -0.71291554 -2.4983091 1.4283594 -1.0012839 0.0048905592
-2.2401986 0.30342168 -0.31405568 -0.10295888 -1.3393216 -0.24818103 0.23455155 0.12325283
-0.66304874 -0.7276016 0.36070165 0.6274512 -0.15539156 1.0433141 -0.008754248 0.26545766
-0.07725148 0.3754352 -1.147584 1.3941064 -1.395455 0.592414 -1.2381728 1.5911629
-0.60872984 -0.96201235 -0.27148 -0.95541996 0.63089776 -1.0977794 1.6911362 0.6009908
-0.85015714 -1.0747651 0.3602865 0.82861376 -0.55437315 0.7156162 -0.50823873 0.30807632
0.033162702 1.6922933 1.149976 -0.4603668 1.6308099 2.3560555 0.4168412 1.2441263
-0.15636593 0.90641916 0.21367602 1.420472 1.2414018 0.99340725 -0.6183043 -0.41863587
-0.421819 -0.108015455 -0.7647505 -2.3761423 -0.11001205 -0.74840957 0.51168346 0.013203589
-0.56548405 0.16312239 -0.28443655 0.6578948 -0.14967848 0.10197256 -1.3036237 0.41559142
-0.77390873 -0.06686655 -1.3510959 -1.2365367 0.10228123 -1.4137045 0.9510888 0.68904185
-0.12076443 0.458342 -0.34671444 -0.85958165 -0.093732014 -1.1485274 -0.5727333 -0.36521778
0.85807776 1.2245249 -0.549758 0.18113543 1.4464673 -0.29103023 2.7114875 -0.43339527
-1.4631232 -1.0188134 0.49785843 -0.0427877 -0.7076043 -0.6746367 -0.4216944 -0.0040930263
-1.4071469 0.85051876 -0.68519115 2.7761064 1.1980278 -0.33194 0.8055955 0.15992977
0.8860736 -0.07737152 0.92778695 -1.1016605 -0.2009522 0.46813893 -0.17612371 0.14773773
-1.2931285 2.1087358 -2.0340745 0.57815135 -1.4014695 1.3479693 1.1610379 1.1328019
-1.0967591 -0.6857297 -0.55176353 0.6874899 -0.9927806 -0.6095951 -0.47799224 0.041676678
-0.08948515 0.33886677 -1.9564478 0.9141353 0.7123853 0.053518295 0.09459518 -0.19637457
1.2666847 0.020698214 -0.69662994 -0.23232044 0.94337606 -0.82700807 2.9316623 -0.10183755
0.6886834 0.8717974 -1.2411375 -0.7677419 0.95362943 1.4654568 -0.933781 2.6381905
1.6443968 0.44905832 1.8417058 1.2872541 -1.0586692 0.9850138 0.46531692 -0.157869
-0.09798091 -0.61114556 -2.0785832 0.2207763 0.14494295 -0.059067477 -0.58958095 -0.44369712
0.10263195 0.7948903 -1.2511178 0.5997868 0.6308597 0.38595527 -0.3889376 0.5165043
1.0376829 -1.3756965 1.4511211 -0.3657385 1.2254379 -0.19527169 0.58494556 0.98641676
00000000: fd99 7bbf 92af a4bf 9d79 453f 697e 4c3d
00000010: a255 26c0 3bc0 a9be 6907 003e 38c6 573d
00000020: c8e2 c93c 50c8 acbd 1685 7ebf 8da6 2a3f
00000030: 05de ea3e ef70 ccbf d5f0 f93e 2d2b ae3f
00000040: 0422 7ebf 61a9 cdbd ce08 8b3f 7916 153f
00000050: 47cf c03f 0714 9e3f 530c 04be 2d3e d73f
00000060: 6235 f53e b5f8 913e 84e4 8c3f 77a7 babd
00000070: 350b f8be 1771 0bbf f119 2bbf a899 333e
00000080: 8726 d3bd 8405 2bbe 5c94 2dbe 1e28 1bbf
00000090: 41ec d1bd 4507 a0be 296b afbf e058 0940
000000a0: 322a c73e 7e5b f23f 1bf7 c33f 626b 4a3e
000000b0: 4acd c73e fb44 4a3f d141 2e3e 63ab ffbe
000000c0: 1257 c9bf 5b6c 73bf accf bfbd bfb4 23bf
000000d0: c48b 303f 198b 92be 2fd2 1a3f 838a 383f
000000e0: 1eed de3e f9b7 5b3f 6b50 b9be a281 36bf
000000f0: 4ce4 1fc0 7bd4 b63f 122a 80bf fc40 a03b
00000100: 6a5f 0fc0 165a 9b3e e8cb a0be 1bdc d2bd
00000110: e46e abbf 2b23 7ebe 482e 703e fb6b fc3d
00000120: 90bd 29bf 1944 3abf e3ad b83e a4a0 203f
00000130: f71e 1fbe 518b 853f fa6d 0fbc 11ea 873e
00000140: 0636 9ebd 0b39 c03e 08e4 92bf 1472 b23f
00000150: 459e b2bf 72a8 173f 727c 9ebf 3aab cb3f
00000160: b8d5 1bbf 7146 76bf 6dff 8abe 6796 74bf
00000170: 8482 213f 0984 8cbf 2777 d83f 88da 193f
00000180: e6a3 59bf e791 89bf 7977 b83e 0820 543f
00000190: 66eb 0dbf a032 373f ef1b 02bf 2ebc 9d3e
000001a0: 9dd5 073d 119d d83f 6a32 933f 32b5 ebbe
000001b0: 61be d03f 9dc9 1640 366c d53e 883f 9f3f
000001c0: 641e 20be 160b 683f e3cd 5a3e 07d2 b53f
000001d0: 41e6 9e3f f04f 7e3f 3149 1ebf 7157 d6be
000001e0: a9f8 d7be 3537 ddbd b0c6 43bf b712 18c0
000001f0: ff4d e1bd c597 3fbf b0fd 023f de53 583c
00000200: 90c3 10bf 8e09 273e aba1 91be cb6b 283f
00000210: 5145 19be fdd6 d03d 24dd a6bf 66c8 d43e
00000220: e21e 46bf 54f1 88bd b6f0 acbf d646 9ebf
00000230: d278 d13d 45f4 b4bf 8e7a 733f 0c65 303f
00000240: 5753 f7bd cdab ea3e 8e84 b1be 8b0d 5cbf
00000250: 92f6 bfbd f202 93bf a69e 12bf d3fd babe
00000260: fcaa 5b3f 3bbd 9c3f f1bc 0cbf 917b 393e
00000270: d725 b93f ea01 95be 0389 2d40 fce5 ddbe
00000280: 9f47 bbbf 7a68 82bf 4de7 fe3e 2842 2fbd
00000290: 8e25 35bf feb4 2cbf 54e8 d7be cb1e 86bb
000002a0: 641d b4bf 99bb 593f b068 2fbf baab 3140
000002b0: fa58 993f 0af4 a9be 823b 4e3f a1c4 233e
000002c0: b8d5 623f f674 9ebd 7283 6d3f 3603 8dbf
000002d0: 6ac6 4dbe e8af ef3e c659 34be 8f48 173e
000002e0: 3c85 a5bf 87f5 0640 472e 02c0 ba01 143f
000002f0: 5a63 b3bf 428a ac3f e49c 943f a7ff 903f
00000300: 9a62 8cbf fb8b 2fbf 6040 0dbf 57ff 2f3f
00000310: df26 7ebf 6d0e 1cbf 66bb f4be 2ab5 2a3d
00000320: fe43 b7bd f27f ad3e e26c fabf c504 6a3f
00000330: e25e 363f 0036 5b3d 1ebb c13d 6a16 49be
00000340: b922 a23f 4d8f a93c 5756 32bf 69e5 6dbe
00000350: 1881 713f cdb6 53bf 5ba0 3b40 3590 d0bd
00000360: 8e4d 303f 1d2e 5f3f 98dd 9ebf bc8a 44bf
00000370: 0f21 743f 1794 bb3f 460c 6fbf 1dd8 2840
00000380: 987b d23f f9ea e53e 04bd eb3f bec4 a43f
00000390: 7982 87bf dd29 7c3f 053e ee3e 69a8 21be
000003a0: 37aa c8bd 0974 1cbf 8207 05c0 2f13 623e
000003b0: ed6b 143e bdf0 71bd c7ee 16bf 452c e3be
000003c0: b330 d23d ee7d 4b3f a124 a0bf a18b 193f
000003d0: 0580 213f ee9b c53e d422 c7be a039 043f
000003e0: cbd2 843f d316 b0bf 56be b93f 1442 bbbe
000003f0: 26db 9c3f 4df5 47be febe 153f cf85 7c3f

h1_weight f4 [64, 32]
2.216756 1.6534141 0.26909578 0.84206724 -1.0466074 0.45749855 -0.3723345 0.558645
-0.38918543 0.27551037 1.4650292 0.91472995 -0.714945 -0.031129297 1.3094738 -0.7319182
0.29941025 2.0826654 1.5812371 0.2346159 0.4590465 1.6301168 -1.0639879 1.2304814
0.63768464 -1.397065 1.891976 -0.0660329 1.8645308 0.15923779 -1.2116305 1.0748824
-2.394509 0.15505342 0.5564043 1.6198187 0.13214362 -0.8327201 0.5161449 -0.19884759
0.95493865 1.2011354 -0.15229161 0.117219135 1.6078836 -0.01117576 0.69870615 -1.1657033
-1.3873192 -0.83533657 1.5827546 -0.37599683 0.5927899 -1.4717087 -0.010269741 -0.74433213
1.3319545 -1.0636411 1.0151286 1.6300458 -1.319514 -1.973617 -0.788514 1.1421634
1.8401351 -2.2813952 -0.3194826 -0.27426654 2.5589826 1.0888164 -1.6997142 -0.6652612
-2.0572343 -1.9480919 -0.196043 0.5400918 1.4987293 1.6198457 -0.8456613 0.06833649
-0.49847102 -1.6395286 -0.07348565 -1.3806273 -1.8495686 1.3054757 0.046365835 -0.58429503
-0.032572377 -0.119022556 -1.33258 -1.052671 -0.33143967 -0.5846139 0.4539575 -1.1055632
-0.11070018 2.3024077 -0.8200503 0.62164515 0.041448187 1.4452119 -0.619001 -0.8395364
-0.049110275 -0.38929555 -0.34871396 -0.63855845 0.657651 -0.62067425 0.62119645 1.3573788
0.19304726 -0.1635924 1.2167747 0.4170952 -0.03859762 -0.08598542 0.621959 1.1571931
0.29944018 -0.164482 -0.6291002 -1.0441481 -0.49555817 0.6031003 -0.93309635 -1.434548
0.14264584 0.2976759 0.53785664 -0.36529395 -1.9142308 0.5185771 -0.54279065 2.634455
-0.24260347 -1.0086335 -0.5178342 -1.0388265 -0.3265361 2.0434425 -0.33684584 1.3906045
-2.069849 -0.4156076 -0.9114717 2.039882 -0.66746694 0.2673036 -0.8862862 0.58868396
0.49120748 0.9276843 0.5815705 0.9186011 1.0252696 -0.2985503 0.22548628 0.011923705
1.5680201 -0.010481558 0.32203916 -1.7498846 1.735676 0.6582064 -1.4910005 0.3416061
-0.5491892 -0.99168175 -0.3472307 0.75141644 0.20110172 1.5953013 -0.36234236 -0.20329644
-0.065456145 -0.68450314 -2.5480804 1.6331161 0.22587813 1.0167414 0.5060884 -0.495852
0.5942291 -0.89823335 1.1480608 -1.2680452 -1.4161798 1.0962187 0.9069064 0.433617
0.30423972 2.2703555 1.910123 -0.48494723 -0.21643399 0.29785082 0.79542685 1.2648269
-0.17159683 -0.96379507 -0.695866 -1.2627746 -0.557344 0.02148009 0.8749056 1.3146942
0.5802045 1.2245482 -1.3359187 0.5549224 0.6794658 0.5301743 0.20637916 0.07459002
2.3834157 -0.4054762 0.9240997 0.31150788 -1.1435199 0.18725562 -0.74774444 0.5122103
-0.77560776 0.74031097 0.7645773 0.35091966 0.35025686 -0.6742914 -0.7835034 1.3705429
1.8537381 -1.7354585 3.0052803 -0.82301 -2.8428802 -0.7704921 1.0058066 -1.1647936
-0.32181537 -0.3744111 -0.5583006 0.28098702 0.7463004 -0.2877369 0.78077865 -0.23144072
1.6389916 -1.3363211 0.4272935 0.7984992 -1.0551744 0.9403052 -0.2940696 0.06206415
00000000: 55df 0d40 13a3 d33f ecc6 893e b891 573f
00000010: 3bf7 85bf 403d ea3e a1a2 bebe 5c03 0f3f
00000020: 5043 c7be b20f 8d3e 1486 bb3f be2b 6a3f
00000030: a306 37bf de02 ffbc d69c a73f fe5e 3bbf
00000040: 4d4c 993e 644a 0540 fa65 ca3f 273f 703e
00000050: 2508 eb3e aba7 d03f c130 88bf 6a80 9d3f
00000060: 4d3f 233f 07d3 b2bf 452c f23f 423c 87bd
00000070: f2a8 ee3f 3b0f 233e b516 9bbf bf95 893f
00000080: a33f 19c0 53c6 1e3e 8370 0e3f 3856 cf3f
00000090: a850 073e 252d 55bf 1222 043f b49e 4bbe
000000a0: dc76 743f cebe 993f 55f2 1bbe 9610 f03d
000000b0: 21cf cd3f 891a 37bc 68de 323f c435 95bf
000000c0: ad93 b1bf 9ed8 55bf b497 ca3f a882 c0be
000000d0: 14c1 173f f360 bcbf 6a42 28bc 8d8c 3ebf
000000e0: 7c7d aa3f 6425 88bf bcef 813f 57a5 d03f
000000f0: d6e5 a8bf 7b9f fcbf 0edc 49bf 6932 923f
00000100: 8c89 eb3f 6102 12c0 3993 a3be aa6c 8cbe
00000110: 5fc6 2340 565e 8b3f 3c90 d9bf 8f4e 2abf
00000120: baa9 03c0 135b f9bf 7fbf 48be 7543 0a3f
00000130: 5dd6 bf3f 1b57 cf3f 427d 58bf 00f4 8b3d
00000140: 9837 ffbe 13dc d1bf a57f 96bd 65b8 b0bf
00000150: aabe ecbf d419 a73f 1aea 3d3d 5c94 15bf
00000160: 9d6a 05bd 19c2 f3bd fb91 aabf ecbd 86bf
00000170: 76b2 a9be 42a9 15bf 1e6d e83e 1883 8dbf
00000180: c7b6 e2bd a65a 1340 d1ee 51bf 2324 1f3f
00000190: 93c5 293d b4fc b83f d976 1ebf dceb 56bf
000001a0: db27 49bd bf51 c7be a38a b2be 9178 23bf
000001b0: d15b 283f 82e4 1ebf bb06 1f3f 97be ad3f
000001c0: 2eae 453e c484 27be 46bf 9b3f 818d d53e
000001d0: 8a18 1ebd 2019 b0bd b438 1f3f e71e 943f
000001e0: 3950 993e f86d 28be b60c 21bf a5a6 85bf
000001f0: cdb9 fdbe c864 1a3f 67df 6ebf 459f b7bf
00000200: c011 123e fa68 983e f9b0 093f cf07 bbbe
00000210: 8405 f5bf 78c1 043f 54f4 0abf e99a 2840
00000220: 0b6d 78be e71a 81bf c890 04bf 44f8 84bf
00000230: bd2f a7be c3c7 0240 0f77 acbe 54ff b13f
00000240: 6878 04c0 85ca d4be 3656 69bf 6d8d 0240
00000250: 1ddf 2abf 04dc 883e a7e3 62bf feb3 163f
00000260: 8c7f fb3e b87c 6d3f cee1 143f 7129 6b3f
00000270: 093c 833f 96db 98be e0e5 663e a55b 433c
00000280: e2b4 c83f d7ba 2bbc 51e2 a43e 38fc dfbf
00000290: a22a de3f 3780 283f 1bd9 bebf ffe6 ae3e
000002a0: aa97 0cbf dbde 7dbf 39c8 b1be d45c 403f
000002b0: 9ced 4d3e d532 cc3f f084 b9be f12c 50be
000002c0: df0d 86bd 993b 2fbf c013 23c0 f309 d13f
000002d0: 994c 673e 9524 823f 028f 013f 50e0 fdbe
000002e0: 661f 183f 9ff2 65bf a8f3 923f 4e4f a2bf
000002f0: 6145 b5bf e550 8c3f 052b 683f 0c03 de3e
00000300: 4fc5 9b3e 814d 1140 e97e f43f 014b f8be
00000310: dfa0 5dbe e77f 983e 18a1 4b3f d9e5 a13f
00000320: 14b7 2fbe 46bb 76bf 4624 32bf 99a2 a1bf
00000330: 19ae 0ebf 04f7 af3c d0f9 5f3f e647 a83f
00000340: 4888 143f ffbd 9c3f 62ff aabf 650f 0e3f
00000350: 78f1 2d3f 81b9 073f 0f55 533e a7c2 983d
00000360: e289 1840 949a cfbe cc91 6c3f f67d 9f3e
00000370: dc5e 92bf f0bf 3f3e 2e6c 3fbf 3720 033f
00000380: 3b8e 46bf 0585 3d3f 57bb 433f beab b33e
00000390: de54 b33e 5c9e 2cbf ae93 48bf f36d af3f
000003a0: 4a47 ed3f 8123 debf 8356 4040 c9b0 52bf
000003b0: c0f1 35c0 f83e 45bf 45be 803f f517 95bf
000003c0: fcc4 a4be d0b2 bfbe caec 0ebf 88dd 8f3e
000003d0: 8b0d 3f3f 4052 93be 1ce1 473f ccfe 6cbe
000003e0: 7aca d13f 920c abbf 37c6 da3e 726a 4c3f
000003f0: f40f 87bf d7b7 703f 4a90 96be fa36 7e3d

h2_weight f4 [36, 1]
-0.28122216 -0.6670164 -1.905134 -1.4856092 0.81575376 -1.1489303 -0.5340945 -0.5465637
-2.9015315 -0.11667464 -0.65930134 -0.8284571 -0.2748685 -1.127227 -0.09081371 -0.17002898
1.1187449 -0.8688852 -0.41835314 2.0502758 -0.63432527 0.9179356 0.8008217 0.31200266
-1.0876105 0.80351204 1.5719748 1.0770487 -0.48229563 -0.12426603 -0.2759032 1.461844
-0.059620254 0.57246155 0.14685252 1.0518919
00000000: 5afc 8fbe 96c1 2abf 6edb f3bf 7128 bebf
00000010: 3dd5 503f 2610 93bf 6bba 08bf 99eb 0bbf
00000020: b1b2 39c0 1df3 eebd f9c7 28bf c415 54bf
00000030: 90bb 8cbe f948 90bf 8afc b9bd 141c 2ebe
00000040: 0833 8f3f 436f 5ebf 6232 d6be b837 0340
00000050: 2463 22bf d4fd 6a3f a702 4d3f d0be 9f3e
00000060: d236 8bbf f7b2 4d3f 7836 c93f bbdc 893f
00000070: 74ef f6be 307f febd 2f43 8dbe b41d bb3f
00000080: 5e34 74bd d78c 123f 8260 163e 65a4 863f

last_w f4 [36, 1]
-0.28122216 -0.6670164 -1.905134 -1.4856092 0.81575376 -1.1489303 -0.5340945 -0.5465637
-2.9015315 -0.11667464 -0.65930134 -0.8284571 -0.2748685 -1.127227 -0.09081371 -0.17002898
1.1187449 -0.8688852 -0.41835314 2.0502758 -0.63432527 0.9179356 0.8008217 0.31200266
-1.0876105 0.80351204 1.5719748 1.0770487 -0.48229563 -0.12426603 -0.2759032 1.461844
-0.059620254 0.57246155 0.14685252 1.0518919
00000000: 5afc 8fbe 96c1 2abf 6edb f3bf 7128 bebf
00000010: 3dd5 503f 2610 93bf 6bba 08bf 99eb 0bbf
00000020: b1b2 39c0 1df3 eebd f9c7 28bf c415 54bf
00000030: 90bb 8cbe f948 90bf 8afc b9bd 141c 2ebe
00000040: 0833 8f3f 436f 5ebf 6232 d6be b837 0340
00000050: 2463 22bf d4fd 6a3f a702 4d3f d0be 9f3e
00000060: d236 8bbf f7b2 4d3f 7836 c93f bbdc 893f
00000070: 74ef f6be 307f febd 2f43 8dbe b41d bb3f
00000080: 5e34 74bd d78c 123f 8260 163e 65a4 863f

cross_product f4 [64, 1]
0.4079412 -0.84408176 0.84502584 0.4302751 0.16154559 -0.42967245 0.6049266 1.5808443
1.1044793 0.7401668 -0.639115 0.32202289 1.2307589 1.5318289 -0.039258994 0.72522116
0.7260379 -1.6431978 1.0153847 0.08450996 1.3352513 -0.63333553 -0.994388 -0.8340313
-0.032457147 0.19063027 -1.1426917 -0.71476007 0.761109 -3.4271784 -0.9580917 -0.24208461
1.3398557 -0.075982474 -0.9126487 -1.1819961 0.088267274 0.74934995 1.066615 -1.2172618
-0.38451013 -0.803019 -1.2207305 -0.26403895 -0.3926915 1.2659533 0.34503016 0.37933046
-1.8722973 0.44313473 1.1029735 -0.40518308 -0.14474681 -2.178706 0.24074474 -1.5925747
1.6215776 1.3272069 -0.4773119 0.3637252 0.22311331 -0.1344165 -0.16099283 0.009170547
00000000: abdd d03e be15 58bf 9d53 583f 054d dc3e
00000010: 356c 253e 07fe dbbe 78dc 1a3f 1b59 ca3f
00000020: 945f 8d3f 927b 3d3f 0a9d 23bf 2fe0 a43e
00000030: 8289 9d3f f812 c43f 0ace 20bd 18a8 393f
00000040: 9fdd 393f 4e54 d2bf 20f8 813f 8f13 ad3d
00000050: 84e9 aa3f 4722 22bf 3690 7ebf 1383 55bf
00000060: c9f1 04bd 9534 433e b943 92bf 84fa 36bf
00000070: 0ad8 423f e456 5bc0 7f45 75bf 07e5 77be
00000080: 6480 ab3f b39c 9bbd 58a3 69bf a64b 97bf
00000090: 79c5 b43d 66d5 3f3f d786 883f 3ccf 9bbf
000000a0: 83de c4be a792 4dbf e640 9cbf 1d30 87be
000000b0: dc0e c9be c20a a23f cba7 b03e 9a37 c23e
000000c0: 70a7 efbf 8ee2 e23e 3c2e 8d3f 2874 cfbe
000000d0: 8238 14be eb6f 0bc0 ca85 763e 7dd9 cbbf
000000e0: db8f cf3f eae1 a93f 3a62 f4be 303a ba3e
000000f0: d177 643e 7ba4 09be 4edb 24be 1040 163c
